…
I0303 15:23:57.522150 20004 net.cpp:258] The NetState phase (1) differed from the phase (0) specified by a rule in layer loss
I0303 15:23:57.522565 20004 net.cpp:42] Initializing net from parameters: 
name: "deeplab"
state {
  phase: TEST
}
layer {
  name: "data"
  type: "ImageSegData"
  top: "data"
  top: "label"
  include {
    phase: TEST
  }
  transform_param {
    mirror: true
    crop_size: 426
    mean_value: 110.324
    mean_value: 116.435
    mean_value: 125.793
  }
  image_data_param {
    source: "/home/ganyk/SUNRGBD/list_test.txt"
    batch_size: 10
    shuffle: true
    root_folder: "/home/ganyk/"
    label_type: PIXEL
  }
}
layer {
  name: "conv1_1"
  type: "Convolution"
  bottom: "data"
  top: "conv1_1"
  param {
    lr_mult: 1
    decay_mult: 1
  }
  param {
    lr_mult: 2
    decay_mult: 0
  }
  convolution_param {
    num_output: 64
    pad: 1
    kernel_size: 3
  }
}
layer {
  name: "relu1_1"
  type: "ReLU"
  bottom: "conv1_1"
  top: "conv1_1"
}
layer {
  name: "conv1_2"
  type: "Convolution"
  bottom: "conv1_1"
  top: "conv1_2"
  param {
    lr_mult: 1
    decay_mult: 1
  }
  param {
    lr_mult: 2
    decay_mult: 0
  }
  convolution_param {
    num_output: 64
    pad: 1
    kernel_size: 3
  }
}
layer {
  name: "relu1_2"
  type: "ReLU"
  bottom: "conv1_2"
  top: "conv1_2"
}
layer {
  name: "pool1"
  type: "Pooling"
  bottom: "conv1_2"
  top: "pool1"
  pooling_param {
    pool: MAX
    kernel_size: 2
    stride: 2
    pad: 1
  }
}
layer {
  name: "conv2_1"
  type: "Convolution"
  bottom: "pool1"
  top: "conv2_1"
  param {
    lr_mult: 1
    decay_mult: 1
  }
  param {
    lr_mult: 2
    decay_mult: 0
  }
  convolution_param {
    num_output: 128
    pad: 1
    kernel_size: 3
  }
}
layer {
  name: "relu2_1"
  type: "ReLU"
  bottom: "conv2_1"
  top: "conv2_1"
}
layer {
  name: "conv2_2"
  type: "Convolution"
  bottom: "conv2_1"
  top: "conv2_2"
  param {
    lr_mult: 1
    decay_mult: 1
  }
  param {
    lr_mult: 2
    decay_mult: 0
  }
  convolution_param {
    num_output: 128
    pad: 1
    kernel_size: 3
  }
}
layer {
  name: "relu2_2"
  type: "ReLU"
  bottom: "conv2_2"
  top: "conv2_2"
}
layer {
  name: "pool2"
  type: "Pooling"
  bottom: "conv2_2"
  top: "pool2"
  pooling_param {
    pool: MAX
    kernel_size: 2
    stride: 2
    pad: 1
  }
}
layer {
  name: "conv3_1"
  type: "Convolution"
  bottom: "pool2"
  top: "conv3_1"
  param {
    lr_mult: 1
    decay_mult: 1
  }
  param {
    lr_mult: 2
    decay_mult: 0
  }
  convolution_param {
    num_output: 256
    pad: 1
    kernel_size: 3
  }
}
layer {
  name: "relu3_1"
  type: "ReLU"
  bottom: "conv3_1"
  top: "conv3_1"
}
layer {
  name: "conv3_2"
  type: "Convolution"
  bottom: "conv3_1"
  top: "conv3_2"
  param {
    lr_mult: 1
    decay_mult: 1
  }
  param {
    lr_mult: 2
    decay_mult: 0
  }
  convolution_param {
    num_output: 256
    pad: 1
    kernel_size: 3
  }
}
layer {
  name: "relu3_2"
  type: "ReLU"
  bottom: "conv3_2"
  top: "conv3_2"
}
layer {
  name: "conv3_3"
  type: "Convolution"
  bottom: "conv3_2"
  top: "conv3_3"
  param {
    lr_mult: 1
    decay_mult: 1
  }
  param {
    lr_mult: 2
    decay_mult: 0
  }
  convolution_param {
    num_output: 256
    pad: 1
    kernel_size: 3
  }
}
layer {
  name: "relu3_3"
  type: "ReLU"
  bottom: "conv3_3"
  top: "conv3_3"
}
layer {
  name: "pool3"
  type: "Pooling"
  bottom: "conv3_3"
  top: "pool3"
  pooling_param {
    pool: MAX
    kernel_size: 2
    stride: 2
    pad: 1
  }
}
layer {
  name: "conv4_1"
  type: "Convolution"
  bottom: "pool3"
  top: "conv4_1"
  param {
    lr_mult: 1
    decay_mult: 1
  }
  param {
    lr_mult: 2
    decay_mult: 0
  }
  convolution_param {
    num_output: 512
    pad: 1
    kernel_size: 3
  }
}
layer {
  name: "relu4_1"
  type: "ReLU"
  bottom: "conv4_1"
  top: "conv4_1"
}
layer {
  name: "conv4_2"
  type: "Convolution"
  bottom: "conv4_1"
  top: "conv4_2"
  param {
    lr_mult: 1
    decay_mult: 1
  }
  param {
    lr_mult: 2
    decay_mult: 0
  }
  convolution_param {
    num_output: 512
    pad: 1
    kernel_size: 3
  }
}
layer {
  name: "relu4_2"
  type: "ReLU"
  bottom: "conv4_2"
  top: "conv4_2"
}
layer {
  name: "conv4_3"
  type: "Convolution"
  bottom: "conv4_2"
  top: "conv4_3"
  param {
    lr_mult: 1
    decay_mult: 1
  }
  param {
    lr_mult: 2
    decay_mult: 0
  }
  convolution_param {
    num_output: 512
    pad: 1
    kernel_size: 3
  }
}
layer {
  name: "relu4_3"
  type: "ReLU"
  bottom: "conv4_3"
  top: "conv4_3"
}
layer {
  name: "pool4"
  type: "Pooling"
  bottom: "conv4_3"
  top: "pool4"
  pooling_param {
    pool: MAX
    kernel_size: 2
    stride: 1
  }
}
layer {
  name: "conv5_1"
  type: "ConvolutionDeeplab"
  bottom: "pool4"
  top: "conv5_1"
  param {
    lr_mult: 1
    decay_mult: 1
  }
  param {
    lr_mult: 2
    decay_mult: 0
  }
  convolution_deeplab_param {
    num_output: 512
    pad: 2
    kernel_size: 3
    hole: 2
  }
}
layer {
  name: "relu5_1"
  type: "ReLU"
  bottom: "conv5_1"
  top: "conv5_1"
}
layer {
  name: "conv5_2"
  type: "ConvolutionDeeplab"
  bottom: "conv5_1"
  top: "conv5_2"
  param {
    lr_mult: 1
    decay_mult: 1
  }
  param {
    lr_mult: 2
    decay_mult: 0
  }
  convolution_deeplab_param {
    num_output: 512
    pad: 2
    kernel_size: 3
    hole: 2
  }
}
layer {
  name: "relu5_2"
  type: "ReLU"
  bottom: "conv5_2"
  top: "conv5_2"
}
layer {
  name: "conv5_3"
  type: "ConvolutionDeeplab"
  bottom: "conv5_2"
  top: "conv5_3"
  param {
    lr_mult: 1
    decay_mult: 1
  }
  param {
    lr_mult: 2
    decay_mult: 0
  }
  convolution_deeplab_param {
    num_output: 512
    pad: 2
    kernel_size: 3
    hole: 2
  }
}
layer {
  name: "relu5_3"
  type: "ReLU"
  bottom: "conv5_3"
  top: "conv5_3"
}
layer {
  name: "pool5"
  type: "Pooling"
  bottom: "conv5_3"
  top: "pool5"
  pooling_param {
    pool: MAX
    kernel_size: 3
    stride: 1
    pad: 1
  }
}
layer {
  name: "conv6"
  type: "ConvolutionDeeplab"
  bottom: "pool5"
  top: "conv6"
  param {
    lr_mult: 1
    decay_mult: 1
  }
  param {
    lr_mult: 2
    decay_mult: 0
  }
  convolution_deeplab_param {
    num_output: 4096
    pad: 6
    kernel_size: 4
    weight_filler {
      type: "gaussian"
      std: 0.001
    }
    bias_filler {
      type: "constant"
      value: 0
    }
    hole: 4
  }
}
layer {
  name: "relu6"
  type: "ReLU"
  bottom: "conv6"
  top: "conv6"
}
layer {
  name: "drop6"
  type: "Dropout"
  bottom: "conv6"
  top: "conv6"
  dropout_param {
    dropout_ratio: 0.5
  }
}
layer {
  name: "conv7"
  type: "Convolution"
  bottom: "conv6"
  top: "conv7"
  param {
    lr_mult: 1
    decay_mult: 1
  }
  param {
    lr_mult: 2
    decay_mult: 0
  }
  convolution_param {
    num_output: 4096
    kernel_size: 1
    weight_filler {
      type: "gaussian"
      std: 0.001
    }
    bias_filler {
      type: "constant"
      value: 0
    }
  }
}
layer {
  name: "relu7"
  type: "ReLU"
  bottom: "conv7"
  top: "conv7"
}
layer {
  name: "drop7"
  type: "Dropout"
  bottom: "conv7"
  top: "conv7"
  dropout_param {
    dropout_ratio: 0.5
  }
}
layer {
  name: "conv8"
  type: "Convolution"
  bottom: "conv7"
  top: "conv8"
  param {
    lr_mult: 10
    decay_mult: 1
  }
  param {
    lr_mult: 20
    decay_mult: 0
  }
  convolution_param {
    num_output: 38
    kernel_size: 1
    weight_filler {
      type: "gaussian"
      std: 0.01
    }
    bias_filler {
      type: "constant"
      value: 0
    }
  }
}
layer {
  name: "label_shrink"
  type: "Interp"
  bottom: "label"
  top: "label_shrink"
  interp_param {
    shrink_factor: 8
    pad_beg: -1
    pad_end: 0
  }
}
layer {
  name: "accuracy"
  type: "SegAccuracy"
  bottom: "conv8"
  bottom: "label_shrink"
  top: "accuracy"
}
I0303 15:23:57.524703 20004 layer_factory.hpp:74] Creating layer data
I0303 15:23:57.524734 20004 net.cpp:84] Creating Layer data
I0303 15:23:57.524750 20004 net.cpp:339] data -> data
I0303 15:23:57.524786 20004 net.cpp:339] data -> label
I0303 15:23:57.524811 20004 net.cpp:339] data -> (automatic)
I0303 15:23:57.524823 20004 net.cpp:113] Setting up data
I0303 15:23:57.524837 20004 image_seg_data_layer.cpp:45] Opening file /home/ganyk/SUNRGBD/list_test.txt
I0303 15:23:57.532205 20004 image_seg_data_layer.cpp:62] Shuffling data
I0303 15:23:57.533368 20004 image_seg_data_layer.cpp:67] A total of 5050 images.
I0303 15:23:57.538082 20004 image_seg_data_layer.cpp:113] output data size: 10,3,426,426
I0303 15:23:57.538105 20004 image_seg_data_layer.cpp:117] output label size: 10,1,426,426
I0303 15:23:57.538174 20004 image_seg_data_layer.cpp:121] output data_dim size: 10,1,1,2
I0303 15:23:57.560441 20004 net.cpp:120] Top shape: 10 3 426 426 (5444280)
I0303 15:23:57.560483 20004 net.cpp:120] Top shape: 10 1 426 426 (1814760)
I0303 15:23:57.560582 20004 net.cpp:120] Top shape: 10 1 1 2 (20)
I0303 15:23:57.560596 20004 layer_factory.hpp:74] Creating layer conv1_1
I0303 15:23:57.560619 20004 net.cpp:84] Creating Layer conv1_1
I0303 15:23:57.560632 20004 net.cpp:381] conv1_1 <- data
I0303 15:23:57.560652 20004 net.cpp:339] conv1_1 -> conv1_1
I0303 15:23:57.560668 20004 net.cpp:113] Setting up conv1_1
I0303 15:23:57.560878 20004 net.cpp:120] Top shape: 10 64 426 426 (116144640)
I0303 15:23:57.560901 20004 layer_factory.hpp:74] Creating layer relu1_1
I0303 15:23:57.560920 20004 net.cpp:84] Creating Layer relu1_1
I0303 15:23:57.560930 20004 net.cpp:381] relu1_1 <- conv1_1
I0303 15:23:57.560940 20004 net.cpp:328] relu1_1 -> conv1_1 (in-place)
I0303 15:23:57.560952 20004 net.cpp:113] Setting up relu1_1
I0303 15:23:57.560964 20004 net.cpp:120] Top shape: 10 64 426 426 (116144640)
I0303 15:23:57.560973 20004 layer_factory.hpp:74] Creating layer conv1_2
I0303 15:23:57.560986 20004 net.cpp:84] Creating Layer conv1_2
I0303 15:23:57.560994 20004 net.cpp:381] conv1_2 <- conv1_1
I0303 15:23:57.561005 20004 net.cpp:339] conv1_2 -> conv1_2
I0303 15:23:57.561017 20004 net.cpp:113] Setting up conv1_2
I0303 15:23:57.561642 20004 net.cpp:120] Top shape: 10 64 426 426 (116144640)
I0303 15:23:57.561666 20004 layer_factory.hpp:74] Creating layer relu1_2
I0303 15:23:57.561681 20004 net.cpp:84] Creating Layer relu1_2
I0303 15:23:57.561691 20004 net.cpp:381] relu1_2 <- conv1_2
I0303 15:23:57.561703 20004 net.cpp:328] relu1_2 -> conv1_2 (in-place)
I0303 15:23:57.561714 20004 net.cpp:113] Setting up relu1_2
I0303 15:23:57.561769 20004 net.cpp:120] Top shape: 10 64 426 426 (116144640)
I0303 15:23:57.561781 20004 layer_factory.hpp:74] Creating layer pool1
I0303 15:23:57.561792 20004 net.cpp:84] Creating Layer pool1
I0303 15:23:57.561801 20004 net.cpp:381] pool1 <- conv1_2
I0303 15:23:57.561812 20004 net.cpp:339] pool1 -> pool1
I0303 15:23:57.561825 20004 net.cpp:113] Setting up pool1
I0303 15:23:57.561849 20004 net.cpp:120] Top shape: 10 64 214 214 (29309440)
I0303 15:23:57.561861 20004 layer_factory.hpp:74] Creating layer conv2_1
I0303 15:23:57.561871 20004 net.cpp:84] Creating Layer conv2_1
I0303 15:23:57.561879 20004 net.cpp:381] conv2_1 <- pool1
I0303 15:23:57.561892 20004 net.cpp:339] conv2_1 -> conv2_1
I0303 15:23:57.561916 20004 net.cpp:113] Setting up conv2_1
I0303 15:23:57.562223 20004 net.cpp:120] Top shape: 10 128 214 214 (58618880)
I0303 15:23:57.562243 20004 layer_factory.hpp:74] Creating layer relu2_1
I0303 15:23:57.562258 20004 net.cpp:84] Creating Layer relu2_1
I0303 15:23:57.562266 20004 net.cpp:381] relu2_1 <- conv2_1
I0303 15:23:57.562278 20004 net.cpp:328] relu2_1 -> conv2_1 (in-place)
I0303 15:23:57.562290 20004 net.cpp:113] Setting up relu2_1
I0303 15:23:57.562304 20004 net.cpp:120] Top shape: 10 128 214 214 (58618880)
I0303 15:23:57.562314 20004 layer_factory.hpp:74] Creating layer conv2_2
I0303 15:23:57.562325 20004 net.cpp:84] Creating Layer conv2_2
I0303 15:23:57.562332 20004 net.cpp:381] conv2_2 <- conv2_1
I0303 15:23:57.562342 20004 net.cpp:339] conv2_2 -> conv2_2
I0303 15:23:57.562352 20004 net.cpp:113] Setting up conv2_2
I0303 15:23:57.562872 20004 net.cpp:120] Top shape: 10 128 214 214 (58618880)
I0303 15:23:57.562892 20004 layer_factory.hpp:74] Creating layer relu2_2
I0303 15:23:57.562907 20004 net.cpp:84] Creating Layer relu2_2
I0303 15:23:57.562917 20004 net.cpp:381] relu2_2 <- conv2_2
I0303 15:23:57.562927 20004 net.cpp:328] relu2_2 -> conv2_2 (in-place)
I0303 15:23:57.562975 20004 net.cpp:113] Setting up relu2_2
I0303 15:23:57.562988 20004 net.cpp:120] Top shape: 10 128 214 214 (58618880)
I0303 15:23:57.562996 20004 layer_factory.hpp:74] Creating layer pool2
I0303 15:23:57.563016 20004 net.cpp:84] Creating Layer pool2
I0303 15:23:57.563026 20004 net.cpp:381] pool2 <- conv2_2
I0303 15:23:57.563036 20004 net.cpp:339] pool2 -> pool2
I0303 15:23:57.563047 20004 net.cpp:113] Setting up pool2
I0303 15:23:57.563060 20004 net.cpp:120] Top shape: 10 128 108 108 (14929920)
I0303 15:23:57.563069 20004 layer_factory.hpp:74] Creating layer conv3_1
I0303 15:23:57.563086 20004 net.cpp:84] Creating Layer conv3_1
I0303 15:23:57.563093 20004 net.cpp:381] conv3_1 <- pool2
I0303 15:23:57.563103 20004 net.cpp:339] conv3_1 -> conv3_1
I0303 15:23:57.563114 20004 net.cpp:113] Setting up conv3_1
I0303 15:23:57.564050 20004 net.cpp:120] Top shape: 10 256 108 108 (29859840)
I0303 15:23:57.564075 20004 layer_factory.hpp:74] Creating layer relu3_1
I0303 15:23:57.564090 20004 net.cpp:84] Creating Layer relu3_1
I0303 15:23:57.564098 20004 net.cpp:381] relu3_1 <- conv3_1
I0303 15:23:57.564108 20004 net.cpp:328] relu3_1 -> conv3_1 (in-place)
I0303 15:23:57.564118 20004 net.cpp:113] Setting up relu3_1
I0303 15:23:57.564128 20004 net.cpp:120] Top shape: 10 256 108 108 (29859840)
I0303 15:23:57.564141 20004 layer_factory.hpp:74] Creating layer conv3_2
I0303 15:23:57.564157 20004 net.cpp:84] Creating Layer conv3_2
I0303 15:23:57.564165 20004 net.cpp:381] conv3_2 <- conv3_1
I0303 15:23:57.564177 20004 net.cpp:339] conv3_2 -> conv3_2
I0303 15:23:57.564193 20004 net.cpp:113] Setting up conv3_2
I0303 15:23:57.566017 20004 net.cpp:120] Top shape: 10 256 108 108 (29859840)
I0303 15:23:57.567477 20004 layer_factory.hpp:74] Creating layer relu3_2
I0303 15:23:57.567531 20004 net.cpp:84] Creating Layer relu3_2
I0303 15:23:57.567544 20004 net.cpp:381] relu3_2 <- conv3_2
I0303 15:23:57.567556 20004 net.cpp:328] relu3_2 -> conv3_2 (in-place)
I0303 15:23:57.567570 20004 net.cpp:113] Setting up relu3_2
I0303 15:23:57.567582 20004 net.cpp:120] Top shape: 10 256 108 108 (29859840)
I0303 15:23:57.567596 20004 layer_factory.hpp:74] Creating layer conv3_3
I0303 15:23:57.567611 20004 net.cpp:84] Creating Layer conv3_3
I0303 15:23:57.567625 20004 net.cpp:381] conv3_3 <- conv3_2
I0303 15:23:57.567639 20004 net.cpp:339] conv3_3 -> conv3_3
I0303 15:23:57.567651 20004 net.cpp:113] Setting up conv3_3
I0303 15:23:57.569566 20004 net.cpp:120] Top shape: 10 256 108 108 (29859840)
I0303 15:23:57.569623 20004 layer_factory.hpp:74] Creating layer relu3_3
I0303 15:23:57.569643 20004 net.cpp:84] Creating Layer relu3_3
I0303 15:23:57.569653 20004 net.cpp:381] relu3_3 <- conv3_3
I0303 15:23:57.569669 20004 net.cpp:328] relu3_3 -> conv3_3 (in-place)
I0303 15:23:57.569681 20004 net.cpp:113] Setting up relu3_3
I0303 15:23:57.571122 20004 net.cpp:120] Top shape: 10 256 108 108 (29859840)
I0303 15:23:57.571157 20004 layer_factory.hpp:74] Creating layer pool3
I0303 15:23:57.571172 20004 net.cpp:84] Creating Layer pool3
I0303 15:23:57.571182 20004 net.cpp:381] pool3 <- conv3_3
I0303 15:23:57.571208 20004 net.cpp:339] pool3 -> pool3
I0303 15:23:57.571223 20004 net.cpp:113] Setting up pool3
I0303 15:23:57.571241 20004 net.cpp:120] Top shape: 10 256 55 55 (7744000)
I0303 15:23:57.571250 20004 layer_factory.hpp:74] Creating layer conv4_1
I0303 15:23:57.571262 20004 net.cpp:84] Creating Layer conv4_1
I0303 15:23:57.571270 20004 net.cpp:381] conv4_1 <- pool3
I0303 15:23:57.571280 20004 net.cpp:339] conv4_1 -> conv4_1
I0303 15:23:57.571291 20004 net.cpp:113] Setting up conv4_1
I0303 15:23:57.575284 20004 net.cpp:120] Top shape: 10 512 55 55 (15488000)
I0303 15:23:57.575328 20004 layer_factory.hpp:74] Creating layer relu4_1
I0303 15:23:57.575345 20004 net.cpp:84] Creating Layer relu4_1
I0303 15:23:57.575358 20004 net.cpp:381] relu4_1 <- conv4_1
I0303 15:23:57.575371 20004 net.cpp:328] relu4_1 -> conv4_1 (in-place)
I0303 15:23:57.575383 20004 net.cpp:113] Setting up relu4_1
I0303 15:23:57.575394 20004 net.cpp:120] Top shape: 10 512 55 55 (15488000)
I0303 15:23:57.575572 20004 layer_factory.hpp:74] Creating layer conv4_2
I0303 15:23:57.575590 20004 net.cpp:84] Creating Layer conv4_2
I0303 15:23:57.575598 20004 net.cpp:381] conv4_2 <- conv4_1
I0303 15:23:57.575610 20004 net.cpp:339] conv4_2 -> conv4_2
I0303 15:23:57.575623 20004 net.cpp:113] Setting up conv4_2
I0303 15:23:57.585660 20004 net.cpp:120] Top shape: 10 512 55 55 (15488000)
I0303 15:23:57.585719 20004 layer_factory.hpp:74] Creating layer relu4_2
I0303 15:23:57.586010 20004 net.cpp:84] Creating Layer relu4_2
I0303 15:23:57.586024 20004 net.cpp:381] relu4_2 <- conv4_2
I0303 15:23:57.586158 20004 net.cpp:328] relu4_2 -> conv4_2 (in-place)
I0303 15:23:57.586171 20004 net.cpp:113] Setting up relu4_2
I0303 15:23:57.586182 20004 net.cpp:120] Top shape: 10 512 55 55 (15488000)
I0303 15:23:57.586195 20004 layer_factory.hpp:74] Creating layer conv4_3
I0303 15:23:57.586207 20004 net.cpp:84] Creating Layer conv4_3
I0303 15:23:57.586217 20004 net.cpp:381] conv4_3 <- conv4_2
I0303 15:23:57.586230 20004 net.cpp:339] conv4_3 -> conv4_3
I0303 15:23:57.586242 20004 net.cpp:113] Setting up conv4_3
I0303 15:23:57.596397 20004 net.cpp:120] Top shape: 10 512 55 55 (15488000)
I0303 15:23:57.596447 20004 layer_factory.hpp:74] Creating layer relu4_3
I0303 15:23:57.596464 20004 net.cpp:84] Creating Layer relu4_3
I0303 15:23:57.596474 20004 net.cpp:381] relu4_3 <- conv4_3
I0303 15:23:57.596488 20004 net.cpp:328] relu4_3 -> conv4_3 (in-place)
I0303 15:23:57.596637 20004 net.cpp:113] Setting up relu4_3
I0303 15:23:57.596649 20004 net.cpp:120] Top shape: 10 512 55 55 (15488000)
I0303 15:23:57.596662 20004 layer_factory.hpp:74] Creating layer pool4
I0303 15:23:57.596673 20004 net.cpp:84] Creating Layer pool4
I0303 15:23:57.596681 20004 net.cpp:381] pool4 <- conv4_3
I0303 15:23:57.596987 20004 net.cpp:339] pool4 -> pool4
I0303 15:23:57.597005 20004 net.cpp:113] Setting up pool4
I0303 15:23:57.597021 20004 net.cpp:120] Top shape: 10 512 54 54 (14929920)
I0303 15:23:57.597030 20004 layer_factory.hpp:74] Creating layer conv5_1
I0303 15:23:57.597060 20004 net.cpp:84] Creating Layer conv5_1
I0303 15:23:57.597070 20004 net.cpp:381] conv5_1 <- pool4
I0303 15:23:57.597084 20004 net.cpp:339] conv5_1 -> conv5_1
I0303 15:23:57.597097 20004 net.cpp:113] Setting up conv5_1
I0303 15:23:57.607076 20004 net.cpp:120] Top shape: 10 512 54 54 (14929920)
I0303 15:23:57.607136 20004 layer_factory.hpp:74] Creating layer relu5_1
I0303 15:23:57.607153 20004 net.cpp:84] Creating Layer relu5_1
I0303 15:23:57.607164 20004 net.cpp:381] relu5_1 <- conv5_1
I0303 15:23:57.607179 20004 net.cpp:328] relu5_1 -> conv5_1 (in-place)
I0303 15:23:57.607204 20004 net.cpp:113] Setting up relu5_1
I0303 15:23:57.607215 20004 net.cpp:120] Top shape: 10 512 54 54 (14929920)
I0303 15:23:57.607224 20004 layer_factory.hpp:74] Creating layer conv5_2
I0303 15:23:57.607236 20004 net.cpp:84] Creating Layer conv5_2
I0303 15:23:57.607246 20004 net.cpp:381] conv5_2 <- conv5_1
I0303 15:23:57.607260 20004 net.cpp:339] conv5_2 -> conv5_2
I0303 15:23:57.607273 20004 net.cpp:113] Setting up conv5_2
I0303 15:23:57.617358 20004 net.cpp:120] Top shape: 10 512 54 54 (14929920)
I0303 15:23:57.617411 20004 layer_factory.hpp:74] Creating layer relu5_2
I0303 15:23:57.617427 20004 net.cpp:84] Creating Layer relu5_2
I0303 15:23:57.617437 20004 net.cpp:381] relu5_2 <- conv5_2
I0303 15:23:57.617450 20004 net.cpp:328] relu5_2 -> conv5_2 (in-place)
I0303 15:23:57.617465 20004 net.cpp:113] Setting up relu5_2
I0303 15:23:57.617475 20004 net.cpp:120] Top shape: 10 512 54 54 (14929920)
I0303 15:23:57.617483 20004 layer_factory.hpp:74] Creating layer conv5_3
I0303 15:23:57.617496 20004 net.cpp:84] Creating Layer conv5_3
I0303 15:23:57.617504 20004 net.cpp:381] conv5_3 <- conv5_2
I0303 15:23:57.617514 20004 net.cpp:339] conv5_3 -> conv5_3
I0303 15:23:57.617527 20004 net.cpp:113] Setting up conv5_3
I0303 15:23:57.627594 20004 net.cpp:120] Top shape: 10 512 54 54 (14929920)
I0303 15:23:57.627655 20004 layer_factory.hpp:74] Creating layer relu5_3
I0303 15:23:57.627671 20004 net.cpp:84] Creating Layer relu5_3
I0303 15:23:57.627727 20004 net.cpp:381] relu5_3 <- conv5_3
I0303 15:23:57.627739 20004 net.cpp:328] relu5_3 -> conv5_3 (in-place)
I0303 15:23:57.627753 20004 net.cpp:113] Setting up relu5_3
I0303 15:23:57.627763 20004 net.cpp:120] Top shape: 10 512 54 54 (14929920)
I0303 15:23:57.627773 20004 layer_factory.hpp:74] Creating layer pool5
I0303 15:23:57.627784 20004 net.cpp:84] Creating Layer pool5
I0303 15:23:57.627792 20004 net.cpp:381] pool5 <- conv5_3
I0303 15:23:57.627805 20004 net.cpp:339] pool5 -> pool5
I0303 15:23:57.627817 20004 net.cpp:113] Setting up pool5
I0303 15:23:57.627831 20004 net.cpp:120] Top shape: 10 512 54 54 (14929920)
I0303 15:23:57.627840 20004 layer_factory.hpp:74] Creating layer conv6
I0303 15:23:57.627859 20004 net.cpp:84] Creating Layer conv6
I0303 15:23:57.627869 20004 net.cpp:381] conv6 <- pool5
I0303 15:23:57.627884 20004 net.cpp:339] conv6 -> conv6
I0303 15:23:57.627897 20004 net.cpp:113] Setting up conv6
I0303 15:23:58.751793 20004 net.cpp:120] Top shape: 10 4096 54 54 (119439360)
I0303 15:23:58.751839 20004 layer_factory.hpp:74] Creating layer relu6
I0303 15:23:58.751862 20004 net.cpp:84] Creating Layer relu6
I0303 15:23:58.751875 20004 net.cpp:381] relu6 <- conv6
I0303 15:23:58.751885 20004 net.cpp:328] relu6 -> conv6 (in-place)
I0303 15:23:58.751895 20004 net.cpp:113] Setting up relu6
I0303 15:23:58.751905 20004 net.cpp:120] Top shape: 10 4096 54 54 (119439360)
I0303 15:23:58.751912 20004 layer_factory.hpp:74] Creating layer drop6
I0303 15:23:58.751929 20004 net.cpp:84] Creating Layer drop6
I0303 15:23:58.751935 20004 net.cpp:381] drop6 <- conv6
I0303 15:23:58.751942 20004 net.cpp:328] drop6 -> conv6 (in-place)
I0303 15:23:58.751952 20004 net.cpp:113] Setting up drop6
I0303 15:23:58.751966 20004 net.cpp:120] Top shape: 10 4096 54 54 (119439360)
I0303 15:23:58.751974 20004 layer_factory.hpp:74] Creating layer conv7
I0303 15:23:58.751986 20004 net.cpp:84] Creating Layer conv7
I0303 15:23:58.751992 20004 net.cpp:381] conv7 <- conv6
I0303 15:23:58.752002 20004 net.cpp:339] conv7 -> conv7
I0303 15:23:58.752014 20004 net.cpp:113] Setting up conv7
I0303 15:23:59.274567 20004 net.cpp:120] Top shape: 10 4096 54 54 (119439360)
I0303 15:23:59.274616 20004 layer_factory.hpp:74] Creating layer relu7
I0303 15:23:59.274632 20004 net.cpp:84] Creating Layer relu7
I0303 15:23:59.274642 20004 net.cpp:381] relu7 <- conv7
I0303 15:23:59.274652 20004 net.cpp:328] relu7 -> conv7 (in-place)
I0303 15:23:59.274662 20004 net.cpp:113] Setting up relu7
I0303 15:23:59.274672 20004 net.cpp:120] Top shape: 10 4096 54 54 (119439360)
I0303 15:23:59.274679 20004 layer_factory.hpp:74] Creating layer drop7
I0303 15:23:59.274689 20004 net.cpp:84] Creating Layer drop7
I0303 15:23:59.274696 20004 net.cpp:381] drop7 <- conv7
I0303 15:23:59.274703 20004 net.cpp:328] drop7 -> conv7 (in-place)
I0303 15:23:59.274711 20004 net.cpp:113] Setting up drop7
I0303 15:23:59.274720 20004 net.cpp:120] Top shape: 10 4096 54 54 (119439360)
I0303 15:23:59.274739 20004 layer_factory.hpp:74] Creating layer conv8
I0303 15:23:59.274757 20004 net.cpp:84] Creating Layer conv8
I0303 15:23:59.274765 20004 net.cpp:381] conv8 <- conv7
I0303 15:23:59.274775 20004 net.cpp:339] conv8 -> conv8
I0303 15:23:59.274785 20004 net.cpp:113] Setting up conv8
I0303 15:23:59.279214 20004 net.cpp:120] Top shape: 10 38 54 54 (1108080)
I0303 15:23:59.279232 20004 layer_factory.hpp:74] Creating layer label_shrink
I0303 15:23:59.279250 20004 net.cpp:84] Creating Layer label_shrink
I0303 15:23:59.279259 20004 net.cpp:381] label_shrink <- label
I0303 15:23:59.279268 20004 net.cpp:339] label_shrink -> label_shrink
I0303 15:23:59.279292 20004 net.cpp:113] Setting up label_shrink
I0303 15:23:59.279305 20004 net.cpp:120] Top shape: 10 1 54 54 (29160)
I0303 15:23:59.279312 20004 layer_factory.hpp:74] Creating layer accuracy
I0303 15:23:59.279325 20004 net.cpp:84] Creating Layer accuracy
I0303 15:23:59.279331 20004 net.cpp:381] accuracy <- conv8
I0303 15:23:59.279338 20004 net.cpp:381] accuracy <- label_shrink
I0303 15:23:59.279348 20004 net.cpp:339] accuracy -> accuracy
I0303 15:23:59.279394 20004 net.cpp:113] Setting up accuracy
I0303 15:23:59.279425 20004 net.cpp:120] Top shape: 1 1 1 3 (3)
I0303 15:23:59.279433 20004 net.cpp:169] accuracy does not need backward computation.
I0303 15:23:59.279439 20004 net.cpp:169] label_shrink does not need backward computation.
I0303 15:23:59.279445 20004 net.cpp:169] conv8 does not need backward computation.
I0303 15:23:59.279450 20004 net.cpp:169] drop7 does not need backward computation.
I0303 15:23:59.279456 20004 net.cpp:169] relu7 does not need backward computation.
…
