…
I0303 14:57:32.193825 28889 net.cpp:258] The NetState phase (0) differed from the phase (1) specified by a rule in layer data
I0303 14:57:32.194190 28889 net.cpp:42] Initializing net from parameters: 
name: "deeplab"
state {
  phase: TRAIN
}
layer {
  name: "data"
  type: "ImageSegData"
  top: "data"
  top: "label"
  include {
    phase: TRAIN
  }
  transform_param {
    mirror: true
    crop_size: 426
    mean_value: 110.324
    mean_value: 116.435
    mean_value: 125.793
  }
  image_data_param {
    source: "/home/ganyk/SUNRGBD/list_train_5.txt"
    batch_size: 1
    shuffle: false
    root_folder: "/home/ganyk/"
    label_type: PIXEL
  }
}
layer {
  name: "conv1_1"
  type: "Convolution"
  bottom: "data"
  top: "conv1_1"
  param {
    lr_mult: 1
    decay_mult: 1
  }
  param {
    lr_mult: 2
    decay_mult: 0
  }
  convolution_param {
    num_output: 64
    pad: 1
    kernel_size: 3
  }
}
layer {
  name: "relu1_1"
  type: "ReLU"
  bottom: "conv1_1"
  top: "conv1_1"
}
layer {
  name: "conv1_2"
  type: "Convolution"
  bottom: "conv1_1"
  top: "conv1_2"
  param {
    lr_mult: 1
    decay_mult: 1
  }
  param {
    lr_mult: 2
    decay_mult: 0
  }
  convolution_param {
    num_output: 64
    pad: 1
    kernel_size: 3
  }
}
layer {
  name: "relu1_2"
  type: "ReLU"
  bottom: "conv1_2"
  top: "conv1_2"
}
layer {
  name: "pool1"
  type: "Pooling"
  bottom: "conv1_2"
  top: "pool1"
  pooling_param {
    pool: MAX
    kernel_size: 2
    stride: 2
    pad: 1
  }
}
layer {
  name: "conv2_1"
  type: "Convolution"
  bottom: "pool1"
  top: "conv2_1"
  param {
    lr_mult: 1
    decay_mult: 1
  }
  param {
    lr_mult: 2
    decay_mult: 0
  }
  convolution_param {
    num_output: 128
    pad: 1
    kernel_size: 3
  }
}
layer {
  name: "relu2_1"
  type: "ReLU"
  bottom: "conv2_1"
  top: "conv2_1"
}
layer {
  name: "conv2_2"
  type: "Convolution"
  bottom: "conv2_1"
  top: "conv2_2"
  param {
    lr_mult: 1
    decay_mult: 1
  }
  param {
    lr_mult: 2
    decay_mult: 0
  }
  convolution_param {
    num_output: 128
    pad: 1
    kernel_size: 3
  }
}
layer {
  name: "relu2_2"
  type: "ReLU"
  bottom: "conv2_2"
  top: "conv2_2"
}
layer {
  name: "pool2"
  type: "Pooling"
  bottom: "conv2_2"
  top: "pool2"
  pooling_param {
    pool: MAX
    kernel_size: 2
    stride: 2
    pad: 1
  }
}
layer {
  name: "conv3_1"
  type: "Convolution"
  bottom: "pool2"
  top: "conv3_1"
  param {
    lr_mult: 1
    decay_mult: 1
  }
  param {
    lr_mult: 2
    decay_mult: 0
  }
  convolution_param {
    num_output: 256
    pad: 1
    kernel_size: 3
  }
}
layer {
  name: "relu3_1"
  type: "ReLU"
  bottom: "conv3_1"
  top: "conv3_1"
}
layer {
  name: "conv3_2"
  type: "Convolution"
  bottom: "conv3_1"
  top: "conv3_2"
  param {
    lr_mult: 1
    decay_mult: 1
  }
  param {
    lr_mult: 2
    decay_mult: 0
  }
  convolution_param {
    num_output: 256
    pad: 1
    kernel_size: 3
  }
}
layer {
  name: "relu3_2"
  type: "ReLU"
  bottom: "conv3_2"
  top: "conv3_2"
}
layer {
  name: "conv3_3"
  type: "Convolution"
  bottom: "conv3_2"
  top: "conv3_3"
  param {
    lr_mult: 1
    decay_mult: 1
  }
  param {
    lr_mult: 2
    decay_mult: 0
  }
  convolution_param {
    num_output: 256
    pad: 1
    kernel_size: 3
  }
}
layer {
  name: "relu3_3"
  type: "ReLU"
  bottom: "conv3_3"
  top: "conv3_3"
}
layer {
  name: "pool3"
  type: "Pooling"
  bottom: "conv3_3"
  top: "pool3"
  pooling_param {
    pool: MAX
    kernel_size: 2
    stride: 2
    pad: 1
  }
}
layer {
  name: "conv4_1"
  type: "Convolution"
  bottom: "pool3"
  top: "conv4_1"
  param {
    lr_mult: 1
    decay_mult: 1
  }
  param {
    lr_mult: 2
    decay_mult: 0
  }
  convolution_param {
    num_output: 512
    pad: 1
    kernel_size: 3
  }
}
layer {
  name: "relu4_1"
  type: "ReLU"
  bottom: "conv4_1"
  top: "conv4_1"
}
layer {
  name: "conv4_2"
  type: "Convolution"
  bottom: "conv4_1"
  top: "conv4_2"
  param {
    lr_mult: 1
    decay_mult: 1
  }
  param {
    lr_mult: 2
    decay_mult: 0
  }
  convolution_param {
    num_output: 512
    pad: 1
    kernel_size: 3
  }
}
layer {
  name: "relu4_2"
  type: "ReLU"
  bottom: "conv4_2"
  top: "conv4_2"
}
layer {
  name: "conv4_3"
  type: "Convolution"
  bottom: "conv4_2"
  top: "conv4_3"
  param {
    lr_mult: 1
    decay_mult: 1
  }
  param {
    lr_mult: 2
    decay_mult: 0
  }
  convolution_param {
    num_output: 512
    pad: 1
    kernel_size: 3
  }
}
layer {
  name: "relu4_3"
  type: "ReLU"
  bottom: "conv4_3"
  top: "conv4_3"
}
layer {
  name: "pool4"
  type: "Pooling"
  bottom: "conv4_3"
  top: "pool4"
  pooling_param {
    pool: MAX
    kernel_size: 2
    stride: 1
  }
}
layer {
  name: "conv5_1"
  type: "ConvolutionDeeplab"
  bottom: "pool4"
  top: "conv5_1"
  param {
    lr_mult: 1
    decay_mult: 1
  }
  param {
    lr_mult: 2
    decay_mult: 0
  }
  convolution_deeplab_param {
    num_output: 512
    pad: 2
    kernel_size: 3
    hole: 2
  }
}
layer {
  name: "relu5_1"
  type: "ReLU"
  bottom: "conv5_1"
  top: "conv5_1"
}
layer {
  name: "conv5_2"
  type: "ConvolutionDeeplab"
  bottom: "conv5_1"
  top: "conv5_2"
  param {
    lr_mult: 1
    decay_mult: 1
  }
  param {
    lr_mult: 2
    decay_mult: 0
  }
  convolution_deeplab_param {
    num_output: 512
    pad: 2
    kernel_size: 3
    hole: 2
  }
}
layer {
  name: "relu5_2"
  type: "ReLU"
  bottom: "conv5_2"
  top: "conv5_2"
}
layer {
  name: "conv5_3"
  type: "ConvolutionDeeplab"
  bottom: "conv5_2"
  top: "conv5_3"
  param {
    lr_mult: 1
    decay_mult: 1
  }
  param {
    lr_mult: 2
    decay_mult: 0
  }
  convolution_deeplab_param {
    num_output: 512
    pad: 2
    kernel_size: 3
    hole: 2
  }
}
layer {
  name: "relu5_3"
  type: "ReLU"
  bottom: "conv5_3"
  top: "conv5_3"
}
layer {
  name: "pool5"
  type: "Pooling"
  bottom: "conv5_3"
  top: "pool5"
  pooling_param {
    pool: MAX
    kernel_size: 3
    stride: 1
    pad: 1
  }
}
layer {
  name: "conv6"
  type: "ConvolutionDeeplab"
  bottom: "pool5"
  top: "conv6"
  param {
    lr_mult: 1
    decay_mult: 1
  }
  param {
    lr_mult: 2
    decay_mult: 0
  }
  convolution_deeplab_param {
    num_output: 4096
    pad: 6
    kernel_size: 4
    weight_filler {
      type: "gaussian"
      std: 0.001
    }
    bias_filler {
      type: "constant"
      value: 0
    }
    hole: 4
  }
}
layer {
  name: "relu6"
  type: "ReLU"
  bottom: "conv6"
  top: "conv6"
}
layer {
  name: "drop6"
  type: "Dropout"
  bottom: "conv6"
  top: "conv6"
  dropout_param {
    dropout_ratio: 0.5
  }
}
layer {
  name: "conv7"
  type: "Convolution"
  bottom: "conv6"
  top: "conv7"
  param {
    lr_mult: 1
    decay_mult: 1
  }
  param {
    lr_mult: 2
    decay_mult: 0
  }
  convolution_param {
    num_output: 4096
    kernel_size: 1
    weight_filler {
      type: "gaussian"
      std: 0.001
    }
    bias_filler {
      type: "constant"
      value: 0
    }
  }
}
layer {
  name: "relu7"
  type: "ReLU"
  bottom: "conv7"
  top: "conv7"
}
layer {
  name: "drop7"
  type: "Dropout"
  bottom: "conv7"
  top: "conv7"
  dropout_param {
    dropout_ratio: 0.5
  }
}
layer {
  name: "conv8"
  type: "Convolution"
  bottom: "conv7"
  top: "conv8"
  param {
    lr_mult: 10
    decay_mult: 1
  }
  param {
    lr_mult: 20
    decay_mult: 0
  }
  convolution_param {
    num_output: 38
    kernel_size: 1
    weight_filler {
      type: "gaussian"
      std: 0.01
    }
    bias_filler {
      type: "constant"
      value: 0
    }
  }
}
layer {
  name: "label_shrink"
  type: "Interp"
  bottom: "label"
  top: "label_shrink"
  interp_param {
    shrink_factor: 8
    pad_beg: -1
    pad_end: 0
  }
}
layer {
  name: "mask_54_54"
  type: "Mask"
  top: "mask_54_54"
  mask_param {
    width: 54
    height: 54
  }
}
layer {
  name: "conv8_trans"
  type: "Transpose"
  bottom: "conv8"
  top: "conv8_trans"
  transpose_param {
    shape {
      dim: 54
      dim: 54
      dim: 38
    }
    transposetype: CONVTOLSTM
  }
}
layer {
  name: "RGB_lstm1"
  type: "LSTM"
  bottom: "conv8_trans"
  bottom: "mask_54_54"
  top: "RGB_lstm1"
  recurrent_param {
    num_output: 100
    weight_filler {
      type: "uniform"
      min: -0.01
      max: 0.01
    }
    bias_filler {
      type: "constant"
      value: 0
    }
  }
}
layer {
  name: "RGB_lstm1_reshape"
  type: "Reshape"
  bottom: "RGB_lstm1"
  top: "RGB_lstm1_reshape"
  reshape_param {
    shape {
      dim: 1
      dim: 100
      dim: 54
      dim: 54
    }
  }
}
layer {
  name: "RGB_lstm1_trans"
  type: "Transpose"
  bottom: "RGB_lstm1_reshape"
  top: "RGB_lstm1_trans"
  transpose_param {
    shape {
      dim: 1
      dim: 100
      dim: 54
      dim: 54
    }
    transposetype: LSTMTOCONV
  }
}
layer {
  name: "local_global"
  type: "Concat"
  bottom: "conv8"
  bottom: "RGB_lstm1_trans"
  top: "local_global"
  concat_param {
    axis: 1
  }
}
layer {
  name: "local_global_conv"
  type: "Convolution"
  bottom: "local_global"
  top: "local_global_conv"
  param {
    lr_mult: 1
    decay_mult: 1
  }
  param {
    lr_mult: 2
    decay_mult: 0
  }
  convolution_param {
    num_output: 38
    pad: 1
    kernel_size: 3
    weight_filler {
      type: "gaussian"
      std: 0.01
    }
    bias_filler {
      type: "constant"
      value: 0
    }
  }
}
layer {
  name: "loss"
  type: "SoftmaxWithLoss"
  bottom: "local_global_conv"
  bottom: "label_shrink"
  include {
    phase: TRAIN
  }
}
layer {
  name: "accuracy"
  type: "SegAccuracy"
  bottom: "local_global_conv"
  bottom: "label_shrink"
  top: "accuracy"
}
I0303 14:57:32.196866 28889 layer_factory.hpp:74] Creating layer data
I0303 14:57:32.196903 28889 net.cpp:84] Creating Layer data
I0303 14:57:32.196923 28889 net.cpp:339] data -> data
I0303 14:57:32.196967 28889 net.cpp:339] data -> label
I0303 14:57:32.196997 28889 net.cpp:339] data -> (automatic)
I0303 14:57:32.197013 28889 net.cpp:113] Setting up data
I0303 14:57:32.197029 28889 image_seg_data_layer.cpp:45] Opening file /home/ganyk/SUNRGBD/list_train_5.txt
I0303 14:57:32.197127 28889 image_seg_data_layer.cpp:67] A total of 5 images.
I0303 14:57:32.203943 28889 image_seg_data_layer.cpp:113] output data size: 1,3,426,426
I0303 14:57:32.204025 28889 image_seg_data_layer.cpp:117] output label size: 1,1,426,426
I0303 14:57:32.204035 28889 image_seg_data_layer.cpp:121] output data_dim size: 1,1,1,2
I0303 14:57:32.205603 28889 net.cpp:120] Top shape: 1 3 426 426 (544428)
I0303 14:57:32.205624 28889 net.cpp:120] Top shape: 1 1 426 426 (181476)
I0303 14:57:32.205641 28889 net.cpp:120] Top shape: 1 1 1 2 (2)
I0303 14:57:32.205706 28889 layer_factory.hpp:74] Creating layer conv1_1
I0303 14:57:32.205725 28889 net.cpp:84] Creating Layer conv1_1
I0303 14:57:32.205739 28889 net.cpp:381] conv1_1 <- data
I0303 14:57:32.205762 28889 net.cpp:339] conv1_1 -> conv1_1
I0303 14:57:32.205777 28889 net.cpp:113] Setting up conv1_1
I0303 14:57:32.206284 28889 net.cpp:120] Top shape: 1 64 426 426 (11614464)
I0303 14:57:32.206320 28889 layer_factory.hpp:74] Creating layer relu1_1
I0303 14:57:32.206338 28889 net.cpp:84] Creating Layer relu1_1
I0303 14:57:32.206349 28889 net.cpp:381] relu1_1 <- conv1_1
I0303 14:57:32.206360 28889 net.cpp:328] relu1_1 -> conv1_1 (in-place)
I0303 14:57:32.206372 28889 net.cpp:113] Setting up relu1_1
I0303 14:57:32.206383 28889 net.cpp:120] Top shape: 1 64 426 426 (11614464)
I0303 14:57:32.206442 28889 layer_factory.hpp:74] Creating layer conv1_2
I0303 14:57:32.206497 28889 net.cpp:84] Creating Layer conv1_2
I0303 14:57:32.206509 28889 net.cpp:381] conv1_2 <- conv1_1
I0303 14:57:32.206531 28889 net.cpp:339] conv1_2 -> conv1_2
I0303 14:57:32.206544 28889 net.cpp:113] Setting up conv1_2
I0303 14:57:32.207106 28889 net.cpp:120] Top shape: 1 64 426 426 (11614464)
I0303 14:57:32.207134 28889 layer_factory.hpp:74] Creating layer relu1_2
I0303 14:57:32.207152 28889 net.cpp:84] Creating Layer relu1_2
I0303 14:57:32.207204 28889 net.cpp:381] relu1_2 <- conv1_2
I0303 14:57:32.207228 28889 net.cpp:328] relu1_2 -> conv1_2 (in-place)
I0303 14:57:32.207247 28889 net.cpp:113] Setting up relu1_2
I0303 14:57:32.207259 28889 net.cpp:120] Top shape: 1 64 426 426 (11614464)
I0303 14:57:32.207270 28889 layer_factory.hpp:74] Creating layer pool1
I0303 14:57:32.207283 28889 net.cpp:84] Creating Layer pool1
I0303 14:57:32.207293 28889 net.cpp:381] pool1 <- conv1_2
I0303 14:57:32.207306 28889 net.cpp:339] pool1 -> pool1
I0303 14:57:32.207320 28889 net.cpp:113] Setting up pool1
I0303 14:57:32.207350 28889 net.cpp:120] Top shape: 1 64 214 214 (2930944)
I0303 14:57:32.207365 28889 layer_factory.hpp:74] Creating layer conv2_1
I0303 14:57:32.207376 28889 net.cpp:84] Creating Layer conv2_1
I0303 14:57:32.207386 28889 net.cpp:381] conv2_1 <- pool1
I0303 14:57:32.207402 28889 net.cpp:339] conv2_1 -> conv2_1
I0303 14:57:32.207417 28889 net.cpp:113] Setting up conv2_1
I0303 14:57:32.207797 28889 net.cpp:120] Top shape: 1 128 214 214 (5861888)
I0303 14:57:32.207820 28889 layer_factory.hpp:74] Creating layer relu2_1
I0303 14:57:32.207835 28889 net.cpp:84] Creating Layer relu2_1
I0303 14:57:32.207846 28889 net.cpp:381] relu2_1 <- conv2_1
I0303 14:57:32.207859 28889 net.cpp:328] relu2_1 -> conv2_1 (in-place)
I0303 14:57:32.207872 28889 net.cpp:113] Setting up relu2_1
I0303 14:57:32.207885 28889 net.cpp:120] Top shape: 1 128 214 214 (5861888)
I0303 14:57:32.207895 28889 layer_factory.hpp:74] Creating layer conv2_2
I0303 14:57:32.207908 28889 net.cpp:84] Creating Layer conv2_2
I0303 14:57:32.207918 28889 net.cpp:381] conv2_2 <- conv2_1
I0303 14:57:32.207931 28889 net.cpp:339] conv2_2 -> conv2_2
I0303 14:57:32.207945 28889 net.cpp:113] Setting up conv2_2
I0303 14:57:32.208974 28889 net.cpp:120] Top shape: 1 128 214 214 (5861888)
I0303 14:57:32.208997 28889 layer_factory.hpp:74] Creating layer relu2_2
I0303 14:57:32.209012 28889 net.cpp:84] Creating Layer relu2_2
I0303 14:57:32.209022 28889 net.cpp:381] relu2_2 <- conv2_2
I0303 14:57:32.209043 28889 net.cpp:328] relu2_2 -> conv2_2 (in-place)
I0303 14:57:32.209055 28889 net.cpp:113] Setting up relu2_2
I0303 14:57:32.209067 28889 net.cpp:120] Top shape: 1 128 214 214 (5861888)
I0303 14:57:32.209076 28889 layer_factory.hpp:74] Creating layer pool2
I0303 14:57:32.209087 28889 net.cpp:84] Creating Layer pool2
I0303 14:57:32.209096 28889 net.cpp:381] pool2 <- conv2_2
I0303 14:57:32.209106 28889 net.cpp:339] pool2 -> pool2
I0303 14:57:32.209120 28889 net.cpp:113] Setting up pool2
I0303 14:57:32.209133 28889 net.cpp:120] Top shape: 1 128 108 108 (1492992)
I0303 14:57:32.209144 28889 layer_factory.hpp:74] Creating layer conv3_1
I0303 14:57:32.209157 28889 net.cpp:84] Creating Layer conv3_1
I0303 14:57:32.209167 28889 net.cpp:381] conv3_1 <- pool2
I0303 14:57:32.209182 28889 net.cpp:339] conv3_1 -> conv3_1
I0303 14:57:32.209203 28889 net.cpp:113] Setting up conv3_1
I0303 14:57:32.209952 28889 net.cpp:120] Top shape: 1 256 108 108 (2985984)
I0303 14:57:32.209977 28889 layer_factory.hpp:74] Creating layer relu3_1
I0303 14:57:32.209992 28889 net.cpp:84] Creating Layer relu3_1
I0303 14:57:32.210002 28889 net.cpp:381] relu3_1 <- conv3_1
I0303 14:57:32.210012 28889 net.cpp:328] relu3_1 -> conv3_1 (in-place)
I0303 14:57:32.210022 28889 net.cpp:113] Setting up relu3_1
I0303 14:57:32.210033 28889 net.cpp:120] Top shape: 1 256 108 108 (2985984)
I0303 14:57:32.210042 28889 layer_factory.hpp:74] Creating layer conv3_2
I0303 14:57:32.210054 28889 net.cpp:84] Creating Layer conv3_2
I0303 14:57:32.210062 28889 net.cpp:381] conv3_2 <- conv3_1
I0303 14:57:32.210077 28889 net.cpp:339] conv3_2 -> conv3_2
I0303 14:57:32.210088 28889 net.cpp:113] Setting up conv3_2
I0303 14:57:32.213311 28889 net.cpp:120] Top shape: 1 256 108 108 (2985984)
I0303 14:57:32.213371 28889 layer_factory.hpp:74] Creating layer relu3_2
I0303 14:57:32.213392 28889 net.cpp:84] Creating Layer relu3_2
I0303 14:57:32.213403 28889 net.cpp:381] relu3_2 <- conv3_2
I0303 14:57:32.213418 28889 net.cpp:328] relu3_2 -> conv3_2 (in-place)
I0303 14:57:32.213598 28889 net.cpp:113] Setting up relu3_2
I0303 14:57:32.213616 28889 net.cpp:120] Top shape: 1 256 108 108 (2985984)
I0303 14:57:32.213626 28889 layer_factory.hpp:74] Creating layer conv3_3
I0303 14:57:32.213639 28889 net.cpp:84] Creating Layer conv3_3
I0303 14:57:32.213649 28889 net.cpp:381] conv3_3 <- conv3_2
I0303 14:57:32.213660 28889 net.cpp:339] conv3_3 -> conv3_3
I0303 14:57:32.213673 28889 net.cpp:113] Setting up conv3_3
I0303 14:57:32.216941 28889 net.cpp:120] Top shape: 1 256 108 108 (2985984)
I0303 14:57:32.217006 28889 layer_factory.hpp:74] Creating layer relu3_3
I0303 14:57:32.217036 28889 net.cpp:84] Creating Layer relu3_3
I0303 14:57:32.217177 28889 net.cpp:381] relu3_3 <- conv3_3
I0303 14:57:32.217201 28889 net.cpp:328] relu3_3 -> conv3_3 (in-place)
I0303 14:57:32.217222 28889 net.cpp:113] Setting up relu3_3
I0303 14:57:32.217236 28889 net.cpp:120] Top shape: 1 256 108 108 (2985984)
I0303 14:57:32.217245 28889 layer_factory.hpp:74] Creating layer pool3
I0303 14:57:32.217259 28889 net.cpp:84] Creating Layer pool3
I0303 14:57:32.217286 28889 net.cpp:381] pool3 <- conv3_3
I0303 14:57:32.217300 28889 net.cpp:339] pool3 -> pool3
I0303 14:57:32.217316 28889 net.cpp:113] Setting up pool3
I0303 14:57:32.217332 28889 net.cpp:120] Top shape: 1 256 55 55 (774400)
I0303 14:57:32.217347 28889 layer_factory.hpp:74] Creating layer conv4_1
I0303 14:57:32.217361 28889 net.cpp:84] Creating Layer conv4_1
I0303 14:57:32.217370 28889 net.cpp:381] conv4_1 <- pool3
I0303 14:57:32.217386 28889 net.cpp:339] conv4_1 -> conv4_1
I0303 14:57:32.217401 28889 net.cpp:113] Setting up conv4_1
I0303 14:57:32.220408 28889 net.cpp:120] Top shape: 1 512 55 55 (1548800)
I0303 14:57:32.220451 28889 layer_factory.hpp:74] Creating layer relu4_1
I0303 14:57:32.220464 28889 net.cpp:84] Creating Layer relu4_1
I0303 14:57:32.220474 28889 net.cpp:381] relu4_1 <- conv4_1
I0303 14:57:32.220492 28889 net.cpp:328] relu4_1 -> conv4_1 (in-place)
I0303 14:57:32.220504 28889 net.cpp:113] Setting up relu4_1
I0303 14:57:32.220520 28889 net.cpp:120] Top shape: 1 512 55 55 (1548800)
I0303 14:57:32.220530 28889 layer_factory.hpp:74] Creating layer conv4_2
I0303 14:57:32.220541 28889 net.cpp:84] Creating Layer conv4_2
I0303 14:57:32.220552 28889 net.cpp:381] conv4_2 <- conv4_1
I0303 14:57:32.220567 28889 net.cpp:339] conv4_2 -> conv4_2
I0303 14:57:32.220580 28889 net.cpp:113] Setting up conv4_2
I0303 14:57:32.228389 28889 net.cpp:120] Top shape: 1 512 55 55 (1548800)
I0303 14:57:32.228463 28889 layer_factory.hpp:74] Creating layer relu4_2
I0303 14:57:32.228487 28889 net.cpp:84] Creating Layer relu4_2
I0303 14:57:32.228498 28889 net.cpp:381] relu4_2 <- conv4_2
I0303 14:57:32.228647 28889 net.cpp:328] relu4_2 -> conv4_2 (in-place)
I0303 14:57:32.228687 28889 net.cpp:113] Setting up relu4_2
I0303 14:57:32.228744 28889 net.cpp:120] Top shape: 1 512 55 55 (1548800)
I0303 14:57:32.228768 28889 layer_factory.hpp:74] Creating layer conv4_3
I0303 14:57:32.228791 28889 net.cpp:84] Creating Layer conv4_3
I0303 14:57:32.228813 28889 net.cpp:381] conv4_3 <- conv4_2
I0303 14:57:32.228834 28889 net.cpp:339] conv4_3 -> conv4_3
I0303 14:57:32.228857 28889 net.cpp:113] Setting up conv4_3
I0303 14:57:32.233245 28889 net.cpp:120] Top shape: 1 512 55 55 (1548800)
I0303 14:57:32.233288 28889 layer_factory.hpp:74] Creating layer relu4_3
I0303 14:57:32.233307 28889 net.cpp:84] Creating Layer relu4_3
I0303 14:57:32.233319 28889 net.cpp:381] relu4_3 <- conv4_3
I0303 14:57:32.233332 28889 net.cpp:328] relu4_3 -> conv4_3 (in-place)
I0303 14:57:32.233345 28889 net.cpp:113] Setting up relu4_3
I0303 14:57:32.233356 28889 net.cpp:120] Top shape: 1 512 55 55 (1548800)
I0303 14:57:32.233366 28889 layer_factory.hpp:74] Creating layer pool4
I0303 14:57:32.233381 28889 net.cpp:84] Creating Layer pool4
I0303 14:57:32.233389 28889 net.cpp:381] pool4 <- conv4_3
I0303 14:57:32.233400 28889 net.cpp:339] pool4 -> pool4
I0303 14:57:32.233417 28889 net.cpp:113] Setting up pool4
I0303 14:57:32.233433 28889 net.cpp:120] Top shape: 1 512 54 54 (1492992)
I0303 14:57:32.233441 28889 layer_factory.hpp:74] Creating layer conv5_1
I0303 14:57:32.233497 28889 net.cpp:84] Creating Layer conv5_1
I0303 14:57:32.233508 28889 net.cpp:381] conv5_1 <- pool4
I0303 14:57:32.233649 28889 net.cpp:339] conv5_1 -> conv5_1
I0303 14:57:32.233665 28889 net.cpp:113] Setting up conv5_1
I0303 14:57:32.241493 28889 net.cpp:120] Top shape: 1 512 54 54 (1492992)
I0303 14:57:32.241557 28889 layer_factory.hpp:74] Creating layer relu5_1
I0303 14:57:32.241700 28889 net.cpp:84] Creating Layer relu5_1
I0303 14:57:32.241714 28889 net.cpp:381] relu5_1 <- conv5_1
I0303 14:57:32.241727 28889 net.cpp:328] relu5_1 -> conv5_1 (in-place)
I0303 14:57:32.241742 28889 net.cpp:113] Setting up relu5_1
I0303 14:57:32.241755 28889 net.cpp:120] Top shape: 1 512 54 54 (1492992)
I0303 14:57:32.241770 28889 layer_factory.hpp:74] Creating layer conv5_2
I0303 14:57:32.241785 28889 net.cpp:84] Creating Layer conv5_2
I0303 14:57:32.241793 28889 net.cpp:381] conv5_2 <- conv5_1
I0303 14:57:32.241808 28889 net.cpp:339] conv5_2 -> conv5_2
I0303 14:57:32.241822 28889 net.cpp:113] Setting up conv5_2
I0303 14:57:32.246078 28889 net.cpp:120] Top shape: 1 512 54 54 (1492992)
I0303 14:57:32.246109 28889 layer_factory.hpp:74] Creating layer relu5_2
I0303 14:57:32.246127 28889 net.cpp:84] Creating Layer relu5_2
I0303 14:57:32.247614 28889 net.cpp:381] relu5_2 <- conv5_2
I0303 14:57:32.247660 28889 net.cpp:328] relu5_2 -> conv5_2 (in-place)
I0303 14:57:32.247680 28889 net.cpp:113] Setting up relu5_2
I0303 14:57:32.247699 28889 net.cpp:120] Top shape: 1 512 54 54 (1492992)
I0303 14:57:32.247711 28889 layer_factory.hpp:74] Creating layer conv5_3
I0303 14:57:32.247728 28889 net.cpp:84] Creating Layer conv5_3
I0303 14:57:32.247738 28889 net.cpp:381] conv5_3 <- conv5_2
I0303 14:57:32.247758 28889 net.cpp:339] conv5_3 -> conv5_3
I0303 14:57:32.247776 28889 net.cpp:113] Setting up conv5_3
I0303 14:57:32.253434 28889 net.cpp:120] Top shape: 1 512 54 54 (1492992)
I0303 14:57:32.253494 28889 layer_factory.hpp:74] Creating layer relu5_3
I0303 14:57:32.253520 28889 net.cpp:84] Creating Layer relu5_3
I0303 14:57:32.253530 28889 net.cpp:381] relu5_3 <- conv5_3
I0303 14:57:32.253543 28889 net.cpp:328] relu5_3 -> conv5_3 (in-place)
I0303 14:57:32.253559 28889 net.cpp:113] Setting up relu5_3
I0303 14:57:32.253573 28889 net.cpp:120] Top shape: 1 512 54 54 (1492992)
I0303 14:57:32.253583 28889 layer_factory.hpp:74] Creating layer pool5
I0303 14:57:32.253599 28889 net.cpp:84] Creating Layer pool5
I0303 14:57:32.253608 28889 net.cpp:381] pool5 <- conv5_3
I0303 14:57:32.253620 28889 net.cpp:339] pool5 -> pool5
I0303 14:57:32.253633 28889 net.cpp:113] Setting up pool5
I0303 14:57:32.253654 28889 net.cpp:120] Top shape: 1 512 54 54 (1492992)
I0303 14:57:32.253664 28889 layer_factory.hpp:74] Creating layer conv6
I0303 14:57:32.253685 28889 net.cpp:84] Creating Layer conv6
I0303 14:57:32.253695 28889 net.cpp:381] conv6 <- pool5
I0303 14:57:32.253708 28889 net.cpp:339] conv6 -> conv6
I0303 14:57:32.253723 28889 net.cpp:113] Setting up conv6
I0303 14:57:33.369483 28889 net.cpp:120] Top shape: 1 4096 54 54 (11943936)
I0303 14:57:33.369561 28889 layer_factory.hpp:74] Creating layer relu6
I0303 14:57:33.369608 28889 net.cpp:84] Creating Layer relu6
I0303 14:57:33.369626 28889 net.cpp:381] relu6 <- conv6
I0303 14:57:33.369640 28889 net.cpp:328] relu6 -> conv6 (in-place)
I0303 14:57:33.369657 28889 net.cpp:113] Setting up relu6
I0303 14:57:33.369668 28889 net.cpp:120] Top shape: 1 4096 54 54 (11943936)
I0303 14:57:33.369678 28889 layer_factory.hpp:74] Creating layer drop6
I0303 14:57:33.369706 28889 net.cpp:84] Creating Layer drop6
I0303 14:57:33.369716 28889 net.cpp:381] drop6 <- conv6
I0303 14:57:33.369726 28889 net.cpp:328] drop6 -> conv6 (in-place)
I0303 14:57:33.369740 28889 net.cpp:113] Setting up drop6
I0303 14:57:33.369757 28889 net.cpp:120] Top shape: 1 4096 54 54 (11943936)
I0303 14:57:33.369766 28889 layer_factory.hpp:74] Creating layer conv7
I0303 14:57:33.369789 28889 net.cpp:84] Creating Layer conv7
I0303 14:57:33.369799 28889 net.cpp:381] conv7 <- conv6
I0303 14:57:33.369810 28889 net.cpp:339] conv7 -> conv7
I0303 14:57:33.369858 28889 net.cpp:113] Setting up conv7
I0303 14:57:34.010465 28889 net.cpp:120] Top shape: 1 4096 54 54 (11943936)
I0303 14:57:34.010556 28889 layer_factory.hpp:74] Creating layer relu7
I0303 14:57:34.010596 28889 net.cpp:84] Creating Layer relu7
I0303 14:57:34.010613 28889 net.cpp:381] relu7 <- conv7
I0303 14:57:34.010634 28889 net.cpp:328] relu7 -> conv7 (in-place)
I0303 14:57:34.010656 28889 net.cpp:113] Setting up relu7
I0303 14:57:34.010676 28889 net.cpp:120] Top shape: 1 4096 54 54 (11943936)
I0303 14:57:34.010691 28889 layer_factory.hpp:74] Creating layer drop7
I0303 14:57:34.010715 28889 net.cpp:84] Creating Layer drop7
I0303 14:57:34.010728 28889 net.cpp:381] drop7 <- conv7
I0303 14:57:34.010751 28889 net.cpp:328] drop7 -> conv7 (in-place)
I0303 14:57:34.010771 28889 net.cpp:113] Setting up drop7
I0303 14:57:34.010793 28889 net.cpp:120] Top shape: 1 4096 54 54 (11943936)
I0303 14:57:34.010809 28889 layer_factory.hpp:74] Creating layer conv8
I0303 14:57:34.010954 28889 net.cpp:84] Creating Layer conv8
I0303 14:57:34.010975 28889 net.cpp:381] conv8 <- conv7
I0303 14:57:34.010998 28889 net.cpp:339] conv8 -> conv8
I0303 14:57:34.011025 28889 net.cpp:113] Setting up conv8
I0303 14:57:34.016937 28889 net.cpp:120] Top shape: 1 38 54 54 (110808)
I0303 14:57:34.016979 28889 layer_factory.hpp:74] Creating layer conv8_conv8_0_split
I0303 14:57:34.017022 28889 net.cpp:84] Creating Layer conv8_conv8_0_split
I0303 14:57:34.017041 28889 net.cpp:381] conv8_conv8_0_split <- conv8
I0303 14:57:34.017066 28889 net.cpp:339] conv8_conv8_0_split -> conv8_conv8_0_split_0
I0303 14:57:34.017191 28889 net.cpp:339] conv8_conv8_0_split -> conv8_conv8_0_split_1
I0303 14:57:34.017225 28889 net.cpp:113] Setting up conv8_conv8_0_split
I0303 14:57:34.017244 28889 net.cpp:120] Top shape: 1 38 54 54 (110808)
I0303 14:57:34.017259 28889 net.cpp:120] Top shape: 1 38 54 54 (110808)
I0303 14:57:34.017272 28889 layer_factory.hpp:74] Creating layer label_shrink
I0303 14:57:34.017294 28889 net.cpp:84] Creating Layer label_shrink
I0303 14:57:34.017320 28889 net.cpp:381] label_shrink <- label
I0303 14:57:34.017339 28889 net.cpp:339] label_shrink -> label_shrink
I0303 14:57:34.017397 28889 net.cpp:113] Setting up label_shrink
I0303 14:57:34.017431 28889 net.cpp:120] Top shape: 1 1 54 54 (2916)
I0303 14:57:34.017449 28889 layer_factory.hpp:74] Creating layer label_shrink_label_shrink_0_split
I0303 14:57:34.017468 28889 net.cpp:84] Creating Layer label_shrink_label_shrink_0_split
I0303 14:57:34.017484 28889 net.cpp:381] label_shrink_label_shrink_0_split <- label_shrink
I0303 14:57:34.017503 28889 net.cpp:339] label_shrink_label_shrink_0_split -> label_shrink_label_shrink_0_split_0
I0303 14:57:34.017529 28889 net.cpp:339] label_shrink_label_shrink_0_split -> label_shrink_label_shrink_0_split_1
I0303 14:57:34.017551 28889 net.cpp:113] Setting up label_shrink_label_shrink_0_split
I0303 14:57:34.017578 28889 net.cpp:120] Top shape: 1 1 54 54 (2916)
I0303 14:57:34.017593 28889 net.cpp:120] Top shape: 1 1 54 54 (2916)
I0303 14:57:34.017606 28889 layer_factory.hpp:74] Creating layer mask_54_54
I0303 14:57:34.017626 28889 net.cpp:84] Creating Layer mask_54_54
I0303 14:57:34.017640 28889 net.cpp:339] mask_54_54 -> mask_54_54
I0303 14:57:34.017659 28889 net.cpp:113] Setting up mask_54_54
I0303 14:57:34.017679 28889 net.cpp:120] Top shape: 54 54 (2916)
I0303 14:57:34.017699 28889 layer_factory.hpp:74] Creating layer conv8_trans
I0303 14:57:34.017722 28889 net.cpp:84] Creating Layer conv8_trans
I0303 14:57:34.017738 28889 net.cpp:381] conv8_trans <- conv8_conv8_0_split_0
I0303 14:57:34.017788 28889 net.cpp:339] conv8_trans -> conv8_trans
I0303 14:57:34.017822 28889 net.cpp:113] Setting up conv8_trans
I0303 14:57:34.017855 28889 net.cpp:120] Top shape: 54 54 38 (110808)
I0303 14:57:34.017882 28889 layer_factory.hpp:74] Creating layer RGB_lstm1
I0303 14:57:34.017913 28889 net.cpp:84] Creating Layer RGB_lstm1
I0303 14:57:34.017940 28889 net.cpp:381] RGB_lstm1 <- conv8_trans
I0303 14:57:34.017959 28889 net.cpp:381] RGB_lstm1 <- mask_54_54
I0303 14:57:34.018031 28889 net.cpp:339] RGB_lstm1 -> RGB_lstm1
I0303 14:57:34.018059 28889 net.cpp:113] Setting up RGB_lstm1
I0303 14:57:34.018085 28889 recurrent_layer.cpp:27] Initializing recurrent layer: assuming input batch contains 54 timesteps of 54 independent streams.
I0303 14:57:34.020505 28889 net.cpp:42] Initializing net from parameters: 
input: "x"
input: "cont"
input: "c_0"
input: "h_0"
force_backward: true
input_shape {
  dim: 54
  dim: 54
  dim: 38
}
input_shape {
  dim: 1
  dim: 54
  dim: 54
}
input_shape {
  dim: 1
  dim: 54
  dim: 100
}
input_shape {
  dim: 1
  dim: 54
  dim: 100
}
layer {
  name: "RGB_lstm1_cont_slice"
  type: "Slice"
  bottom: "cont"
  top: "cont_1"
  top: "cont_2"
  top: "cont_3"
  top: "cont_4"
  top: "cont_5"
  top: "cont_6"
  top: "cont_7"
  top: "cont_8"
  top: "cont_9"
  top: "cont_10"
  top: "cont_11"
  top: "cont_12"
  top: "cont_13"
  top: "cont_14"
  top: "cont_15"
  top: "cont_16"
  top: "cont_17"
  top: "cont_18"
  top: "cont_19"
  top: "cont_20"
  top: "cont_21"
  top: "cont_22"
  top: "cont_23"
  top: "cont_24"
  top: "cont_25"
  top: "cont_26"
  top: "cont_27"
  top: "cont_28"
  top: "cont_29"
  top: "cont_30"
  top: "cont_31"
  top: "cont_32"
  top: "cont_33"
  top: "cont_34"
  top: "cont_35"
  top: "cont_36"
  top: "cont_37"
  top: "cont_38"
  top: "cont_39"
  top: "cont_40"
  top: "cont_41"
  top: "cont_42"
  top: "cont_43"
  top: "cont_44"
  top: "cont_45"
  top: "cont_46"
  top: "cont_47"
  top: "cont_48"
  top: "cont_49"
  top: "cont_50"
  top: "cont_51"
  top: "cont_52"
  top: "cont_53"
  top: "cont_54"
  slice_param {
    axis: 1
  }
}
layer {
  name: "RGB_lstm1_x_transform"
  type: "InnerProduct"
  bottom: "x"
  top: "W_xc_x"
  param {
    name: "W_xc"
  }
  param {
    name: "b_c"
  }
  inner_product_param {
    num_output: 400
    bias_term: true
    weight_filler {
      type: "uniform"
      min: -0.01
      max: 0.01
    }
    bias_filler {
      type: "constant"
      value: 0
    }
    axis: 2
  }
}
layer {
  name: "RGB_lstm1_W_xc_x_slice"
  type: "Slice"
  bottom: "W_xc_x"
  top: "W_xc_x_1"
  top: "W_xc_x_2"
  top: "W_xc_x_3"
  top: "W_xc_x_4"
  top: "W_xc_x_5"
  top: "W_xc_x_6"
  top: "W_xc_x_7"
  top: "W_xc_x_8"
  top: "W_xc_x_9"
  top: "W_xc_x_10"
  top: "W_xc_x_11"
  top: "W_xc_x_12"
  top: "W_xc_x_13"
  top: "W_xc_x_14"
  top: "W_xc_x_15"
  top: "W_xc_x_16"
  top: "W_xc_x_17"
  top: "W_xc_x_18"
  top: "W_xc_x_19"
  top: "W_xc_x_20"
  top: "W_xc_x_21"
  top: "W_xc_x_22"
  top: "W_xc_x_23"
  top: "W_xc_x_24"
  top: "W_xc_x_25"
  top: "W_xc_x_26"
  top: "W_xc_x_27"
  top: "W_xc_x_28"
  top: "W_xc_x_29"
  top: "W_xc_x_30"
  top: "W_xc_x_31"
  top: "W_xc_x_32"
  top: "W_xc_x_33"
  top: "W_xc_x_34"
  top: "W_xc_x_35"
  top: "W_xc_x_36"
  top: "W_xc_x_37"
  top: "W_xc_x_38"
  top: "W_xc_x_39"
  top: "W_xc_x_40"
  top: "W_xc_x_41"
  top: "W_xc_x_42"
  top: "W_xc_x_43"
  top: "W_xc_x_44"
  top: "W_xc_x_45"
  top: "W_xc_x_46"
  top: "W_xc_x_47"
  top: "W_xc_x_48"
  top: "W_xc_x_49"
  top: "W_xc_x_50"
  top: "W_xc_x_51"
  top: "W_xc_x_52"
  top: "W_xc_x_53"
  top: "W_xc_x_54"
  slice_param {
    axis: 0
  }
}
layer {
  name: "RGB_lstm1_h_conted_0"
  type: "Eltwise"
  bottom: "h_0"
  bottom: "cont_1"
  top: "h_conted_0"
  eltwise_param {
    operation: SUM
    coeff_blob: true
  }
}
layer {
  name: "RGB_lstm1_transform_1"
  type: "InnerProduct"
  bottom: "h_conted_0"
  top: "W_hc_h_0"
  param {
    name: "W_hc"
  }
  inner_product_param {
    num_output: 400
    bias_term: false
    weight_filler {
      type: "uniform"
      min: -0.01
      max: 0.01
    }
    axis: 2
  }
}
layer {
  name: "RGB_lstm1_gate_input_1"
  type: "Eltwise"
  bottom: "W_hc_h_0"
  bottom: "W_xc_x_1"
  top: "gate_input_1"
  eltwise_param {
    operation: SUM
  }
}
layer {
  name: "RGB_lstm1_unit_1"
  type: "LSTMUnit"
  bottom: "c_0"
  bottom: "gate_input_1"
  bottom: "cont_1"
  top: "c_1"
  top: "h_1"
}
layer {
  name: "RGB_lstm1_h_conted_1"
  type: "Eltwise"
  bottom: "h_1"
  bottom: "cont_2"
  top: "h_conted_1"
  eltwise_param {
    operation: SUM
    coeff_blob: true
  }
}
layer {
  name: "RGB_lstm1_transform_2"
  type: "InnerProduct"
  bottom: "h_conted_1"
  top: "W_hc_h_1"
  param {
    name: "W_hc"
  }
  inner_product_param {
    num_output: 400
    bias_term: false
    weight_filler {
      type: "uniform"
      min: -0.01
      max: 0.01
    }
    axis: 2
  }
}
layer {
  name: "RGB_lstm1_gate_input_2"
  type: "Eltwise"
  bottom: "W_hc_h_1"
  bottom: "W_xc_x_2"
  top: "gate_input_2"
  eltwise_param {
    operation: SUM
  }
}
layer {
  name: "RGB_lstm1_unit_2"
  type: "LSTMUnit"
  bottom: "c_1"
  bottom: "gate_input_2"
  bottom: "cont_2"
  top: "c_2"
  top: "h_2"
}
layer {
  name: "RGB_lstm1_h_conted_2"
  type: "Eltwise"
  bottom: "h_2"
  bottom: "cont_3"
  top: "h_conted_2"
  eltwise_param {
    operation: SUM
    coeff_blob: true
  }
}
layer {
  name: "RGB_lstm1_transform_3"
  type: "InnerProduct"
  bottom: "h_conted_2"
  top: "W_hc_h_2"
  param {
    name: "W_hc"
  }
  inner_product_param {
    num_output: 400
    bias_term: false
    weight_filler {
      type: "uniform"
      min: -0.01
      max: 0.01
    }
    axis: 2
  }
}
layer {
  name: "RGB_lstm1_gate_input_3"
  type: "Eltwise"
  bottom: "W_hc_h_2"
  bottom: "W_xc_x_3"
  top: "gate_input_3"
  eltwise_param {
    operation: SUM
  }
}
layer {
  name: "RGB_lstm1_unit_3"
  type: "LSTMUnit"
  bottom: "c_2"
  bottom: "gate_input_3"
  bottom: "cont_3"
  top: "c_3"
  top: "h_3"
}
layer {
  name: "RGB_lstm1_h_conted_3"
  type: "Eltwise"
  bottom: "h_3"
  bottom: "cont_4"
  top: "h_conted_3"
  eltwise_param {
    operation: SUM
    coeff_blob: true
  }
}
layer {
  name: "RGB_lstm1_transform_4"
  type: "InnerProduct"
  bottom: "h_conted_3"
  top: "W_hc_h_3"
  param {
    name: "W_hc"
  }
  inner_product_param {
    num_output: 400
    bias_term: false
    weight_filler {
      type: "uniform"
      min: -0.01
      max: 0.01
    }
    axis: 2
  }
}
layer {
  name: "RGB_lstm1_gate_input_4"
  type: "Eltwise"
  bottom: "W_hc_h_3"
  bottom: "W_xc_x_4"
  top: "gate_input_4"
  eltwise_param {
    operation: SUM
  }
}
layer {
  name: "RGB_lstm1_unit_4"
  type: "LSTMUnit"
  bottom: "c_3"
  bottom: "gate_input_4"
  bottom: "cont_4"
  top: "c_4"
  top: "h_4"
}
layer {
  name: "RGB_lstm1_h_conted_4"
  type: "Eltwise"
  bottom: "h_4"
  bottom: "cont_5"
  top: "h_conted_4"
  eltwise_param {
    operation: SUM
    coeff_blob: true
  }
}
layer {
  name: "RGB_lstm1_transform_5"
  type: "InnerProduct"
  bottom: "h_conted_4"
  top: "W_hc_h_4"
  param {
    name: "W_hc"
  }
  inner_product_param {
    num_output: 400
    bias_term: false
    weight_filler {
      type: "uniform"
      min: -0.01
      max: 0.01
    }
    axis: 2
  }
}
layer {
  name: "RGB_lstm1_gate_input_5"
  type: "Eltwise"
  bottom: "W_hc_h_4"
  bottom: "W_xc_x_5"
  top: "gate_input_5"
  eltwise_param {
    operation: SUM
  }
}
layer {
  name: "RGB_lstm1_unit_5"
  type: "LSTMUnit"
  bottom: "c_4"
  bottom: "gate_input_5"
  bottom: "cont_5"
  top: "c_5"
  top: "h_5"
}
layer {
  name: "RGB_lstm1_h_conted_5"
  type: "Eltwise"
  bottom: "h_5"
  bottom: "cont_6"
  top: "h_conted_5"
  eltwise_param {
    operation: SUM
    coeff_blob: true
  }
}
layer {
  name: "RGB_lstm1_transform_6"
  type: "InnerProduct"
  bottom: "h_conted_5"
  top: "W_hc_h_5"
  param {
    name: "W_hc"
  }
  inner_product_param {
    num_output: 400
    bias_term: false
    weight_filler {
      type: "uniform"
      min: -0.01
      max: 0.01
    }
    axis: 2
  }
}
layer {
  name: "RGB_lstm1_gate_input_6"
  type: "Eltwise"
  bottom: "W_hc_h_5"
  bottom: "W_xc_x_6"
  top: "gate_input_6"
  eltwise_param {
    operation: SUM
  }
}
layer {
  name: "RGB_lstm1_unit_6"
  type: "LSTMUnit"
  bottom: "c_5"
  bottom: "gate_input_6"
  bottom: "cont_6"
  top: "c_6"
  top: "h_6"
}
layer {
  name: "RGB_lstm1_h_conted_6"
  type: "Eltwise"
  bottom: "h_6"
  bottom: "cont_7"
  top: "h_conted_6"
  eltwise_param {
    operation: SUM
    coeff_blob: true
  }
}
layer {
  name: "RGB_lstm1_transform_7"
  type: "InnerProduct"
  bottom: "h_conted_6"
  top: "W_hc_h_6"
  param {
    name: "W_hc"
  }
  inner_product_param {
    num_output: 400
    bias_term: false
    weight_filler {
      type: "uniform"
      min: -0.01
      max: 0.01
    }
    axis: 2
  }
}
layer {
  name: "RGB_lstm1_gate_input_7"
  type: "Eltwise"
  bottom: "W_hc_h_6"
  bottom: "W_xc_x_7"
  top: "gate_input_7"
  eltwise_param {
    operation: SUM
  }
}
layer {
  name: "RGB_lstm1_unit_7"
  type: "LSTMUnit"
  bottom: "c_6"
  bottom: "gate_input_7"
  bottom: "cont_7"
  top: "c_7"
  top: "h_7"
}
layer {
  name: "RGB_lstm1_h_conted_7"
  type: "Eltwise"
  bottom: "h_7"
  bottom: "cont_8"
  top: "h_conted_7"
  eltwise_param {
    operation: SUM
    coeff_blob: true
  }
}
layer {
  name: "RGB_lstm1_transform_8"
  type: "InnerProduct"
  bottom: "h_conted_7"
  top: "W_hc_h_7"
  param {
    name: "W_hc"
  }
  inner_product_param {
    num_output: 400
    bias_term: false
    weight_filler {
      type: "uniform"
      min: -0.01
      max: 0.01
    }
    axis: 2
  }
}
layer {
  name: "RGB_lstm1_gate_input_8"
  type: "Eltwise"
  bottom: "W_hc_h_7"
  bottom: "W_xc_x_8"
  top: "gate_input_8"
  eltwise_param {
    operation: SUM
  }
}
layer {
  name: "RGB_lstm1_unit_8"
  type: "LSTMUnit"
  bottom: "c_7"
  bottom: "gate_input_8"
  bottom: "cont_8"
  top: "c_8"
  top: "h_8"
}
layer {
  name: "RGB_lstm1_h_conted_8"
  type: "Eltwise"
  bottom: "h_8"
  bottom: "cont_9"
  top: "h_conted_8"
  eltwise_param {
    operation: SUM
    coeff_blob: true
  }
}
layer {
  name: "RGB_lstm1_transform_9"
  type: "InnerProduct"
  bottom: "h_conted_8"
  top: "W_hc_h_8"
  param {
    name: "W_hc"
  }
  inner_product_param {
    num_output: 400
    bias_term: false
    weight_filler {
      type: "uniform"
      min: -0.01
      max: 0.01
    }
    axis: 2
  }
}
layer {
  name: "RGB_lstm1_gate_input_9"
  type: "Eltwise"
  bottom: "W_hc_h_8"
  bottom: "W_xc_x_9"
  top: "gate_input_9"
  eltwise_param {
    operation: SUM
  }
}
layer {
  name: "RGB_lstm1_unit_9"
  type: "LSTMUnit"
  bottom: "c_8"
  bottom: "gate_input_9"
  bottom: "cont_9"
  top: "c_9"
  top: "h_9"
}
layer {
  name: "RGB_lstm1_h_conted_9"
  type: "Eltwise"
  bottom: "h_9"
  bottom: "cont_10"
  top: "h_conted_9"
  eltwise_param {
    operation: SUM
    coeff_blob: true
  }
}
layer {
  name: "RGB_lstm1_transform_10"
  type: "InnerProduct"
  bottom: "h_conted_9"
  top: "W_hc_h_9"
  param {
    name: "W_hc"
  }
  inner_product_param {
    num_output: 400
    bias_term: false
    weight_filler {
      type: "uniform"
      min: -0.01
      max: 0.01
    }
    axis: 2
  }
}
layer {
  name: "RGB_lstm1_gate_input_10"
  type: "Eltwise"
  bottom: "W_hc_h_9"
  bottom: "W_xc_x_10"
  top: "gate_input_10"
  eltwise_param {
    operation: SUM
  }
}
layer {
  name: "RGB_lstm1_unit_10"
  type: "LSTMUnit"
  bottom: "c_9"
  bottom: "gate_input_10"
  bottom: "cont_10"
  top: "c_10"
  top: "h_10"
}
layer {
  name: "RGB_lstm1_h_conted_10"
  type: "Eltwise"
  bottom: "h_10"
  bottom: "cont_11"
  top: "h_conted_10"
  eltwise_param {
    operation: SUM
    coeff_blob: true
  }
}
layer {
  name: "RGB_lstm1_transform_11"
  type: "InnerProduct"
  bottom: "h_conted_10"
  top: "W_hc_h_10"
  param {
    name: "W_hc"
  }
  inner_product_param {
    num_output: 400
    bias_term: false
    weight_filler {
      type: "uniform"
      min: -0.01
      max: 0.01
    }
    axis: 2
  }
}
layer {
  name: "RGB_lstm1_gate_input_11"
  type: "Eltwise"
  bottom: "W_hc_h_10"
  bottom: "W_xc_x_11"
  top: "gate_input_11"
  eltwise_param {
    operation: SUM
  }
}
layer {
  name: "RGB_lstm1_unit_11"
  type: "LSTMUnit"
  bottom: "c_10"
  bottom: "gate_input_11"
  bottom: "cont_11"
  top: "c_11"
  top: "h_11"
}
layer {
  name: "RGB_lstm1_h_conted_11"
  type: "Eltwise"
  bottom: "h_11"
  bottom: "cont_12"
  top: "h_conted_11"
  eltwise_param {
    operation: SUM
    coeff_blob: true
  }
}
layer {
  name: "RGB_lstm1_transform_12"
  type: "InnerProduct"
  bottom: "h_conted_11"
  top: "W_hc_h_11"
  param {
    name: "W_hc"
  }
  inner_product_param {
    num_output: 400
    bias_term: false
    weight_filler {
      type: "uniform"
      min: -0.01
      max: 0.01
    }
    axis: 2
  }
}
layer {
  name: "RGB_lstm1_gate_input_12"
  type: "Eltwise"
  bottom: "W_hc_h_11"
  bottom: "W_xc_x_12"
  top: "gate_input_12"
  eltwise_param {
    operation: SUM
  }
}
layer {
  name: "RGB_lstm1_unit_12"
  type: "LSTMUnit"
  bottom: "c_11"
  bottom: "gate_input_12"
  bottom: "cont_12"
  top: "c_12"
  top: "h_12"
}
layer {
  name: "RGB_lstm1_h_conted_12"
  type: "Eltwise"
  bottom: "h_12"
  bottom: "cont_13"
  top: "h_conted_12"
  eltwise_param {
    operation: SUM
    coeff_blob: true
  }
}
layer {
  name: "RGB_lstm1_transform_13"
  type: "InnerProduct"
  bottom: "h_conted_12"
  top: "W_hc_h_12"
  param {
    name: "W_hc"
  }
  inner_product_param {
    num_output: 400
    bias_term: false
    weight_filler {
      type: "uniform"
      min: -0.01
      max: 0.01
    }
    axis: 2
  }
}
layer {
  name: "RGB_lstm1_gate_input_13"
  type: "Eltwise"
  bottom: "W_hc_h_12"
  bottom: "W_xc_x_13"
  top: "gate_input_13"
  eltwise_param {
    operation: SUM
  }
}
layer {
  name: "RGB_lstm1_unit_13"
  type: "LSTMUnit"
  bottom: "c_12"
  bottom: "gate_input_13"
  bottom: "cont_13"
  top: "c_13"
  top: "h_13"
}
layer {
  name: "RGB_lstm1_h_conted_13"
  type: "Eltwise"
  bottom: "h_13"
  bottom: "cont_14"
  top: "h_conted_13"
  eltwise_param {
    operation: SUM
    coeff_blob: true
  }
}
layer {
  name: "RGB_lstm1_transform_14"
  type: "InnerProduct"
  bottom: "h_conted_13"
  top: "W_hc_h_13"
  param {
    name: "W_hc"
  }
  inner_product_param {
    num_output: 400
    bias_term: false
    weight_filler {
      type: "uniform"
      min: -0.01
      max: 0.01
    }
    axis: 2
  }
}
layer {
  name: "RGB_lstm1_gate_input_14"
  type: "Eltwise"
  bottom: "W_hc_h_13"
  bottom: "W_xc_x_14"
  top: "gate_input_14"
  eltwise_param {
    operation: SUM
  }
}
layer {
  name: "RGB_lstm1_unit_14"
  type: "LSTMUnit"
  bottom: "c_13"
  bottom: "gate_input_14"
  bottom: "cont_14"
  top: "c_14"
  top: "h_14"
}
layer {
  name: "RGB_lstm1_h_conted_14"
  type: "Eltwise"
  bottom: "h_14"
  bottom: "cont_15"
  top: "h_conted_14"
  eltwise_param {
    operation: SUM
    coeff_blob: true
  }
}
layer {
  name: "RGB_lstm1_transform_15"
  type: "InnerProduct"
  bottom: "h_conted_14"
  top: "W_hc_h_14"
  param {
    name: "W_hc"
  }
  inner_product_param {
    num_output: 400
    bias_term: false
    weight_filler {
      type: "uniform"
      min: -0.01
      max: 0.01
    }
    axis: 2
  }
}
layer {
  name: "RGB_lstm1_gate_input_15"
  type: "Eltwise"
  bottom: "W_hc_h_14"
  bottom: "W_xc_x_15"
  top: "gate_input_15"
  eltwise_param {
    operation: SUM
  }
}
layer {
  name: "RGB_lstm1_unit_15"
  type: "LSTMUnit"
  bottom: "c_14"
  bottom: "gate_input_15"
  bottom: "cont_15"
  top: "c_15"
  top: "h_15"
}
layer {
  name: "RGB_lstm1_h_conted_15"
  type: "Eltwise"
  bottom: "h_15"
  bottom: "cont_16"
  top: "h_conted_15"
  eltwise_param {
    operation: SUM
    coeff_blob: true
  }
}
layer {
  name: "RGB_lstm1_transform_16"
  type: "InnerProduct"
  bottom: "h_conted_15"
  top: "W_hc_h_15"
  param {
    name: "W_hc"
  }
  inner_product_param {
    num_output: 400
    bias_term: false
    weight_filler {
      type: "uniform"
      min: -0.01
      max: 0.01
    }
    axis: 2
  }
}
layer {
  name: "RGB_lstm1_gate_input_16"
  type: "Eltwise"
  bottom: "W_hc_h_15"
  bottom: "W_xc_x_16"
  top: "gate_input_16"
  eltwise_param {
    operation: SUM
  }
}
layer {
  name: "RGB_lstm1_unit_16"
  type: "LSTMUnit"
  bottom: "c_15"
  bottom: "gate_input_16"
  bottom: "cont_16"
  top: "c_16"
  top: "h_16"
}
layer {
  name: "RGB_lstm1_h_conted_16"
  type: "Eltwise"
  bottom: "h_16"
  bottom: "cont_17"
  top: "h_conted_16"
  eltwise_param {
    operation: SUM
    coeff_blob: true
  }
}
layer {
  name: "RGB_lstm1_transform_17"
  type: "InnerProduct"
  bottom: "h_conted_16"
  top: "W_hc_h_16"
  param {
    name: "W_hc"
  }
  inner_product_param {
    num_output: 400
    bias_term: false
    weight_filler {
      type: "uniform"
      min: -0.01
      max: 0.01
    }
    axis: 2
  }
}
layer {
  name: "RGB_lstm1_gate_input_17"
  type: "Eltwise"
  bottom: "W_hc_h_16"
  bottom: "W_xc_x_17"
  top: "gate_input_17"
  eltwise_param {
    operation: SUM
  }
}
layer {
  name: "RGB_lstm1_unit_17"
  type: "LSTMUnit"
  bottom: "c_16"
  bottom: "gate_input_17"
  bottom: "cont_17"
  top: "c_17"
  top: "h_17"
}
layer {
  name: "RGB_lstm1_h_conted_17"
  type: "Eltwise"
  bottom: "h_17"
  bottom: "cont_18"
  top: "h_conted_17"
  eltwise_param {
    operation: SUM
    coeff_blob: true
  }
}
layer {
  name: "RGB_lstm1_transform_18"
  type: "InnerProduct"
  bottom: "h_conted_17"
  top: "W_hc_h_17"
  param {
    name: "W_hc"
  }
  inner_product_param {
    num_output: 400
    bias_term: false
    weight_filler {
      type: "uniform"
      min: -0.01
      max: 0.01
    }
    axis: 2
  }
}
layer {
  name: "RGB_lstm1_gate_input_18"
  type: "Eltwise"
  bottom: "W_hc_h_17"
  bottom: "W_xc_x_18"
  top: "gate_input_18"
  eltwise_param {
    operation: SUM
  }
}
layer {
  name: "RGB_lstm1_unit_18"
  type: "LSTMUnit"
  bottom: "c_17"
  bottom: "gate_input_18"
  bottom: "cont_18"
  top: "c_18"
  top: "h_18"
}
layer {
  name: "RGB_lstm1_h_conted_18"
  type: "Eltwise"
  bottom: "h_18"
  bottom: "cont_19"
  top: "h_conted_18"
  eltwise_param {
    operation: SUM
    coeff_blob: true
  }
}
layer {
  name: "RGB_lstm1_transform_19"
  type: "InnerProduct"
  bottom: "h_conted_18"
  top: "W_hc_h_18"
  param {
    name: "W_hc"
  }
  inner_product_param {
    num_output: 400
    bias_term: false
    weight_filler {
      type: "uniform"
      min: -0.01
      max: 0.01
    }
    axis: 2
  }
}
layer {
  name: "RGB_lstm1_gate_input_19"
  type: "Eltwise"
  bottom: "W_hc_h_18"
  bottom: "W_xc_x_19"
  top: "gate_input_19"
  eltwise_param {
    operation: SUM
  }
}
layer {
  name: "RGB_lstm1_unit_19"
  type: "LSTMUnit"
  bottom: "c_18"
  bottom: "gate_input_19"
  bottom: "cont_19"
  top: "c_19"
  top: "h_19"
}
layer {
  name: "RGB_lstm1_h_conted_19"
  type: "Eltwise"
  bottom: "h_19"
  bottom: "cont_20"
  top: "h_conted_19"
  eltwise_param {
    operation: SUM
    coeff_blob: true
  }
}
layer {
  name: "RGB_lstm1_transform_20"
  type: "InnerProduct"
  bottom: "h_conted_19"
  top: "W_hc_h_19"
  param {
    name: "W_hc"
  }
  inner_product_param {
    num_output: 400
    bias_term: false
    weight_filler {
      type: "uniform"
      min: -0.01
      max: 0.01
    }
    axis: 2
  }
}
layer {
  name: "RGB_lstm1_gate_input_20"
  type: "Eltwise"
  bottom: "W_hc_h_19"
  bottom: "W_xc_x_20"
  top: "gate_input_20"
  eltwise_param {
    operation: SUM
  }
}
layer {
  name: "RGB_lstm1_unit_20"
  type: "LSTMUnit"
  bottom: "c_19"
  bottom: "gate_input_20"
  bottom: "cont_20"
  top: "c_20"
  top: "h_20"
}
layer {
  name: "RGB_lstm1_h_conted_20"
  type: "Eltwise"
  bottom: "h_20"
  bottom: "cont_21"
  top: "h_conted_20"
  eltwise_param {
    operation: SUM
    coeff_blob: true
  }
}
layer {
  name: "RGB_lstm1_transform_21"
  type: "InnerProduct"
  bottom: "h_conted_20"
  top: "W_hc_h_20"
  param {
    name: "W_hc"
  }
  inner_product_param {
    num_output: 400
    bias_term: false
    weight_filler {
      type: "uniform"
      min: -0.01
      max: 0.01
    }
    axis: 2
  }
}
layer {
  name: "RGB_lstm1_gate_input_21"
  type: "Eltwise"
  bottom: "W_hc_h_20"
  bottom: "W_xc_x_21"
  top: "gate_input_21"
  eltwise_param {
    operation: SUM
  }
}
layer {
  name: "RGB_lstm1_unit_21"
  type: "LSTMUnit"
  bottom: "c_20"
  bottom: "gate_input_21"
  bottom: "cont_21"
  top: "c_21"
  top: "h_21"
}
layer {
  name: "RGB_lstm1_h_conted_21"
  type: "Eltwise"
  bottom: "h_21"
  bottom: "cont_22"
  top: "h_conted_21"
  eltwise_param {
    operation: SUM
    coeff_blob: true
  }
}
layer {
  name: "RGB_lstm1_transform_22"
  type: "InnerProduct"
  bottom: "h_conted_21"
  top: "W_hc_h_21"
  param {
    name: "W_hc"
  }
  inner_product_param {
    num_output: 400
    bias_term: false
    weight_filler {
      type: "uniform"
      min: -0.01
      max: 0.01
    }
    axis: 2
  }
}
layer {
  name: "RGB_lstm1_gate_input_22"
  type: "Eltwise"
  bottom: "W_hc_h_21"
  bottom: "W_xc_x_22"
  top: "gate_input_22"
  eltwise_param {
    operation: SUM
  }
}
layer {
  name: "RGB_lstm1_unit_22"
  type: "LSTMUnit"
  bottom: "c_21"
  bottom: "gate_input_22"
  bottom: "cont_22"
  top: "c_22"
  top: "h_22"
}
layer {
  name: "RGB_lstm1_h_conted_22"
  type: "Eltwise"
  bottom: "h_22"
  bottom: "cont_23"
  top: "h_conted_22"
  eltwise_param {
    operation: SUM
    coeff_blob: true
  }
}
layer {
  name: "RGB_lstm1_transform_23"
  type: "InnerProduct"
  bottom: "h_conted_22"
  top: "W_hc_h_22"
  param {
    name: "W_hc"
  }
  inner_product_param {
    num_output: 400
    bias_term: false
    weight_filler {
      type: "uniform"
      min: -0.01
      max: 0.01
    }
    axis: 2
  }
}
layer {
  name: "RGB_lstm1_gate_input_23"
  type: "Eltwise"
  bottom: "W_hc_h_22"
  bottom: "W_xc_x_23"
  top: "gate_input_23"
  eltwise_param {
    operation: SUM
  }
}
layer {
  name: "RGB_lstm1_unit_23"
  type: "LSTMUnit"
  bottom: "c_22"
  bottom: "gate_input_23"
  bottom: "cont_23"
  top: "c_23"
  top: "h_23"
}
layer {
  name: "RGB_lstm1_h_conted_23"
  type: "Eltwise"
  bottom: "h_23"
  bottom: "cont_24"
  top: "h_conted_23"
  eltwise_param {
    operation: SUM
    coeff_blob: true
  }
}
layer {
  name: "RGB_lstm1_transform_24"
  type: "InnerProduct"
  bottom: "h_conted_23"
  top: "W_hc_h_23"
  param {
    name: "W_hc"
  }
  inner_product_param {
    num_output: 400
    bias_term: false
    weight_filler {
      type: "uniform"
      min: -0.01
      max: 0.01
    }
    axis: 2
  }
}
layer {
  name: "RGB_lstm1_gate_input_24"
  type: "Eltwise"
  bottom: "W_hc_h_23"
  bottom: "W_xc_x_24"
  top: "gate_input_24"
  eltwise_param {
    operation: SUM
  }
}
layer {
  name: "RGB_lstm1_unit_24"
  type: "LSTMUnit"
  bottom: "c_23"
  bottom: "gate_input_24"
  bottom: "cont_24"
  top: "c_24"
  top: "h_24"
}
layer {
  name: "RGB_lstm1_h_conted_24"
  type: "Eltwise"
  bottom: "h_24"
  bottom: "cont_25"
  top: "h_conted_24"
  eltwise_param {
    operation: SUM
    coeff_blob: true
  }
}
layer {
  name: "RGB_lstm1_transform_25"
  type: "InnerProduct"
  bottom: "h_conted_24"
  top: "W_hc_h_24"
  param {
    name: "W_hc"
  }
  inner_product_param {
    num_output: 400
    bias_term: false
    weight_filler {
      type: "uniform"
      min: -0.01
      max: 0.01
    }
    axis: 2
  }
}
layer {
  name: "RGB_lstm1_gate_input_25"
  type: "Eltwise"
  bottom: "W_hc_h_24"
  bottom: "W_xc_x_25"
  top: "gate_input_25"
  eltwise_param {
    operation: SUM
  }
}
layer {
  name: "RGB_lstm1_unit_25"
  type: "LSTMUnit"
  bottom: "c_24"
  bottom: "gate_input_25"
  bottom: "cont_25"
  top: "c_25"
  top: "h_25"
}
layer {
  name: "RGB_lstm1_h_conted_25"
  type: "Eltwise"
  bottom: "h_25"
  bottom: "cont_26"
  top: "h_conted_25"
  eltwise_param {
    operation: SUM
    coeff_blob: true
  }
}
layer {
  name: "RGB_lstm1_transform_26"
  type: "InnerProduct"
  bottom: "h_conted_25"
  top: "W_hc_h_25"
  param {
    name: "W_hc"
  }
  inner_product_param {
    num_output: 400
    bias_term: false
    weight_filler {
      type: "uniform"
      min: -0.01
      max: 0.01
    }
    axis: 2
  }
}
layer {
  name: "RGB_lstm1_gate_input_26"
  type: "Eltwise"
  bottom: "W_hc_h_25"
  bottom: "W_xc_x_26"
  top: "gate_input_26"
  eltwise_param {
    operation: SUM
  }
}
layer {
  name: "RGB_lstm1_unit_26"
  type: "LSTMUnit"
  bottom: "c_25"
  bottom: "gate_input_26"
  bottom: "cont_26"
  top: "c_26"
  top: "h_26"
}
layer {
  name: "RGB_lstm1_h_conted_26"
  type: "Eltwise"
  bottom: "h_26"
  bottom: "cont_27"
  top: "h_conted_26"
  eltwise_param {
    operation: SUM
    coeff_blob: true
  }
}
layer {
  name: "RGB_lstm1_transform_27"
  type: "InnerProduct"
  bottom: "h_conted_26"
  top: "W_hc_h_26"
  param {
    name: "W_hc"
  }
  inner_product_param {
    num_output: 400
    bias_term: false
    weight_filler {
      type: "uniform"
      min: -0.01
      max: 0.01
    }
    axis: 2
  }
}
layer {
  name: "RGB_lstm1_gate_input_27"
  type: "Eltwise"
  bottom: "W_hc_h_26"
  bottom: "W_xc_x_27"
  top: "gate_input_27"
  eltwise_param {
    operation: SUM
  }
}
layer {
  name: "RGB_lstm1_unit_27"
  type: "LSTMUnit"
  bottom: "c_26"
  bottom: "gate_input_27"
  bottom: "cont_27"
  top: "c_27"
  top: "h_27"
}
layer {
  name: "RGB_lstm1_h_conted_27"
  type: "Eltwise"
  bottom: "h_27"
  bottom: "cont_28"
  top: "h_conted_27"
  eltwise_param {
    operation: SUM
    coeff_blob: true
  }
}
layer {
  name: "RGB_lstm1_transform_28"
  type: "InnerProduct"
  bottom: "h_conted_27"
  top: "W_hc_h_27"
  param {
    name: "W_hc"
  }
  inner_product_param {
    num_output: 400
    bias_term: false
    weight_filler {
      type: "uniform"
      min: -0.01
      max: 0.01
    }
    axis: 2
  }
}
layer {
  name: "RGB_lstm1_gate_input_28"
  type: "Eltwise"
  bottom: "W_hc_h_27"
  bottom: "W_xc_x_28"
  top: "gate_input_28"
  eltwise_param {
    operation: SUM
  }
}
layer {
  name: "RGB_lstm1_unit_28"
  type: "LSTMUnit"
  bottom: "c_27"
  bottom: "gate_input_28"
  bottom: "cont_28"
  top: "c_28"
  top: "h_28"
}
layer {
  name: "RGB_lstm1_h_conted_28"
  type: "Eltwise"
  bottom: "h_28"
  bottom: "cont_29"
  top: "h_conted_28"
  eltwise_param {
    operation: SUM
    coeff_blob: true
  }
}
layer {
  name: "RGB_lstm1_transform_29"
  type: "InnerProduct"
  bottom: "h_conted_28"
  top: "W_hc_h_28"
  param {
    name: "W_hc"
  }
  inner_product_param {
    num_output: 400
    bias_term: false
    weight_filler {
      type: "uniform"
      min: -0.01
      max: 0.01
    }
    axis: 2
  }
}
layer {
  name: "RGB_lstm1_gate_input_29"
  type: "Eltwise"
  bottom: "W_hc_h_28"
  bottom: "W_xc_x_29"
  top: "gate_input_29"
  eltwise_param {
    operation: SUM
  }
}
layer {
  name: "RGB_lstm1_unit_29"
  type: "LSTMUnit"
  bottom: "c_28"
  bottom: "gate_input_29"
  bottom: "cont_29"
  top: "c_29"
  top: "h_29"
}
layer {
  name: "RGB_lstm1_h_conted_29"
  type: "Eltwise"
  bottom: "h_29"
  bottom: "cont_30"
  top: "h_conted_29"
  eltwise_param {
    operation: SUM
    coeff_blob: true
  }
}
layer {
  name: "RGB_lstm1_transform_30"
  type: "InnerProduct"
  bottom: "h_conted_29"
  top: "W_hc_h_29"
  param {
    name: "W_hc"
  }
  inner_product_param {
    num_output: 400
    bias_term: false
    weight_filler {
      type: "uniform"
      min: -0.01
      max: 0.01
    }
    axis: 2
  }
}
layer {
  name: "RGB_lstm1_gate_input_30"
  type: "Eltwise"
  bottom: "W_hc_h_29"
  bottom: "W_xc_x_30"
  top: "gate_input_30"
  eltwise_param {
    operation: SUM
  }
}
layer {
  name: "RGB_lstm1_unit_30"
  type: "LSTMUnit"
  bottom: "c_29"
  bottom: "gate_input_30"
  bottom: "cont_30"
  top: "c_30"
  top: "h_30"
}
layer {
  name: "RGB_lstm1_h_conted_30"
  type: "Eltwise"
  bottom: "h_30"
  bottom: "cont_31"
  top: "h_conted_30"
  eltwise_param {
    operation: SUM
    coeff_blob: true
  }
}
layer {
  name: "RGB_lstm1_transform_31"
  type: "InnerProduct"
  bottom: "h_conted_30"
  top: "W_hc_h_30"
  param {
    name: "W_hc"
  }
  inner_product_param {
    num_output: 400
    bias_term: false
    weight_filler {
      type: "uniform"
      min: -0.01
      max: 0.01
    }
    axis: 2
  }
}
layer {
  name: "RGB_lstm1_gate_input_31"
  type: "Eltwise"
  bottom: "W_hc_h_30"
  bottom: "W_xc_x_31"
  top: "gate_input_31"
  eltwise_param {
    operation: SUM
  }
}
layer {
  name: "RGB_lstm1_unit_31"
  type: "LSTMUnit"
  bottom: "c_30"
  bottom: "gate_input_31"
  bottom: "cont_31"
  top: "c_31"
  top: "h_31"
}
layer {
  name: "RGB_lstm1_h_conted_31"
  type: "Eltwise"
  bottom: "h_31"
  bottom: "cont_32"
  top: "h_conted_31"
  eltwise_param {
    operation: SUM
    coeff_blob: true
  }
}
layer {
  name: "RGB_lstm1_transform_32"
  type: "InnerProduct"
  bottom: "h_conted_31"
  top: "W_hc_h_31"
  param {
    name: "W_hc"
  }
  inner_product_param {
    num_output: 400
    bias_term: false
    weight_filler {
      type: "uniform"
      min: -0.01
      max: 0.01
    }
    axis: 2
  }
}
layer {
  name: "RGB_lstm1_gate_input_32"
  type: "Eltwise"
  bottom: "W_hc_h_31"
  bottom: "W_xc_x_32"
  top: "gate_input_32"
  eltwise_param {
    operation: SUM
  }
}
layer {
  name: "RGB_lstm1_unit_32"
  type: "LSTMUnit"
  bottom: "c_31"
  bottom: "gate_input_32"
  bottom: "cont_32"
  top: "c_32"
  top: "h_32"
}
layer {
  name: "RGB_lstm1_h_conted_32"
  type: "Eltwise"
  bottom: "h_32"
  bottom: "cont_33"
  top: "h_conted_32"
  eltwise_param {
    operation: SUM
    coeff_blob: true
  }
}
layer {
  name: "RGB_lstm1_transform_33"
  type: "InnerProduct"
  bottom: "h_conted_32"
  top: "W_hc_h_32"
  param {
    name: "W_hc"
  }
  inner_product_param {
    num_output: 400
    bias_term: false
    weight_filler {
      type: "uniform"
      min: -0.01
      max: 0.01
    }
    axis: 2
  }
}
layer {
  name: "RGB_lstm1_gate_input_33"
  type: "Eltwise"
  bottom: "W_hc_h_32"
  bottom: "W_xc_x_33"
  top: "gate_input_33"
  eltwise_param {
    operation: SUM
  }
}
layer {
  name: "RGB_lstm1_unit_33"
  type: "LSTMUnit"
  bottom: "c_32"
  bottom: "gate_input_33"
  bottom: "cont_33"
  top: "c_33"
  top: "h_33"
}
layer {
  name: "RGB_lstm1_h_conted_33"
  type: "Eltwise"
  bottom: "h_33"
  bottom: "cont_34"
  top: "h_conted_33"
  eltwise_param {
    operation: SUM
    coeff_blob: true
  }
}
layer {
  name: "RGB_lstm1_transform_34"
  type: "InnerProduct"
  bottom: "h_conted_33"
  top: "W_hc_h_33"
  param {
    name: "W_hc"
  }
  inner_product_param {
    num_output: 400
    bias_term: false
    weight_filler {
      type: "uniform"
      min: -0.01
      max: 0.01
    }
    axis: 2
  }
}
layer {
  name: "RGB_lstm1_gate_input_34"
  type: "Eltwise"
  bottom: "W_hc_h_33"
  bottom: "W_xc_x_34"
  top: "gate_input_34"
  eltwise_param {
    operation: SUM
  }
}
layer {
  name: "RGB_lstm1_unit_34"
  type: "LSTMUnit"
  bottom: "c_33"
  bottom: "gate_input_34"
  bottom: "cont_34"
  top: "c_34"
  top: "h_34"
}
layer {
  name: "RGB_lstm1_h_conted_34"
  type: "Eltwise"
  bottom: "h_34"
  bottom: "cont_35"
  top: "h_co
I0303 14:57:34.031281 28889 net.cpp:341] Input 0 -> x
I0303 14:57:34.031321 28889 net.cpp:341] Input 1 -> cont
I0303 14:57:34.031344 28889 net.cpp:341] Input 2 -> c_0
I0303 14:57:34.031364 28889 net.cpp:341] Input 3 -> h_0
I0303 14:57:34.031424 28889 layer_factory.hpp:74] Creating layer RGB_lstm1_cont_slice
I0303 14:57:34.031452 28889 net.cpp:84] Creating Layer RGB_lstm1_cont_slice
…
I0303 14:57:34.033025 28889 net.cpp:339] RGB_lstm1_cont_slice -> cont_48
I0303 14:57:34.033056 28889 net.cpp:339] RGB_lstm1_cont_slice -> cont_49
I0303 14:57:34.033087 28889 net.cpp:339] RGB_lstm1_cont_slice -> cont_50
I0303 14:57:34.033118 28889 net.cpp:339] RGB_lstm1_cont_slice -> cont_51
I0303 14:57:34.033149 28889 net.cpp:339] RGB_lstm1_cont_slice -> cont_52
I0303 14:57:34.033181 28889 net.cpp:339] RGB_lstm1_cont_slice -> cont_53
I0303 14:57:34.033226 28889 net.cpp:339] RGB_lstm1_cont_slice -> cont_54
I0303 14:57:34.033254 28889 net.cpp:113] Setting up RGB_lstm1_cont_slice
I0303 14:57:34.033303 28889 net.cpp:120] Top shape: 1 1 54 (54)
I0303 14:57:34.033324 28889 net.cpp:120] Top shape: 1 1 54 (54)
I0303 14:57:34.033342 28889 net.cpp:120] Top shape: 1 1 54 (54)
I0303 14:57:34.033360 28889 net.cpp:120] Top shape: 1 1 54 (54)
I0303 14:57:34.033377 28889 net.cpp:120] Top shape: 1 1 54 (54)
I0303 14:57:34.033395 28889 net.cpp:120] Top shape: 1 1 54 (54)
I0303 14:57:34.033412 28889 net.cpp:120] Top shape: 1 1 54 (54)
I0303 14:57:34.033432 28889 net.cpp:120] Top shape: 1 1 54 (54)
I0303 14:57:34.033452 28889 net.cpp:120] Top shape: 1 1 54 (54)
I0303 14:57:34.033470 28889 net.cpp:120] Top shape: 1 1 54 (54)
I0303 14:57:34.033489 28889 net.cpp:120] Top shape: 1 1 54 (54)
I0303 14:57:34.033509 28889 net.cpp:120] Top shape: 1 1 54 (54)
I0303 14:57:34.033529 28889 net.cpp:120] Top shape: 1 1 54 (54)
I0303 14:57:34.033546 28889 net.cpp:120] Top shape: 1 1 54 (54)
I0303 14:57:34.033565 28889 net.cpp:120] Top shape: 1 1 54 (54)
I0303 14:57:34.033584 28889 net.cpp:120] Top shape: 1 1 54 (54)
I0303 14:57:34.033603 28889 net.cpp:120] Top shape: 1 1 54 (54)
I0303 14:57:34.033622 28889 net.cpp:120] Top shape: 1 1 54 (54)
I0303 14:57:34.033643 28889 net.cpp:120] Top shape: 1 1 54 (54)
I0303 14:57:34.033661 28889 net.cpp:120] Top shape: 1 1 54 (54)
I0303 14:57:34.033680 28889 net.cpp:120] Top shape: 1 1 54 (54)
I0303 14:57:34.033699 28889 net.cpp:120] Top shape: 1 1 54 (54)
I0303 14:57:34.033717 28889 net.cpp:120] Top shape: 1 1 54 (54)
I0303 14:57:34.033736 28889 net.cpp:120] Top shape: 1 1 54 (54)
I0303 14:57:34.033754 28889 net.cpp:120] Top shape: 1 1 54 (54)
I0303 14:57:34.033773 28889 net.cpp:120] Top shape: 1 1 54 (54)
I0303 14:57:34.033792 28889 net.cpp:120] Top shape: 1 1 54 (54)
I0303 14:57:34.033812 28889 net.cpp:120] Top shape: 1 1 54 (54)
I0303 14:57:34.033829 28889 net.cpp:120] Top shape: 1 1 54 (54)
I0303 14:57:34.033849 28889 net.cpp:120] Top shape: 1 1 54 (54)
I0303 14:57:34.033867 28889 net.cpp:120] Top shape: 1 1 54 (54)
I0303 14:57:34.033886 28889 net.cpp:120] Top shape: 1 1 54 (54)
I0303 14:57:34.033905 28889 net.cpp:120] Top shape: 1 1 54 (54)
I0303 14:57:34.033942 28889 net.cpp:120] Top shape: 1 1 54 (54)
I0303 14:57:34.033963 28889 net.cpp:120] Top shape: 1 1 54 (54)
I0303 14:57:34.033982 28889 net.cpp:120] Top shape: 1 1 54 (54)
I0303 14:57:34.034003 28889 net.cpp:120] Top shape: 1 1 54 (54)
I0303 14:57:34.034023 28889 net.cpp:120] Top shape: 1 1 54 (54)
I0303 14:57:34.034041 28889 net.cpp:120] Top shape: 1 1 54 (54)
I0303 14:57:34.034060 28889 net.cpp:120] Top shape: 1 1 54 (54)
I0303 14:57:34.034080 28889 net.cpp:120] Top shape: 1 1 54 (54)
I0303 14:57:34.034097 28889 net.cpp:120] Top shape: 1 1 54 (54)
I0303 14:57:34.034116 28889 net.cpp:120] Top shape: 1 1 54 (54)
I0303 14:57:34.034137 28889 net.cpp:120] Top shape: 1 1 54 (54)
I0303 14:57:34.034155 28889 net.cpp:120] Top shape: 1 1 54 (54)
I0303 14:57:34.034173 28889 net.cpp:120] Top shape: 1 1 54 (54)
I0303 14:57:34.034198 28889 net.cpp:120] Top shape: 1 1 54 (54)
I0303 14:57:34.034217 28889 net.cpp:120] Top shape: 1 1 54 (54)
I0303 14:57:34.034236 28889 net.cpp:120] Top shape: 1 1 54 (54)
I0303 14:57:34.034255 28889 net.cpp:120] Top shape: 1 1 54 (54)
I0303 14:57:34.034274 28889 net.cpp:120] Top shape: 1 1 54 (54)
I0303 14:57:34.034293 28889 net.cpp:120] Top shape: 1 1 54 (54)
I0303 14:57:34.034312 28889 net.cpp:120] Top shape: 1 1 54 (54)
I0303 14:57:34.034330 28889 net.cpp:120] Top shape: 1 1 54 (54)
I0303 14:57:34.034348 28889 layer_factory.hpp:74] Creating layer cont_1_RGB_lstm1_cont_slice_0_split
I0303 14:57:34.034369 28889 net.cpp:84] Creating Layer cont_1_RGB_lstm1_cont_slice_0_split
I0303 14:57:34.034387 28889 net.cpp:381] cont_1_RGB_lstm1_cont_slice_0_split <- cont_1
I0303 14:57:34.034407 28889 net.cpp:339] cont_1_RGB_lstm1_cont_slice_0_split -> cont_1_RGB_lstm1_cont_slice_0_split_0
I0303 14:57:34.034430 28889 net.cpp:339] cont_1_RGB_lstm1_cont_slice_0_split -> cont_1_RGB_lstm1_cont_slice_0_split_1
I0303 14:57:34.034456 28889 net.cpp:113] Setting up cont_1_RGB_lstm1_cont_slice_0_split
I0303 14:57:34.034479 28889 net.cpp:120] Top shape: 1 1 54 (54)
I0303 14:57:34.034499 28889 net.cpp:120] Top shape: 1 1 54 (54)
I0303 14:57:34.034518 28889 layer_factory.hpp:74] Creating layer cont_2_RGB_lstm1_cont_slice_1_split
I0303 14:57:34.034538 28889 net.cpp:84] Creating Layer cont_2_RGB_lstm1_cont_slice_1_split
I0303 14:57:34.034556 28889 net.cpp:381] cont_2_RGB_lstm1_cont_slice_1_split <- cont_2
I0303 14:57:34.034576 28889 net.cpp:339] cont_2_RGB_lstm1_cont_slice_1_split -> cont_2_RGB_lstm1_cont_slice_1_split_0
I0303 14:57:34.034598 28889 net.cpp:339] cont_2_RGB_lstm1_cont_slice_1_split -> cont_2_RGB_lstm1_cont_slice_1_split_1
I0303 14:57:34.034621 28889 net.cpp:113] Setting up cont_2_RGB_lstm1_cont_slice_1_split
I0303 14:57:34.034646 28889 net.cpp:120] Top shape: 1 1 54 (54)
I0303 14:57:34.034667 28889 net.cpp:120] Top shape: 1 1 54 (54)
I0303 14:57:34.034685 28889 layer_factory.hpp:74] Creating layer cont_3_RGB_lstm1_cont_slice_2_split
I0303 14:57:34.034705 28889 net.cpp:84] Creating Layer cont_3_RGB_lstm1_cont_slice_2_split
I0303 14:57:34.034723 28889 net.cpp:381] cont_3_RGB_lstm1_cont_slice_2_split <- cont_3
I0303 14:57:34.034742 28889 net.cpp:339] cont_3_RGB_lstm1_cont_slice_2_split -> cont_3_RGB_lstm1_cont_slice_2_split_0
I0303 14:57:34.034765 28889 net.cpp:339] cont_3_RGB_lstm1_cont_slice_2_split -> cont_3_RGB_lstm1_cont_slice_2_split_1
I0303 14:57:34.034790 28889 net.cpp:113] Setting up cont_3_RGB_lstm1_cont_slice_2_split
I0303 14:57:34.034813 28889 net.cpp:120] Top shape: 1 1 54 (54)
I0303 14:57:34.034834 28889 net.cpp:120] Top shape: 1 1 54 (54)
I0303 14:57:34.034852 28889 layer_factory.hpp:74] Creating layer cont_4_RGB_lstm1_cont_slice_3_split
I0303 14:57:34.034873 28889 net.cpp:84] Creating Layer cont_4_RGB_lstm1_cont_slice_3_split
I0303 14:57:34.034893 28889 net.cpp:381] cont_4_RGB_lstm1_cont_slice_3_split <- cont_4
I0303 14:57:34.034914 28889 net.cpp:339] cont_4_RGB_lstm1_cont_slice_3_split -> cont_4_RGB_lstm1_cont_slice_3_split_0
I0303 14:57:34.034942 28889 net.cpp:339] cont_4_RGB_lstm1_cont_slice_3_split -> cont_4_RGB_lstm1_cont_slice_3_split_1
I0303 14:57:34.034967 28889 net.cpp:113] Setting up cont_4_RGB_lstm1_cont_slice_3_split
I0303 14:57:34.035013 28889 net.cpp:120] Top shape: 1 1 54 (54)
I0303 14:57:34.035035 28889 net.cpp:120] Top shape: 1 1 54 (54)
I0303 14:57:34.035053 28889 layer_factory.hpp:74] Creating layer cont_5_RGB_lstm1_cont_slice_4_split
I0303 14:57:34.035074 28889 net.cpp:84] Creating Layer cont_5_RGB_lstm1_cont_slice_4_split
I0303 14:57:34.035092 28889 net.cpp:381] cont_5_RGB_lstm1_cont_slice_4_split <- cont_5
I0303 14:57:34.035111 28889 net.cpp:339] cont_5_RGB_lstm1_cont_slice_4_split -> cont_5_RGB_lstm1_cont_slice_4_split_0
I0303 14:57:34.035135 28889 net.cpp:339] cont_5_RGB_lstm1_cont_slice_4_split -> cont_5_RGB_lstm1_cont_slice_4_split_1
I0303 14:57:34.035159 28889 net.cpp:113] Setting up cont_5_RGB_lstm1_cont_slice_4_split
I0303 14:57:34.035182 28889 net.cpp:120] Top shape: 1 1 54 (54)
I0303 14:57:34.035209 28889 net.cpp:120] Top shape: 1 1 54 (54)
I0303 14:57:34.035228 28889 layer_factory.hpp:74] Creating layer cont_6_RGB_lstm1_cont_slice_5_split
I0303 14:57:34.035248 28889 net.cpp:84] Creating Layer cont_6_RGB_lstm1_cont_slice_5_split
I0303 14:57:34.035266 28889 net.cpp:381] cont_6_RGB_lstm1_cont_slice_5_split <- cont_6
I0303 14:57:34.035289 28889 net.cpp:339] cont_6_RGB_lstm1_cont_slice_5_split -> cont_6_RGB_lstm1_cont_slice_5_split_0
I0303 14:57:34.035313 28889 net.cpp:339] cont_6_RGB_lstm1_cont_slice_5_split -> cont_6_RGB_lstm1_cont_slice_5_split_1
I0303 14:57:34.035338 28889 net.cpp:113] Setting up cont_6_RGB_lstm1_cont_slice_5_split
I0303 14:57:34.035367 28889 net.cpp:120] Top shape: 1 1 54 (54)
I0303 14:57:34.035387 28889 net.cpp:120] Top shape: 1 1 54 (54)
I0303 14:57:34.035404 28889 layer_factory.hpp:74] Creating layer cont_7_RGB_lstm1_cont_slice_6_split
I0303 14:57:34.035424 28889 net.cpp:84] Creating Layer cont_7_RGB_lstm1_cont_slice_6_split
I0303 14:57:34.035441 28889 net.cpp:381] cont_7_RGB_lstm1_cont_slice_6_split <- cont_7
I0303 14:57:34.035460 28889 net.cpp:339] cont_7_RGB_lstm1_cont_slice_6_split -> cont_7_RGB_lstm1_cont_slice_6_split_0
I0303 14:57:34.035485 28889 net.cpp:339] cont_7_RGB_lstm1_cont_slice_6_split -> cont_7_RGB_lstm1_cont_slice_6_split_1
I0303 14:57:34.035508 28889 net.cpp:113] Setting up cont_7_RGB_lstm1_cont_slice_6_split
I0303 14:57:34.035531 28889 net.cpp:120] Top shape: 1 1 54 (54)
I0303 14:57:34.035552 28889 net.cpp:120] Top shape: 1 1 54 (54)
I0303 14:57:34.035569 28889 layer_factory.hpp:74] Creating layer cont_8_RGB_lstm1_cont_slice_7_split
I0303 14:57:34.035591 28889 net.cpp:84] Creating Layer cont_8_RGB_lstm1_cont_slice_7_split
I0303 14:57:34.035609 28889 net.cpp:381] cont_8_RGB_lstm1_cont_slice_7_split <- cont_8
I0303 14:57:34.035632 28889 net.cpp:339] cont_8_RGB_lstm1_cont_slice_7_split -> cont_8_RGB_lstm1_cont_slice_7_split_0
I0303 14:57:34.035658 28889 net.cpp:339] cont_8_RGB_lstm1_cont_slice_7_split -> cont_8_RGB_lstm1_cont_slice_7_split_1
I0303 14:57:34.035682 28889 net.cpp:113] Setting up cont_8_RGB_lstm1_cont_slice_7_split
I0303 14:57:34.035706 28889 net.cpp:120] Top shape: 1 1 54 (54)
I0303 14:57:34.035727 28889 net.cpp:120] Top shape: 1 1 54 (54)
I0303 14:57:34.035744 28889 layer_factory.hpp:74] Creating layer cont_9_RGB_lstm1_cont_slice_8_split
I0303 14:57:34.035764 28889 net.cpp:84] Creating Layer cont_9_RGB_lstm1_cont_slice_8_split
I0303 14:57:34.035783 28889 net.cpp:381] cont_9_RGB_lstm1_cont_slice_8_split <- cont_9
I0303 14:57:34.035804 28889 net.cpp:339] cont_9_RGB_lstm1_cont_slice_8_split -> cont_9_RGB_lstm1_cont_slice_8_split_0
I0303 14:57:34.035826 28889 net.cpp:339] cont_9_RGB_lstm1_cont_slice_8_split -> cont_9_RGB_lstm1_cont_slice_8_split_1
I0303 14:57:34.035851 28889 net.cpp:113] Setting up cont_9_RGB_lstm1_cont_slice_8_split
I0303 14:57:34.035877 28889 net.cpp:120] Top shape: 1 1 54 (54)
I0303 14:57:34.035898 28889 net.cpp:120] Top shape: 1 1 54 (54)
I0303 14:57:34.035917 28889 layer_factory.hpp:74] Creating layer cont_10_RGB_lstm1_cont_slice_9_split
I0303 14:57:34.035936 28889 net.cpp:84] Creating Layer cont_10_RGB_lstm1_cont_slice_9_split
I0303 14:57:34.035953 28889 net.cpp:381] cont_10_RGB_lstm1_cont_slice_9_split <- cont_10
I0303 14:57:34.035994 28889 net.cpp:339] cont_10_RGB_lstm1_cont_slice_9_split -> cont_10_RGB_lstm1_cont_slice_9_split_0
I0303 14:57:34.036027 28889 net.cpp:339] cont_10_RGB_lstm1_cont_slice_9_split -> cont_10_RGB_lstm1_cont_slice_9_split_1
I0303 14:57:34.036053 28889 net.cpp:113] Setting up cont_10_RGB_lstm1_cont_slice_9_split
I0303 14:57:34.036078 28889 net.cpp:120] Top shape: 1 1 54 (54)
I0303 14:57:34.036099 28889 net.cpp:120] Top shape: 1 1 54 (54)
I0303 14:57:34.036116 28889 layer_factory.hpp:74] Creating layer cont_11_RGB_lstm1_cont_slice_10_split
I0303 14:57:34.036136 28889 net.cpp:84] Creating Layer cont_11_RGB_lstm1_cont_slice_10_split
I0303 14:57:34.036152 28889 net.cpp:381] cont_11_RGB_lstm1_cont_slice_10_split <- cont_11
I0303 14:57:34.036171 28889 net.cpp:339] cont_11_RGB_lstm1_cont_slice_10_split -> cont_11_RGB_lstm1_cont_slice_10_split_0
I0303 14:57:34.036198 28889 net.cpp:339] cont_11_RGB_lstm1_cont_slice_10_split -> cont_11_RGB_lstm1_cont_slice_10_split_1
I0303 14:57:34.036222 28889 net.cpp:113] Setting up cont_11_RGB_lstm1_cont_slice_10_split
I0303 14:57:34.036247 28889 net.cpp:120] Top shape: 1 1 54 (54)
I0303 14:57:34.036267 28889 net.cpp:120] Top shape: 1 1 54 (54)
I0303 14:57:34.036284 28889 layer_factory.hpp:74] Creating layer cont_12_RGB_lstm1_cont_slice_11_split
I0303 14:57:34.036308 28889 net.cpp:84] Creating Layer cont_12_RGB_lstm1_cont_slice_11_split
I0303 14:57:34.036326 28889 net.cpp:381] cont_12_RGB_lstm1_cont_slice_11_split <- cont_12
I0303 14:57:34.036346 28889 net.cpp:339] cont_12_RGB_lstm1_cont_slice_11_split -> cont_12_RGB_lstm1_cont_slice_11_split_0
I0303 14:57:34.036368 28889 net.cpp:339] cont_12_RGB_lstm1_cont_slice_11_split -> cont_12_RGB_lstm1_cont_slice_11_split_1
I0303 14:57:34.036392 28889 net.cpp:113] Setting up cont_12_RGB_lstm1_cont_slice_11_split
I0303 14:57:34.036419 28889 net.cpp:120] Top shape: 1 1 54 (54)
I0303 14:57:34.036442 28889 net.cpp:120] Top shape: 1 1 54 (54)
I0303 14:57:34.036459 28889 layer_factory.hpp:74] Creating layer cont_13_RGB_lstm1_cont_slice_12_split
I0303 14:57:34.036481 28889 net.cpp:84] Creating Layer cont_13_RGB_lstm1_cont_slice_12_split
I0303 14:57:34.036499 28889 net.cpp:381] cont_13_RGB_lstm1_cont_slice_12_split <- cont_13
I0303 14:57:34.036517 28889 net.cpp:339] cont_13_RGB_lstm1_cont_slice_12_split -> cont_13_RGB_lstm1_cont_slice_12_split_0
I0303 14:57:34.036541 28889 net.cpp:339] cont_13_RGB_lstm1_cont_slice_12_split -> cont_13_RGB_lstm1_cont_slice_12_split_1
I0303 14:57:34.036564 28889 net.cpp:113] Setting up cont_13_RGB_lstm1_cont_slice_12_split
I0303 14:57:34.036587 28889 net.cpp:120] Top shape: 1 1 54 (54)
I0303 14:57:34.036608 28889 net.cpp:120] Top shape: 1 1 54 (54)
I0303 14:57:34.036625 28889 layer_factory.hpp:74] Creating layer cont_14_RGB_lstm1_cont_slice_13_split
I0303 14:57:34.036648 28889 net.cpp:84] Creating Layer cont_14_RGB_lstm1_cont_slice_13_split
I0303 14:57:34.036669 28889 net.cpp:381] cont_14_RGB_lstm1_cont_slice_13_split <- cont_14
I0303 14:57:34.036689 28889 net.cpp:339] cont_14_RGB_lstm1_cont_slice_13_split -> cont_14_RGB_lstm1_cont_slice_13_split_0
I0303 14:57:34.036711 28889 net.cpp:339] cont_14_RGB_lstm1_cont_slice_13_split -> cont_14_RGB_lstm1_cont_slice_13_split_1
I0303 14:57:34.036733 28889 net.cpp:113] Setting up cont_14_RGB_lstm1_cont_slice_13_split
I0303 14:57:34.036761 28889 net.cpp:120] Top shape: 1 1 54 (54)
I0303 14:57:34.036782 28889 net.cpp:120] Top shape: 1 1 54 (54)
I0303 14:57:34.036799 28889 layer_factory.hpp:74] Creating layer cont_15_RGB_lstm1_cont_slice_14_split
I0303 14:57:34.036818 28889 net.cpp:84] Creating Layer cont_15_RGB_lstm1_cont_slice_14_split
I0303 14:57:34.036835 28889 net.cpp:381] cont_15_RGB_lstm1_cont_slice_14_split <- cont_15
I0303 14:57:34.036854 28889 net.cpp:339] cont_15_RGB_lstm1_cont_slice_14_split -> cont_15_RGB_lstm1_cont_slice_14_split_0
I0303 14:57:34.036877 28889 net.cpp:339] cont_15_RGB_lstm1_cont_slice_14_split -> cont_15_RGB_lstm1_cont_slice_14_split_1
I0303 14:57:34.036900 28889 net.cpp:113] Setting up cont_15_RGB_lstm1_cont_slice_14_split
I0303 14:57:34.036924 28889 net.cpp:120] Top shape: 1 1 54 (54)
I0303 14:57:34.036967 28889 net.cpp:120] Top shape: 1 1 54 (54)
I0303 14:57:34.036988 28889 layer_factory.hpp:74] Creating layer cont_16_RGB_lstm1_cont_slice_15_split
I0303 14:57:34.037012 28889 net.cpp:84] Creating Layer cont_16_RGB_lstm1_cont_slice_15_split
I0303 14:57:34.037032 28889 net.cpp:381] cont_16_RGB_lstm1_cont_slice_15_split <- cont_16
I0303 14:57:34.037052 28889 net.cpp:339] cont_16_RGB_lstm1_cont_slice_15_split -> cont_16_RGB_lstm1_cont_slice_15_split_0
I0303 14:57:34.037076 28889 net.cpp:339] cont_16_RGB_lstm1_cont_slice_15_split -> cont_16_RGB_lstm1_cont_slice_15_split_1
I0303 14:57:34.037099 28889 net.cpp:113] Setting up cont_16_RGB_lstm1_cont_slice_15_split
I0303 14:57:34.037127 28889 net.cpp:120] Top shape: 1 1 54 (54)
I0303 14:57:34.037147 28889 net.cpp:120] Top shape: 1 1 54 (54)
I0303 14:57:34.037164 28889 layer_factory.hpp:74] Creating layer cont_17_RGB_lstm1_cont_slice_16_split
I0303 14:57:34.037189 28889 net.cpp:84] Creating Layer cont_17_RGB_lstm1_cont_slice_16_split
I0303 14:57:34.037209 28889 net.cpp:381] cont_17_RGB_lstm1_cont_slice_16_split <- cont_17
I0303 14:57:34.037228 28889 net.cpp:339] cont_17_RGB_lstm1_cont_slice_16_split -> cont_17_RGB_lstm1_cont_slice_16_split_0
I0303 14:57:34.037252 28889 net.cpp:339] cont_17_RGB_lstm1_cont_slice_16_split -> cont_17_RGB_lstm1_cont_slice_16_split_1
I0303 14:57:34.037274 28889 net.cpp:113] Setting up cont_17_RGB_lstm1_cont_slice_16_split
I0303 14:57:34.037297 28889 net.cpp:120] Top shape: 1 1 54 (54)
I0303 14:57:34.037317 28889 net.cpp:120] Top shape: 1 1 54 (54)
I0303 14:57:34.037333 28889 layer_factory.hpp:74] Creating layer cont_18_RGB_lstm1_cont_slice_17_split
I0303 14:57:34.037356 28889 net.cpp:84] Creating Layer cont_18_RGB_lstm1_cont_slice_17_split
I0303 14:57:34.037375 28889 net.cpp:381] cont_18_RGB_lstm1_cont_slice_17_split <- cont_18
I0303 14:57:34.037395 28889 net.cpp:339] cont_18_RGB_lstm1_cont_slice_17_split -> cont_18_RGB_lstm1_cont_slice_17_split_0
I0303 14:57:34.037417 28889 net.cpp:339] cont_18_RGB_lstm1_cont_slice_17_split -> cont_18_RGB_lstm1_cont_slice_17_split_1
I0303 14:57:34.037441 28889 net.cpp:113] Setting up cont_18_RGB_lstm1_cont_slice_17_split
I0303 14:57:34.037468 28889 net.cpp:120] Top shape: 1 1 54 (54)
I0303 14:57:34.037489 28889 net.cpp:120] Top shape: 1 1 54 (54)
I0303 14:57:34.037508 28889 layer_factory.hpp:74] Creating layer cont_19_RGB_lstm1_cont_slice_18_split
I0303 14:57:34.037528 28889 net.cpp:84] Creating Layer cont_19_RGB_lstm1_cont_slice_18_split
I0303 14:57:34.037545 28889 net.cpp:381] cont_19_RGB_lstm1_cont_slice_18_split <- cont_19
I0303 14:57:34.037564 28889 net.cpp:339] cont_19_RGB_lstm1_cont_slice_18_split -> cont_19_RGB_lstm1_cont_slice_18_split_0
I0303 14:57:34.037595 28889 net.cpp:339] cont_19_RGB_lstm1_cont_slice_18_split -> cont_19_RGB_lstm1_cont_slice_18_split_1
I0303 14:57:34.037616 28889 net.cpp:113] Setting up cont_19_RGB_lstm1_cont_slice_18_split
I0303 14:57:34.037641 28889 net.cpp:120] Top shape: 1 1 54 (54)
I0303 14:57:34.037660 28889 net.cpp:120] Top shape: 1 1 54 (54)
I0303 14:57:34.037678 28889 layer_factory.hpp:74] Creating layer cont_20_RGB_lstm1_cont_slice_19_split
I0303 14:57:34.037698 28889 net.cpp:84] Creating Layer cont_20_RGB_lstm1_cont_slice_19_split
I0303 14:57:34.037714 28889 net.cpp:381] cont_20_RGB_lstm1_cont_slice_19_split <- cont_20
I0303 14:57:34.037737 28889 net.cpp:339] cont_20_RGB_lstm1_cont_slice_19_split -> cont_20_RGB_lstm1_cont_slice_19_split_0
I0303 14:57:34.037761 28889 net.cpp:339] cont_20_RGB_lstm1_cont_slice_19_split -> cont_20_RGB_lstm1_cont_slice_19_split_1
I0303 14:57:34.037786 28889 net.cpp:113] Setting up cont_20_RGB_lstm1_cont_slice_19_split
I0303 14:57:34.037809 28889 net.cpp:120] Top shape: 1 1 54 (54)
I0303 14:57:34.037830 28889 net.cpp:120] Top shape: 1 1 54 (54)
I0303 14:57:34.037848 28889 layer_factory.hpp:74] Creating layer cont_21_RGB_lstm1_cont_slice_20_split
I0303 14:57:34.037868 28889 net.cpp:84] Creating Layer cont_21_RGB_lstm1_cont_slice_20_split
I0303 14:57:34.037886 28889 net.cpp:381] cont_21_RGB_lstm1_cont_slice_20_split <- cont_21
I0303 14:57:34.037936 28889 net.cpp:339] cont_21_RGB_lstm1_cont_slice_20_split -> cont_21_RGB_lstm1_cont_slice_20_split_0
I0303 14:57:34.037962 28889 net.cpp:339] cont_21_RGB_lstm1_cont_slice_20_split -> cont_21_RGB_lstm1_cont_slice_20_split_1
I0303 14:57:34.037984 28889 net.cpp:113] Setting up cont_21_RGB_lstm1_cont_slice_20_split
I0303 14:57:34.038008 28889 net.cpp:120] Top shape: 1 1 54 (54)
I0303 14:57:34.038029 28889 net.cpp:120] Top shape: 1 1 54 (54)
I0303 14:57:34.038048 28889 layer_factory.hpp:74] Creating layer cont_22_RGB_lstm1_cont_slice_21_split
I0303 14:57:34.038066 28889 net.cpp:84] Creating Layer cont_22_RGB_lstm1_cont_slice_21_split
I0303 14:57:34.038084 28889 net.cpp:381] cont_22_RGB_lstm1_cont_slice_21_split <- cont_22
I0303 14:57:34.038110 28889 net.cpp:339] cont_22_RGB_lstm1_cont_slice_21_split -> cont_22_RGB_lstm1_cont_slice_21_split_0
I0303 14:57:34.038136 28889 net.cpp:339] cont_22_RGB_lstm1_cont_slice_21_split -> cont_22_RGB_lstm1_cont_slice_21_split_1
I0303 14:57:34.038158 28889 net.cpp:113] Setting up cont_22_RGB_lstm1_cont_slice_21_split
I0303 14:57:34.038182 28889 net.cpp:120] Top shape: 1 1 54 (54)
I0303 14:57:34.038208 28889 net.cpp:120] Top shape: 1 1 54 (54)
I0303 14:57:34.038225 28889 layer_factory.hpp:74] Creating layer cont_23_RGB_lstm1_cont_slice_22_split
I0303 14:57:34.038245 28889 net.cpp:84] Creating Layer cont_23_RGB_lstm1_cont_slice_22_split
I0303 14:57:34.038269 28889 net.cpp:381] cont_23_RGB_lstm1_cont_slice_22_split <- cont_23
I0303 14:57:34.038291 28889 net.cpp:339] cont_23_RGB_lstm1_cont_slice_22_split -> cont_23_RGB_lstm1_cont_slice_22_split_0
I0303 14:57:34.038314 28889 net.cpp:339] cont_23_RGB_lstm1_cont_slice_22_split -> cont_23_RGB_lstm1_cont_slice_22_split_1
I0303 14:57:34.038336 28889 net.cpp:113] Setting up cont_23_RGB_lstm1_cont_slice_22_split
I0303 14:57:34.038359 28889 net.cpp:120] Top shape: 1 1 54 (54)
I0303 14:57:34.038381 28889 net.cpp:120] Top shape: 1 1 54 (54)
I0303 14:57:34.038399 28889 layer_factory.hpp:74] Creating layer cont_24_RGB_lstm1_cont_slice_23_split
I0303 14:57:34.038419 28889 net.cpp:84] Creating Layer cont_24_RGB_lstm1_cont_slice_23_split
I0303 14:57:34.038439 28889 net.cpp:381] cont_24_RGB_lstm1_cont_slice_23_split <- cont_24
I0303 14:57:34.038458 28889 net.cpp:339] cont_24_RGB_lstm1_cont_slice_23_split -> cont_24_RGB_lstm1_cont_slice_23_split_0
I0303 14:57:34.038480 28889 net.cpp:339] cont_24_RGB_lstm1_cont_slice_23_split -> cont_24_RGB_lstm1_cont_slice_23_split_1
I0303 14:57:34.038498 28889 net.cpp:113] Setting up cont_24_RGB_lstm1_cont_slice_23_split
I0303 14:57:34.038516 28889 net.cpp:120] Top shape: 1 1 54 (54)
I0303 14:57:34.038530 28889 net.cpp:120] Top shape: 1 1 54 (54)
I0303 14:57:34.038543 28889 layer_factory.hpp:74] Creating layer cont_25_RGB_lstm1_cont_slice_24_split
I0303 14:57:34.038558 28889 net.cpp:84] Creating Layer cont_25_RGB_lstm1_cont_slice_24_split
I0303 14:57:34.038570 28889 net.cpp:381] cont_25_RGB_lstm1_cont_slice_24_split <- cont_25
I0303 14:57:34.038585 28889 net.cpp:339] cont_25_RGB_lstm1_cont_slice_24_split -> cont_25_RGB_lstm1_cont_slice_24_split_0
I0303 14:57:34.038604 28889 net.cpp:339] cont_25_RGB_lstm1_cont_slice_24_split -> cont_25_RGB_lstm1_cont_slice_24_split_1
I0303 14:57:34.038625 28889 net.cpp:113] Setting up cont_25_RGB_lstm1_cont_slice_24_split
I0303 14:57:34.038645 28889 net.cpp:120] Top shape: 1 1 54 (54)
I0303 14:57:34.038661 28889 net.cpp:120] Top shape: 1 1 54 (54)
I0303 14:57:34.038676 28889 layer_factory.hpp:74] Creating layer cont_26_RGB_lstm1_cont_slice_25_split
I0303 14:57:34.038693 28889 net.cpp:84] Creating Layer cont_26_RGB_lstm1_cont_slice_25_split
I0303 14:57:34.038709 28889 net.cpp:381] cont_26_RGB_lstm1_cont_slice_25_split <- cont_26
I0303 14:57:34.038727 28889 net.cpp:339] cont_26_RGB_lstm1_cont_slice_25_split -> cont_26_RGB_lstm1_cont_slice_25_split_0
I0303 14:57:34.038748 28889 net.cpp:339] cont_26_RGB_lstm1_cont_slice_25_split -> cont_26_RGB_lstm1_cont_slice_25_split_1
I0303 14:57:34.038769 28889 net.cpp:113] Setting up cont_26_RGB_lstm1_cont_slice_25_split
I0303 14:57:34.038811 28889 net.cpp:120] Top shape: 1 1 54 (54)
I0303 14:57:34.038832 28889 net.cpp:120] Top shape: 1 1 54 (54)
I0303 14:57:34.038851 28889 layer_factory.hpp:74] Creating layer cont_27_RGB_lstm1_cont_slice_26_split
I0303 14:57:34.038877 28889 net.cpp:84] Creating Layer cont_27_RGB_lstm1_cont_slice_26_split
I0303 14:57:34.038895 28889 net.cpp:381] cont_27_RGB_lstm1_cont_slice_26_split <- cont_27
I0303 14:57:34.038915 28889 net.cpp:339] cont_27_RGB_lstm1_cont_slice_26_split -> cont_27_RGB_lstm1_cont_slice_26_split_0
I0303 14:57:34.038940 28889 net.cpp:339] cont_27_RGB_lstm1_cont_slice_26_split -> cont_27_RGB_lstm1_cont_slice_26_split_1
I0303 14:57:34.038964 28889 net.cpp:113] Setting up cont_27_RGB_lstm1_cont_slice_26_split
I0303 14:57:34.038985 28889 net.cpp:120] Top shape: 1 1 54 (54)
I0303 14:57:34.039005 28889 net.cpp:120] Top shape: 1 1 54 (54)
I0303 14:57:34.039022 28889 layer_factory.hpp:74] Creating layer cont_28_RGB_lstm1_cont_slice_27_split
I0303 14:57:34.039042 28889 net.cpp:84] Creating Layer cont_28_RGB_lstm1_cont_slice_27_split
I0303 14:57:34.039059 28889 net.cpp:381] cont_28_RGB_lstm1_cont_slice_27_split <- cont_28
I0303 14:57:34.039078 28889 net.cpp:339] cont_28_RGB_lstm1_cont_slice_27_split -> cont_28_RGB_lstm1_cont_slice_27_split_0
I0303 14:57:34.039100 28889 net.cpp:339] cont_28_RGB_lstm1_cont_slice_27_split -> cont_28_RGB_lstm1_cont_slice_27_split_1
I0303 14:57:34.039121 28889 net.cpp:113] Setting up cont_28_RGB_lstm1_cont_slice_27_split
I0303 14:57:34.039142 28889 net.cpp:120] Top shape: 1 1 54 (54)
I0303 14:57:34.039161 28889 net.cpp:120] Top shape: 1 1 54 (54)
I0303 14:57:34.039178 28889 layer_factory.hpp:74] Creating layer cont_29_RGB_lstm1_cont_slice_28_split
I0303 14:57:34.039206 28889 net.cpp:84] Creating Layer cont_29_RGB_lstm1_cont_slice_28_split
I0303 14:57:34.039227 28889 net.cpp:381] cont_29_RGB_lstm1_cont_slice_28_split <- cont_29
I0303 14:57:34.039247 28889 net.cpp:339] cont_29_RGB_lstm1_cont_slice_28_split -> cont_29_RGB_lstm1_cont_slice_28_split_0
I0303 14:57:34.039268 28889 net.cpp:339] cont_29_RGB_lstm1_cont_slice_28_split -> cont_29_RGB_lstm1_cont_slice_28_split_1
I0303 14:57:34.039289 28889 net.cpp:113] Setting up cont_29_RGB_lstm1_cont_slice_28_split
I0303 14:57:34.039310 28889 net.cpp:120] Top shape: 1 1 54 (54)
I0303 14:57:34.039329 28889 net.cpp:120] Top shape: 1 1 54 (54)
I0303 14:57:34.039345 28889 layer_factory.hpp:74] Creating layer cont_30_RGB_lstm1_cont_slice_29_split
I0303 14:57:34.039361 28889 net.cpp:84] Creating Layer cont_30_RGB_lstm1_cont_slice_29_split
I0303 14:57:34.039377 28889 net.cpp:381] cont_30_RGB_lstm1_cont_slice_29_split <- cont_30
I0303 14:57:34.039396 28889 net.cpp:339] cont_30_RGB_lstm1_cont_slice_29_split -> cont_30_RGB_lstm1_cont_slice_29_split_0
I0303 14:57:34.039417 28889 net.cpp:339] cont_30_RGB_lstm1_cont_slice_29_split -> cont_30_RGB_lstm1_cont_slice_29_split_1
I0303 14:57:34.039438 28889 net.cpp:113] Setting up cont_30_RGB_lstm1_cont_slice_29_split
I0303 14:57:34.039459 28889 net.cpp:120] Top shape: 1 1 54 (54)
I0303 14:57:34.039479 28889 net.cpp:120] Top shape: 1 1 54 (54)
I0303 14:57:34.039496 28889 layer_factory.hpp:74] Creating layer cont_31_RGB_lstm1_cont_slice_30_split
I0303 14:57:34.039515 28889 net.cpp:84] Creating Layer cont_31_RGB_lstm1_cont_slice_30_split
I0303 14:57:34.039533 28889 net.cpp:381] cont_31_RGB_lstm1_cont_slice_30_split <- cont_31
I0303 14:57:34.039556 28889 net.cpp:339] cont_31_RGB_lstm1_cont_slice_30_split -> cont_31_RGB_lstm1_cont_slice_30_split_0
I0303 14:57:34.039582 28889 net.cpp:339] cont_31_RGB_lstm1_cont_slice_30_split -> cont_31_RGB_lstm1_cont_slice_30_split_1
I0303 14:57:34.039603 28889 net.cpp:113] Setting up cont_31_RGB_lstm1_cont_slice_30_split
I0303 14:57:34.039624 28889 net.cpp:120] Top shape: 1 1 54 (54)
I0303 14:57:34.039644 28889 net.cpp:120] Top shape: 1 1 54 (54)
I0303 14:57:34.039662 28889 layer_factory.hpp:74] Creating layer cont_32_RGB_lstm1_cont_slice_31_split
I0303 14:57:34.039685 28889 net.cpp:84] Creating Layer cont_32_RGB_lstm1_cont_slice_31_split
I0303 14:57:34.039723 28889 net.cpp:381] cont_32_RGB_lstm1_cont_slice_31_split <- cont_32
I0303 14:57:34.039746 28889 net.cpp:339] cont_32_RGB_lstm1_cont_slice_31_split -> cont_32_RGB_lstm1_cont_slice_31_split_0
I0303 14:57:34.039770 28889 net.cpp:339] cont_32_RGB_lstm1_cont_slice_31_split -> cont_32_RGB_lstm1_cont_slice_31_split_1
I0303 14:57:34.039793 28889 net.cpp:113] Setting up cont_32_RGB_lstm1_cont_slice_31_split
I0303 14:57:34.039816 28889 net.cpp:120] Top shape: 1 1 54 (54)
I0303 14:57:34.039837 28889 net.cpp:120] Top shape: 1 1 54 (54)
I0303 14:57:34.039856 28889 layer_factory.hpp:74] Creating layer cont_33_RGB_lstm1_cont_slice_32_split
I0303 14:57:34.039880 28889 net.cpp:84] Creating Layer cont_33_RGB_lstm1_cont_slice_32_split
I0303 14:57:34.039898 28889 net.cpp:381] cont_33_RGB_lstm1_cont_slice_32_split <- cont_33
I0303 14:57:34.039918 28889 net.cpp:339] cont_33_RGB_lstm1_cont_slice_32_split -> cont_33_RGB_lstm1_cont_slice_32_split_0
I0303 14:57:34.039942 28889 net.cpp:339] cont_33_RGB_lstm1_cont_slice_32_split -> cont_33_RGB_lstm1_cont_slice_32_split_1
I0303 14:57:34.039965 28889 net.cpp:113] Setting up cont_33_RGB_lstm1_cont_slice_32_split
I0303 14:57:34.039988 28889 net.cpp:120] Top shape: 1 1 54 (54)
I0303 14:57:34.040009 28889 net.cpp:120] Top shape: 1 1 54 (54)
I0303 14:57:34.040027 28889 layer_factory.hpp:74] Creating layer cont_34_RGB_lstm1_cont_slice_33_split
I0303 14:57:34.040046 28889 net.cpp:84] Creating Layer cont_34_RGB_lstm1_cont_slice_33_split
I0303 14:57:34.040063 28889 net.cpp:381] cont_34_RGB_lstm1_cont_slice_33_split <- cont_34
I0303 14:57:34.040082 28889 net.cpp:339] cont_34_RGB_lstm1_cont_slice_33_split -> cont_34_RGB_lstm1_cont_slice_33_split_0
I0303 14:57:34.040109 28889 net.cpp:339] cont_34_RGB_lstm1_cont_slice_33_split -> cont_34_RGB_lstm1_cont_slice_33_split_1
I0303 14:57:34.040132 28889 net.cpp:113] Setting up cont_34_RGB_lstm1_cont_slice_33_split
I0303 14:57:34.040154 28889 net.cpp:120] Top shape: 1 1 54 (54)
I0303 14:57:34.040174 28889 net.cpp:120] Top shape: 1 1 54 (54)
I0303 14:57:34.040196 28889 layer_factory.hpp:74] Creating layer cont_35_RGB_lstm1_cont_slice_34_split
I0303 14:57:34.040215 28889 net.cpp:84] Creating Layer cont_35_RGB_lstm1_cont_slice_34_split
I0303 14:57:34.040231 28889 net.cpp:381] cont_35_RGB_lstm1_cont_slice_34_split <- cont_35
I0303 14:57:34.040254 28889 net.cpp:339] cont_35_RGB_lstm1_cont_slice_34_split -> cont_35_RGB_lstm1_cont_slice_34_split_0
I0303 14:57:34.040279 28889 net.cpp:339] cont_35_RGB_lstm1_cont_slice_34_split -> cont_35_RGB_lstm1_cont_slice_34_split_1
I0303 14:57:34.040302 28889 net.cpp:113] Setting up cont_35_RGB_lstm1_cont_slice_34_split
I0303 14:57:34.040325 28889 net.cpp:120] Top shape: 1 1 54 (54)
I0303 14:57:34.040345 28889 net.cpp:120] Top shape: 1 1 54 (54)
I0303 14:57:34.040364 28889 layer_factory.hpp:74] Creating layer cont_36_RGB_lstm1_cont_slice_35_split
I0303 14:57:34.040383 28889 net.cpp:84] Creating Layer cont_36_RGB_lstm1_cont_slice_35_split
I0303 14:57:34.040400 28889 net.cpp:381] cont_36_RGB_lstm1_cont_slice_35_split <- cont_36
I0303 14:57:34.040419 28889 net.cpp:339] cont_36_RGB_lstm1_cont_slice_35_split -> cont_36_RGB_lstm1_cont_slice_35_split_0
I0303 14:57:34.040457 28889 net.cpp:339] cont_36_RGB_lstm1_cont_slice_35_split -> cont_36_RGB_lstm1_cont_slice_35_split_1
I0303 14:57:34.040480 28889 net.cpp:113] Setting up cont_36_RGB_lstm1_cont_slice_35_split
I0303 14:57:34.040505 28889 net.cpp:120] Top shape: 1 1 54 (54)
I0303 14:57:34.040526 28889 net.cpp:120] Top shape: 1 1 54 (54)
I0303 14:57:34.040545 28889 layer_factory.hpp:74] Creating layer cont_37_RGB_lstm1_cont_slice_36_split
I0303 14:57:34.040565 28889 net.cpp:84] Creating Layer cont_37_RGB_lstm1_cont_slice_36_split
I0303 14:57:34.040585 28889 net.cpp:381] cont_37_RGB_lstm1_cont_slice_36_split <- cont_37
I0303 14:57:34.040604 28889 net.cpp:339] cont_37_RGB_lstm1_cont_slice_36_split -> cont_37_RGB_lstm1_cont_slice_36_split_0
I0303 14:57:34.040627 28889 net.cpp:339] cont_37_RGB_lstm1_cont_slice_36_split -> cont_37_RGB_lstm1_cont_slice_36_split_1
I0303 14:57:34.040650 28889 net.cpp:113] Setting up cont_37_RGB_lstm1_cont_slice_36_split
I0303 14:57:34.040691 28889 net.cpp:120] Top shape: 1 1 54 (54)
I0303 14:57:34.040714 28889 net.cpp:120] Top shape: 1 1 54 (54)
I0303 14:57:34.040732 28889 layer_factory.hpp:74] Creating layer cont_38_RGB_lstm1_cont_slice_37_split
I0303 14:57:34.040756 28889 net.cpp:84] Creating Layer cont_38_RGB_lstm1_cont_slice_37_split
I0303 14:57:34.040776 28889 net.cpp:381] cont_38_RGB_lstm1_cont_slice_37_split <- cont_38
I0303 14:57:34.040797 28889 net.cpp:339] cont_38_RGB_lstm1_cont_slice_37_split -> cont_38_RGB_lstm1_cont_slice_37_split_0
I0303 14:57:34.040820 28889 net.cpp:339] cont_38_RGB_lstm1_cont_slice_37_split -> cont_38_RGB_lstm1_cont_slice_37_split_1
I0303 14:57:34.040843 28889 net.cpp:113] Setting up cont_38_RGB_lstm1_cont_slice_37_split
I0303 14:57:34.040866 28889 net.cpp:120] Top shape: 1 1 54 (54)
I0303 14:57:34.040886 28889 net.cpp:120] Top shape: 1 1 54 (54)
I0303 14:57:34.040904 28889 layer_factory.hpp:74] Creating layer cont_39_RGB_lstm1_cont_slice_38_split
I0303 14:57:34.040925 28889 net.cpp:84] Creating Layer cont_39_RGB_lstm1_cont_slice_38_split
I0303 14:57:34.040942 28889 net.cpp:381] cont_39_RGB_lstm1_cont_slice_38_split <- cont_39
I0303 14:57:34.040962 28889 net.cpp:339] cont_39_RGB_lstm1_cont_slice_38_split -> cont_39_RGB_lstm1_cont_slice_38_split_0
I0303 14:57:34.040985 28889 net.cpp:339] cont_39_RGB_lstm1_cont_slice_38_split -> cont_39_RGB_lstm1_cont_slice_38_split_1
I0303 14:57:34.041009 28889 net.cpp:113] Setting up cont_39_RGB_lstm1_cont_slice_38_split
I0303 14:57:34.041036 28889 net.cpp:120] Top shape: 1 1 54 (54)
I0303 14:57:34.041057 28889 net.cpp:120] Top shape: 1 1 54 (54)
I0303 14:57:34.041075 28889 layer_factory.hpp:74] Creating layer cont_40_RGB_lstm1_cont_slice_39_split
I0303 14:57:34.041098 28889 net.cpp:84] Creating Layer cont_40_RGB_lstm1_cont_slice_39_split
I0303 14:57:34.041116 28889 net.cpp:381] cont_40_RGB_lstm1_cont_slice_39_split <- cont_40
I0303 14:57:34.041136 28889 net.cpp:339] cont_40_RGB_lstm1_cont_slice_39_split -> cont_40_RGB_lstm1_cont_slice_39_split_0
I0303 14:57:34.041159 28889 net.cpp:339] cont_40_RGB_lstm1_cont_slice_39_split -> cont_40_RGB_lstm1_cont_slice_39_split_1
I0303 14:57:34.041182 28889 net.cpp:113] Setting up cont_40_RGB_lstm1_cont_slice_39_split
I0303 14:57:34.041218 28889 net.cpp:120] Top shape: 1 1 54 (54)
I0303 14:57:34.041239 28889 net.cpp:120] Top shape: 1 1 54 (54)
I0303 14:57:34.041256 28889 layer_factory.hpp:74] Creating layer cont_41_RGB_lstm1_cont_slice_40_split
I0303 14:57:34.041277 28889 net.cpp:84] Creating Layer cont_41_RGB_lstm1_cont_slice_40_split
I0303 14:57:34.041296 28889 net.cpp:381] cont_41_RGB_lstm1_cont_slice_40_split <- cont_41
I0303 14:57:34.041316 28889 net.cpp:339] cont_41_RGB_lstm1_cont_slice_40_split -> cont_41_RGB_lstm1_cont_slice_40_split_0
I0303 14:57:34.041337 28889 net.cpp:339] cont_41_RGB_lstm1_cont_slice_40_split -> cont_41_RGB_lstm1_cont_slice_40_split_1
I0303 14:57:34.041358 28889 net.cpp:113] Setting up cont_41_RGB_lstm1_cont_slice_40_split
I0303 14:57:34.041383 28889 net.cpp:120] Top shape: 1 1 54 (54)
I0303 14:57:34.041402 28889 net.cpp:120] Top shape: 1 1 54 (54)
I0303 14:57:34.041419 28889 layer_factory.hpp:74] Creating layer cont_42_RGB_lstm1_cont_slice_41_split
I0303 14:57:34.041438 28889 net.cpp:84] Creating Layer cont_42_RGB_lstm1_cont_slice_41_split
I0303 14:57:34.041455 28889 net.cpp:381] cont_42_RGB_lstm1_cont_slice_41_split <- cont_42
I0303 14:57:34.041477 28889 net.cpp:339] cont_42_RGB_lstm1_cont_slice_41_split -> cont_42_RGB_lstm1_cont_slice_41_split_0
I0303 14:57:34.041501 28889 net.cpp:339] cont_42_RGB_lstm1_cont_slice_41_split -> cont_42_RGB_lstm1_cont_slice_41_split_1
I0303 14:57:34.041522 28889 net.cpp:113] Setting up cont_42_RGB_lstm1_cont_slice_41_split
I0303 14:57:34.041545 28889 net.cpp:120] Top shape: 1 1 54 (54)
I0303 14:57:34.041566 28889 net.cpp:120] Top shape: 1 1 54 (54)
I0303 14:57:34.041589 28889 layer_factory.hpp:74] Creating layer cont_43_RGB_lstm1_cont_slice_42_split
I0303 14:57:34.041610 28889 net.cpp:84] Creating Layer cont_43_RGB_lstm1_cont_slice_42_split
I0303 14:57:34.041647 28889 net.cpp:381] cont_43_RGB_lstm1_cont_slice_42_split <- cont_43
I0303 14:57:34.041668 28889 net.cpp:339] cont_43_RGB_lstm1_cont_slice_42_split -> cont_43_RGB_lstm1_cont_slice_42_split_0
I0303 14:57:34.041693 28889 net.cpp:339] cont_43_RGB_lstm1_cont_slice_42_split -> cont_43_RGB_lstm1_cont_slice_42_split_1
I0303 14:57:34.041718 28889 net.cpp:113] Setting up cont_43_RGB_lstm1_cont_slice_42_split
I0303 14:57:34.041740 28889 net.cpp:120] Top shape: 1 1 54 (54)
I0303 14:57:34.041761 28889 net.cpp:120] Top shape: 1 1 54 (54)
I0303 14:57:34.041780 28889 layer_factory.hpp:74] Creating layer cont_44_RGB_lstm1_cont_slice_43_split
I0303 14:57:34.041800 28889 net.cpp:84] Creating Layer cont_44_RGB_lstm1_cont_slice_43_split
I0303 14:57:34.041817 28889 net.cpp:381] cont_44_RGB_lstm1_cont_slice_43_split <- cont_44
I0303 14:57:34.041839 28889 net.cpp:339] cont_44_RGB_lstm1_cont_slice_43_split -> cont_44_RGB_lstm1_cont_slice_43_split_0
I0303 14:57:34.041864 28889 net.cpp:339] cont_44_RGB_lstm1_cont_slice_43_split -> cont_44_RGB_lstm1_cont_slice_43_split_1
I0303 14:57:34.041887 28889 net.cpp:113] Setting up cont_44_RGB_lstm1_cont_slice_43_split
I0303 14:57:34.041910 28889 net.cpp:120] Top shape: 1 1 54 (54)
I0303 14:57:34.041930 28889 net.cpp:120] Top shape: 1 1 54 (54)
I0303 14:57:34.041949 28889 layer_factory.hpp:74] Creating layer cont_45_RGB_lstm1_cont_slice_44_split
I0303 14:57:34.041968 28889 net.cpp:84] Creating Layer cont_45_RGB_lstm1_cont_slice_44_split
I0303 14:57:34.041985 28889 net.cpp:381] cont_45_RGB_lstm1_cont_slice_44_split <- cont_45
I0303 14:57:34.042008 28889 net.cpp:339] cont_45_RGB_lstm1_cont_slice_44_split -> cont_45_RGB_lstm1_cont_slice_44_split_0
I0303 14:57:34.042029 28889 net.cpp:339] cont_45_RGB_lstm1_cont_slice_44_split -> cont_45_RGB_lstm1_cont_slice_44_split_1
I0303 14:57:34.042052 28889 net.cpp:113] Setting up cont_45_RGB_lstm1_cont_slice_44_split
I0303 14:57:34.042073 28889 net.cpp:120] Top shape: 1 1 54 (54)
I0303 14:57:34.042094 28889 net.cpp:120] Top shape: 1 1 54 (54)
I0303 14:57:34.042114 28889 layer_factory.hpp:74] Creating layer cont_46_RGB_lstm1_cont_slice_45_split
I0303 14:57:34.042131 28889 net.cpp:84] Creating Layer cont_46_RGB_lstm1_cont_slice_45_split
I0303 14:57:34.042147 28889 net.cpp:381] cont_46_RGB_lstm1_cont_slice_45_split <- cont_46
I0303 14:57:34.042166 28889 net.cpp:339] cont_46_RGB_lstm1_cont_slice_45_split -> cont_46_RGB_lstm1_cont_slice_45_split_0
I0303 14:57:34.042196 28889 net.cpp:339] cont_46_RGB_lstm1_cont_slice_45_split -> cont_46_RGB_lstm1_cont_slice_45_split_1
I0303 14:57:34.042222 28889 net.cpp:113] Setting up cont_46_RGB_lstm1_cont_slice_45_split
I0303 14:57:34.042243 28889 net.cpp:120] Top shape: 1 1 54 (54)
I0303 14:57:34.042264 28889 net.cpp:120] Top shape: 1 1 54 (54)
I0303 14:57:34.042281 28889 layer_factory.hpp:74] Creating layer cont_47_RGB_lstm1_cont_slice_46_split
I0303 14:57:34.042301 28889 net.cpp:84] Creating Layer cont_47_RGB_lstm1_cont_slice_46_split
I0303 14:57:34.042320 28889 net.cpp:381] cont_47_RGB_lstm1_cont_slice_46_split <- cont_47
I0303 14:57:34.042338 28889 net.cpp:339] cont_47_RGB_lstm1_cont_slice_46_split -> cont_47_RGB_lstm1_cont_slice_46_split_0
I0303 14:57:34.042359 28889 net.cpp:339] cont_47_RGB_lstm1_cont_slice_46_split -> cont_47_RGB_lstm1_cont_slice_46_split_1
I0303 14:57:34.042381 28889 net.cpp:113] Setting up cont_47_RGB_lstm1_cont_slice_46_split
I0303 14:57:34.042404 28889 net.cpp:120] Top shape: 1 1 54 (54)
I0303 14:57:34.042424 28889 net.cpp:120] Top shape: 1 1 54 (54)
I0303 14:57:34.042443 28889 layer_factory.hpp:74] Creating layer cont_48_RGB_lstm1_cont_slice_47_split
I0303 14:57:34.042461 28889 net.cpp:84] Creating Layer cont_48_RGB_lstm1_cont_slice_47_split
I0303 14:57:34.042480 28889 net.cpp:381] cont_48_RGB_lstm1_cont_slice_47_split <- cont_48
I0303 14:57:34.042500 28889 net.cpp:339] cont_48_RGB_lstm1_cont_slice_47_split -> cont_48_RGB_lstm1_cont_slice_47_split_0
I0303 14:57:34.042521 28889 net.cpp:339] cont_48_RGB_lstm1_cont_slice_47_split -> cont_48_RGB_lstm1_cont_slice_47_split_1
I0303 14:57:34.042563 28889 net.cpp:113] Setting up cont_48_RGB_lstm1_cont_slice_47_split
I0303 14:57:34.042588 28889 net.cpp:120] Top shape: 1 1 54 (54)
I0303 14:57:34.042608 28889 net.cpp:120] Top shape: 1 1 54 (54)
I0303 14:57:34.042626 28889 layer_factory.hpp:74] Creating layer cont_49_RGB_lstm1_cont_slice_48_split
I0303 14:57:34.042654 28889 net.cpp:84] Creating Layer cont_49_RGB_lstm1_cont_slice_48_split
I0303 14:57:34.042675 28889 net.cpp:381] cont_49_RGB_lstm1_cont_slice_48_split <- cont_49
I0303 14:57:34.042695 28889 net.cpp:339] cont_49_RGB_lstm1_cont_slice_48_split -> cont_49_RGB_lstm1_cont_slice_48_split_0
I0303 14:57:34.042719 28889 net.cpp:339] cont_49_RGB_lstm1_cont_slice_48_split -> cont_49_RGB_lstm1_cont_slice_48_split_1
I0303 14:57:34.042743 28889 net.cpp:113] Setting up cont_49_RGB_lstm1_cont_slice_48_split
I0303 14:57:34.042768 28889 net.cpp:120] Top shape: 1 1 54 (54)
I0303 14:57:34.042788 28889 net.cpp:120] Top shape: 1 1 54 (54)
I0303 14:57:34.042805 28889 layer_factory.hpp:74] Creating layer cont_50_RGB_lstm1_cont_slice_49_split
I0303 14:57:34.042825 28889 net.cpp:84] Creating Layer cont_50_RGB_lstm1_cont_slice_49_split
I0303 14:57:34.042843 28889 net.cpp:381] cont_50_RGB_lstm1_cont_slice_49_split <- cont_50
I0303 14:57:34.042862 28889 net.cpp:339] cont_50_RGB_lstm1_cont_slice_49_split -> cont_50_RGB_lstm1_cont_slice_49_split_0
I0303 14:57:34.042886 28889 net.cpp:339] cont_50_RGB_lstm1_cont_slice_49_split -> cont_50_RGB_lstm1_cont_slice_49_split_1
I0303 14:57:34.042908 28889 net.cpp:113] Setting up cont_50_RGB_lstm1_cont_slice_49_split
I0303 14:57:34.042937 28889 net.cpp:120] Top shape: 1 1 54 (54)
I0303 14:57:34.042958 28889 net.cpp:120] Top shape: 1 1 54 (54)
I0303 14:57:34.042974 28889 layer_factory.hpp:74] Creating layer cont_51_RGB_lstm1_cont_slice_50_split
I0303 14:57:34.042996 28889 net.cpp:84] Creating Layer cont_51_RGB_lstm1_cont_slice_50_split
I0303 14:57:34.043016 28889 net.cpp:381] cont_51_RGB_lstm1_cont_slice_50_split <- cont_51
I0303 14:57:34.043038 28889 net.cpp:339] cont_51_RGB_lstm1_cont_slice_50_split -> cont_51_RGB_lstm1_cont_slice_50_split_0
I0303 14:57:34.043063 28889 net.cpp:339] cont_51_RGB_lstm1_cont_slice_50_split -> cont_51_RGB_lstm1_cont_slice_50_split_1
I0303 14:57:34.043087 28889 net.cpp:113] Setting up cont_51_RGB_lstm1_cont_slice_50_split
I0303 14:57:34.043108 28889 net.cpp:120] Top shape: 1 1 54 (54)
I0303 14:57:34.043129 28889 net.cpp:120] Top shape: 1 1 54 (54)
I0303 14:57:34.043148 28889 layer_factory.hpp:74] Creating layer cont_52_RGB_lstm1_cont_slice_51_split
I0303 14:57:34.043167 28889 net.cpp:84] Creating Layer cont_52_RGB_lstm1_cont_slice_51_split
I0303 14:57:34.043190 28889 net.cpp:381] cont_52_RGB_lstm1_cont_slice_51_split <- cont_52
I0303 14:57:34.043211 28889 net.cpp:339] cont_52_RGB_lstm1_cont_slice_51_split -> cont_52_RGB_lstm1_cont_slice_51_split_0
I0303 14:57:34.043236 28889 net.cpp:339] cont_52_RGB_lstm1_cont_slice_51_split -> cont_52_RGB_lstm1_cont_slice_51_split_1
I0303 14:57:34.043259 28889 net.cpp:113] Setting up cont_52_RGB_lstm1_cont_slice_51_split
I0303 14:57:34.043288 28889 net.cpp:120] Top shape: 1 1 54 (54)
I0303 14:57:34.043310 28889 net.cpp:120] Top shape: 1 1 54 (54)
I0303 14:57:34.043329 28889 layer_factory.hpp:74] Creating layer cont_53_RGB_lstm1_cont_slice_52_split
I0303 14:57:34.043349 28889 net.cpp:84] Creating Layer cont_53_RGB_lstm1_cont_slice_52_split
I0303 14:57:34.043367 28889 net.cpp:381] cont_53_RGB_lstm1_cont_slice_52_split <- cont_53
I0303 14:57:34.043387 28889 net.cpp:339] cont_53_RGB_lstm1_cont_slice_52_split -> cont_53_RGB_lstm1_cont_slice_52_split_0
I0303 14:57:34.043409 28889 net.cpp:339] cont_53_RGB_lstm1_cont_slice_52_split -> cont_53_RGB_lstm1_cont_slice_52_split_1
I0303 14:57:34.043431 28889 net.cpp:113] Setting up cont_53_RGB_lstm1_cont_slice_52_split
I0303 14:57:34.043454 28889 net.cpp:120] Top shape: 1 1 54 (54)
I0303 14:57:34.043475 28889 net.cpp:120] Top shape: 1 1 54 (54)
I0303 14:57:34.043493 28889 layer_factory.hpp:74] Creating layer cont_54_RGB_lstm1_cont_slice_53_split
I0303 14:57:34.043512 28889 net.cpp:84] Creating Layer cont_54_RGB_lstm1_cont_slice_53_split
I0303 14:57:34.043550 28889 net.cpp:381] cont_54_RGB_lstm1_cont_slice_53_split <- cont_54
I0303 14:57:34.043572 28889 net.cpp:339] cont_54_RGB_lstm1_cont_slice_53_split -> cont_54_RGB_lstm1_cont_slice_53_split_0
I0303 14:57:34.043596 28889 net.cpp:339] cont_54_RGB_lstm1_cont_slice_53_split -> cont_54_RGB_lstm1_cont_slice_53_split_1
I0303 14:57:34.043619 28889 net.cpp:113] Setting up cont_54_RGB_lstm1_cont_slice_53_split
I0303 14:57:34.043643 28889 net.cpp:120] Top shape: 1 1 54 (54)
I0303 14:57:34.043665 28889 net.cpp:120] Top shape: 1 1 54 (54)
I0303 14:57:34.043684 28889 layer_factory.hpp:74] Creating layer RGB_lstm1_x_transform
I0303 14:57:34.043714 28889 net.cpp:84] Creating Layer RGB_lstm1_x_transform
I0303 14:57:34.043732 28889 net.cpp:381] RGB_lstm1_x_transform <- x
I0303 14:57:34.043756 28889 net.cpp:339] RGB_lstm1_x_transform -> W_xc_x
I0303 14:57:34.043777 28889 net.cpp:113] Setting up RGB_lstm1_x_transform
I0303 14:57:34.043985 28889 net.cpp:120] Top shape: 54 54 400 (1166400)
I0303 14:57:34.044011 28889 layer_factory.hpp:74] Creating layer RGB_lstm1_W_xc_x_slice
I0303 14:57:34.044044 28889 net.cpp:84] Creating Layer RGB_lstm1_W_xc_x_slice
I0303 14:57:34.044062 28889 net.cpp:381] RGB_lstm1_W_xc_x_slice <- W_xc_x
I0303 14:57:34.044095 28889 net.cpp:339] RGB_lstm1_W_xc_x_slice -> W_xc_x_1
I0303 14:57:34.044121 28889 net.cpp:339] RGB_lstm1_W_xc_x_slice -> W_xc_x_2
…
I0303 14:57:34.045665 28889 net.cpp:339] RGB_lstm1_W_xc_x_slice -> W_xc_x_48
I0303 14:57:34.045696 28889 net.cpp:339] RGB_lstm1_W_xc_x_slice -> W_xc_x_49
I0303 14:57:34.045732 28889 net.cpp:339] RGB_lstm1_W_xc_x_slice -> W_xc_x_50
I0303 14:57:34.045768 28889 net.cpp:339] RGB_lstm1_W_xc_x_slice -> W_xc_x_51
I0303 14:57:34.045799 28889 net.cpp:339] RGB_lstm1_W_xc_x_slice -> W_xc_x_52
I0303 14:57:34.045831 28889 net.cpp:339] RGB_lstm1_W_xc_x_slice -> W_xc_x_53
I0303 14:57:34.045872 28889 net.cpp:339] RGB_lstm1_W_xc_x_slice -> W_xc_x_54
I0303 14:57:34.045899 28889 net.cpp:113] Setting up RGB_lstm1_W_xc_x_slice
I0303 14:57:34.045958 28889 net.cpp:120] Top shape: 1 54 400 (21600)
I0303 14:57:34.045982 28889 net.cpp:120] Top shape: 1 54 400 (21600)
I0303 14:57:34.046000 28889 net.cpp:120] Top shape: 1 54 400 (21600)
I0303 14:57:34.046022 28889 net.cpp:120] Top shape: 1 54 400 (21600)
I0303 14:57:34.046041 28889 net.cpp:120] Top shape: 1 54 400 (21600)
I0303 14:57:34.046061 28889 net.cpp:120] Top shape: 1 54 400 (21600)
I0303 14:57:34.046078 28889 net.cpp:120] Top shape: 1 54 400 (21600)
I0303 14:57:34.046097 28889 net.cpp:120] Top shape: 1 54 400 (21600)
I0303 14:57:34.046113 28889 net.cpp:120] Top shape: 1 54 400 (21600)
I0303 14:57:34.046131 28889 net.cpp:120] Top shape: 1 54 400 (21600)
I0303 14:57:34.046149 28889 net.cpp:120] Top shape: 1 54 400 (21600)
I0303 14:57:34.046172 28889 net.cpp:120] Top shape: 1 54 400 (21600)
I0303 14:57:34.046208 28889 net.cpp:120] Top shape: 1 54 400 (21600)
I0303 14:57:34.046227 28889 net.cpp:120] Top shape: 1 54 400 (21600)
I0303 14:57:34.046244 28889 net.cpp:120] Top shape: 1 54 400 (21600)
I0303 14:57:34.046267 28889 net.cpp:120] Top shape: 1 54 400 (21600)
I0303 14:57:34.046283 28889 net.cpp:120] Top shape: 1 54 400 (21600)
I0303 14:57:34.046300 28889 net.cpp:120] Top shape: 1 54 400 (21600)
I0303 14:57:34.046319 28889 net.cpp:120] Top shape: 1 54 400 (21600)
I0303 14:57:34.046339 28889 net.cpp:120] Top shape: 1 54 400 (21600)
I0303 14:57:34.046355 28889 net.cpp:120] Top shape: 1 54 400 (21600)
I0303 14:57:34.046370 28889 net.cpp:120] Top shape: 1 54 400 (21600)
I0303 14:57:34.046386 28889 net.cpp:120] Top shape: 1 54 400 (21600)
I0303 14:57:34.046403 28889 net.cpp:120] Top shape: 1 54 400 (21600)
I0303 14:57:34.046421 28889 net.cpp:120] Top shape: 1 54 400 (21600)
I0303 14:57:34.046437 28889 net.cpp:120] Top shape: 1 54 400 (21600)
I0303 14:57:34.046457 28889 net.cpp:120] Top shape: 1 54 400 (21600)
I0303 14:57:34.046471 28889 net.cpp:120] Top shape: 1 54 400 (21600)
I0303 14:57:34.046484 28889 net.cpp:120] Top shape: 1 54 400 (21600)
I0303 14:57:34.046499 28889 net.cpp:120] Top shape: 1 54 400 (21600)
I0303 14:57:34.046514 28889 net.cpp:120] Top shape: 1 54 400 (21600)
I0303 14:57:34.046528 28889 net.cpp:120] Top shape: 1 54 400 (21600)
I0303 14:57:34.046538 28889 net.cpp:120] Top shape: 1 54 400 (21600)
I0303 14:57:34.046547 28889 net.cpp:120] Top shape: 1 54 400 (21600)
I0303 14:57:34.046556 28889 net.cpp:120] Top shape: 1 54 400 (21600)
I0303 14:57:34.046566 28889 net.cpp:120] Top shape: 1 54 400 (21600)
I0303 14:57:34.046574 28889 net.cpp:120] Top shape: 1 54 400 (21600)
I0303 14:57:34.046583 28889 net.cpp:120] Top shape: 1 54 400 (21600)
I0303 14:57:34.046592 28889 net.cpp:120] Top shape: 1 54 400 (21600)
I0303 14:57:34.046619 28889 net.cpp:120] Top shape: 1 54 400 (21600)
I0303 14:57:34.046633 28889 net.cpp:120] Top shape: 1 54 400 (21600)
I0303 14:57:34.046643 28889 net.cpp:120] Top shape: 1 54 400 (21600)
I0303 14:57:34.046653 28889 net.cpp:120] Top shape: 1 54 400 (21600)
I0303 14:57:34.046663 28889 net.cpp:120] Top shape: 1 54 400 (21600)
I0303 14:57:34.046672 28889 net.cpp:120] Top shape: 1 54 400 (21600)
I0303 14:57:34.046681 28889 net.cpp:120] Top shape: 1 54 400 (21600)
I0303 14:57:34.046690 28889 net.cpp:120] Top shape: 1 54 400 (21600)
I0303 14:57:34.046700 28889 net.cpp:120] Top shape: 1 54 400 (21600)
I0303 14:57:34.046708 28889 net.cpp:120] Top shape: 1 54 400 (21600)
I0303 14:57:34.046717 28889 net.cpp:120] Top shape: 1 54 400 (21600)
I0303 14:57:34.046727 28889 net.cpp:120] Top shape: 1 54 400 (21600)
I0303 14:57:34.046741 28889 net.cpp:120] Top shape: 1 54 400 (21600)
I0303 14:57:34.046751 28889 net.cpp:120] Top shape: 1 54 400 (21600)
I0303 14:57:34.046761 28889 net.cpp:120] Top shape: 1 54 400 (21600)
I0303 14:57:34.046769 28889 layer_factory.hpp:74] Creating layer RGB_lstm1_h_conted_0
I0303 14:57:34.046792 28889 net.cpp:84] Creating Layer RGB_lstm1_h_conted_0
I0303 14:57:34.046804 28889 net.cpp:381] RGB_lstm1_h_conted_0 <- h_0
I0303 14:57:34.046816 28889 net.cpp:381] RGB_lstm1_h_conted_0 <- cont_1_RGB_lstm1_cont_slice_0_split_0
I0303 14:57:34.046833 28889 net.cpp:339] RGB_lstm1_h_conted_0 -> h_conted_0
I0303 14:57:34.046846 28889 net.cpp:113] Setting up RGB_lstm1_h_conted_0
I0303 14:57:34.046864 28889 net.cpp:120] Top shape: 1 54 100 (5400)
I0303 14:57:34.046876 28889 layer_factory.hpp:74] Creating layer RGB_lstm1_transform_1
I0303 14:57:34.046890 28889 net.cpp:84] Creating Layer RGB_lstm1_transform_1
I0303 14:57:34.046898 28889 net.cpp:381] RGB_lstm1_transform_1 <- h_conted_0
I0303 14:57:34.046916 28889 net.cpp:339] RGB_lstm1_transform_1 -> W_hc_h_0
I0303 14:57:34.046931 28889 net.cpp:113] Setting up RGB_lstm1_transform_1
I0303 14:57:34.047335 28889 net.cpp:120] Top shape: 1 54 400 (21600)
I0303 14:57:34.047354 28889 layer_factory.hpp:74] Creating layer RGB_lstm1_gate_input_1
I0303 14:57:34.047370 28889 net.cpp:84] Creating Layer RGB_lstm1_gate_input_1
I0303 14:57:34.047381 28889 net.cpp:381] RGB_lstm1_gate_input_1 <- W_hc_h_0
I0303 14:57:34.047391 28889 net.cpp:381] RGB_lstm1_gate_input_1 <- W_xc_x_1
I0303 14:57:34.047406 28889 net.cpp:339] RGB_lstm1_gate_input_1 -> gate_input_1
I0303 14:57:34.047420 28889 net.cpp:113] Setting up RGB_lstm1_gate_input_1
I0303 14:57:34.047432 28889 net.cpp:120] Top shape: 1 54 400 (21600)
I0303 14:57:34.047441 28889 layer_factory.hpp:74] Creating layer RGB_lstm1_unit_1
I0303 14:57:34.047456 28889 net.cpp:84] Creating Layer RGB_lstm1_unit_1
I0303 14:57:34.047466 28889 net.cpp:381] RGB_lstm1_unit_1 <- c_0
I0303 14:57:34.047480 28889 net.cpp:381] RGB_lstm1_unit_1 <- gate_input_1
I0303 14:57:34.047493 28889 net.cpp:381] RGB_lstm1_unit_1 <- cont_1_RGB_lstm1_cont_slice_0_split_1
I0303 14:57:34.047507 28889 net.cpp:339] RGB_lstm1_unit_1 -> c_1
I0303 14:57:34.047519 28889 net.cpp:339] RGB_lstm1_unit_1 -> h_1
I0303 14:57:34.047533 28889 net.cpp:113] Setting up RGB_lstm1_unit_1
I0303 14:57:34.047549 28889 net.cpp:120] Top shape: 1 54 100 (5400)
I0303 14:57:34.047562 28889 net.cpp:120] Top shape: 1 54 100 (5400)
I0303 14:57:34.047575 28889 layer_factory.hpp:74] Creating layer h_1_RGB_lstm1_unit_1_1_split
I0303 14:57:34.047587 28889 net.cpp:84] Creating Layer h_1_RGB_lstm1_unit_1_1_split
I0303 14:57:34.047596 28889 net.cpp:381] h_1_RGB_lstm1_unit_1_1_split <- h_1
I0303 14:57:34.047610 28889 net.cpp:339] h_1_RGB_lstm1_unit_1_1_split -> h_1_RGB_lstm1_unit_1_1_split_0
I0303 14:57:34.047623 28889 net.cpp:339] h_1_RGB_lstm1_unit_1_1_split -> h_1_RGB_lstm1_unit_1_1_split_1
I0303 14:57:34.047636 28889 net.cpp:113] Setting up h_1_RGB_lstm1_unit_1_1_split
I0303 14:57:34.047649 28889 net.cpp:120] Top shape: 1 54 100 (5400)
I0303 14:57:34.047659 28889 net.cpp:120] Top shape: 1 54 100 (5400)
I0303 14:57:34.047668 28889 layer_factory.hpp:74] Creating layer RGB_lstm1_h_conted_1
I0303 14:57:34.047698 28889 net.cpp:84] Creating Layer RGB_lstm1_h_conted_1
I0303 14:57:34.047709 28889 net.cpp:381] RGB_lstm1_h_conted_1 <- h_1_RGB_lstm1_unit_1_1_split_0
I0303 14:57:34.047724 28889 net.cpp:381] RGB_lstm1_h_conted_1 <- cont_2_RGB_lstm1_cont_slice_1_split_0
I0303 14:57:34.047739 28889 net.cpp:339] RGB_lstm1_h_conted_1 -> h_conted_1
I0303 14:57:34.047751 28889 net.cpp:113] Setting up RGB_lstm1_h_conted_1
I0303 14:57:34.047767 28889 net.cpp:120] Top shape: 1 54 100 (5400)
I0303 14:57:34.047776 28889 layer_factory.hpp:74] Creating layer RGB_lstm1_transform_2
I0303 14:57:34.047788 28889 net.cpp:84] Creating Layer RGB_lstm1_transform_2
I0303 14:57:34.047799 28889 net.cpp:381] RGB_lstm1_transform_2 <- h_conted_1
I0303 14:57:34.047812 28889 net.cpp:339] RGB_lstm1_transform_2 -> W_hc_h_1
I0303 14:57:34.047827 28889 net.cpp:113] Setting up RGB_lstm1_transform_2
I0303 14:57:34.048226 28889 net.cpp:120] Top shape: 1 54 400 (21600)
I0303 14:57:34.048243 28889 net.cpp:425] Sharing parameters 'W_hc' owned by layer 'RGB_lstm1_transform_1', param index 0
I0303 14:57:34.048256 28889 layer_factory.hpp:74] Creating layer RGB_lstm1_gate_input_2
I0303 14:57:34.048276 28889 net.cpp:84] Creating Layer RGB_lstm1_gate_input_2
I0303 14:57:34.048288 28889 net.cpp:381] RGB_lstm1_gate_input_2 <- W_hc_h_1
I0303 14:57:34.048300 28889 net.cpp:381] RGB_lstm1_gate_input_2 <- W_xc_x_2
I0303 14:57:34.048313 28889 net.cpp:339] RGB_lstm1_gate_input_2 -> gate_input_2
I0303 14:57:34.048332 28889 net.cpp:113] Setting up RGB_lstm1_gate_input_2
I0303 14:57:34.048346 28889 net.cpp:120] Top shape: 1 54 400 (21600)
I0303 14:57:34.048355 28889 layer_factory.hpp:74] Creating layer RGB_lstm1_unit_2
I0303 14:57:34.048365 28889 net.cpp:84] Creating Layer RGB_lstm1_unit_2
I0303 14:57:34.048377 28889 net.cpp:381] RGB_lstm1_unit_2 <- c_1
I0303 14:57:34.048388 28889 net.cpp:381] RGB_lstm1_unit_2 <- gate_input_2
I0303 14:57:34.048399 28889 net.cpp:381] RGB_lstm1_unit_2 <- cont_2_RGB_lstm1_cont_slice_1_split_1
I0303 14:57:34.048409 28889 net.cpp:339] RGB_lstm1_unit_2 -> c_2
I0303 14:57:34.048426 28889 net.cpp:339] RGB_lstm1_unit_2 -> h_2
I0303 14:57:34.048439 28889 net.cpp:113] Setting up RGB_lstm1_unit_2
I0303 14:57:34.048459 28889 net.cpp:120] Top shape: 1 54 100 (5400)
I0303 14:57:34.048470 28889 net.cpp:120] Top shape: 1 54 100 (5400)
I0303 14:57:34.048478 28889 layer_factory.hpp:74] Creating layer h_2_RGB_lstm1_unit_2_1_split
I0303 14:57:34.048491 28889 net.cpp:84] Creating Layer h_2_RGB_lstm1_unit_2_1_split
I0303 14:57:34.048501 28889 net.cpp:381] h_2_RGB_lstm1_unit_2_1_split <- h_2
I0303 14:57:34.048512 28889 net.cpp:339] h_2_RGB_lstm1_unit_2_1_split -> h_2_RGB_lstm1_unit_2_1_split_0
I0303 14:57:34.048527 28889 net.cpp:339] h_2_RGB_lstm1_unit_2_1_split -> h_2_RGB_lstm1_unit_2_1_split_1
I0303 14:57:34.048542 28889 net.cpp:113] Setting up h_2_RGB_lstm1_unit_2_1_split
I0303 14:57:34.048555 28889 net.cpp:120] Top shape: 1 54 100 (5400)
I0303 14:57:34.048565 28889 net.cpp:120] Top shape: 1 54 100 (5400)
I0303 14:57:34.048576 28889 layer_factory.hpp:74] Creating layer RGB_lstm1_h_conted_2
I0303 14:57:34.048585 28889 net.cpp:84] Creating Layer RGB_lstm1_h_conted_2
I0303 14:57:34.048594 28889 net.cpp:381] RGB_lstm1_h_conted_2 <- h_2_RGB_lstm1_unit_2_1_split_0
I0303 14:57:34.048606 28889 net.cpp:381] RGB_lstm1_h_conted_2 <- cont_3_RGB_lstm1_cont_slice_2_split_0
I0303 14:57:34.048619 28889 net.cpp:339] RGB_lstm1_h_conted_2 -> h_conted_2
I0303 14:57:34.048629 28889 net.cpp:113] Setting up RGB_lstm1_h_conted_2
I0303 14:57:34.048642 28889 net.cpp:120] Top shape: 1 54 100 (5400)
I0303 14:57:34.048651 28889 layer_factory.hpp:74] Creating layer RGB_lstm1_transform_3
I0303 14:57:34.048665 28889 net.cpp:84] Creating Layer RGB_lstm1_transform_3
I0303 14:57:34.048676 28889 net.cpp:381] RGB_lstm1_transform_3 <- h_conted_2
I0303 14:57:34.048686 28889 net.cpp:339] RGB_lstm1_transform_3 -> W_hc_h_2
I0303 14:57:34.048703 28889 net.cpp:113] Setting up RGB_lstm1_transform_3
I0303 14:57:34.049103 28889 net.cpp:120] Top shape: 1 54 400 (21600)
I0303 14:57:34.049119 28889 net.cpp:425] Sharing parameters 'W_hc' owned by layer 'RGB_lstm1_transform_1', param index 0
I0303 14:57:34.049150 28889 layer_factory.hpp:74] Creating layer RGB_lstm1_gate_input_3
I0303 14:57:34.049165 28889 net.cpp:84] Creating Layer RGB_lstm1_gate_input_3
I0303 14:57:34.049177 28889 net.cpp:381] RGB_lstm1_gate_input_3 <- W_hc_h_2
I0303 14:57:34.049197 28889 net.cpp:381] RGB_lstm1_gate_input_3 <- W_xc_x_3
I0303 14:57:34.049211 28889 net.cpp:339] RGB_lstm1_gate_input_3 -> gate_input_3
I0303 14:57:34.049222 28889 net.cpp:113] Setting up RGB_lstm1_gate_input_3
I0303 14:57:34.049240 28889 net.cpp:120] Top shape: 1 54 400 (21600)
I0303 14:57:34.049250 28889 layer_factory.hpp:74] Creating layer RGB_lstm1_unit_3
I0303 14:57:34.049263 28889 net.cpp:84] Creating Layer RGB_lstm1_unit_3
I0303 14:57:34.049276 28889 net.cpp:381] RGB_lstm1_unit_3 <- c_2
I0303 14:57:34.049291 28889 net.cpp:381] RGB_lstm1_unit_3 <- gate_input_3
I0303 14:57:34.049301 28889 net.cpp:381] RGB_lstm1_unit_3 <- cont_3_RGB_lstm1_cont_slice_2_split_1
I0303 14:57:34.049312 28889 net.cpp:339] RGB_lstm1_unit_3 -> c_3
I0303 14:57:34.049326 28889 net.cpp:339] RGB_lstm1_unit_3 -> h_3
I0303 14:57:34.049338 28889 net.cpp:113] Setting up RGB_lstm1_unit_3
I0303 14:57:34.049357 28889 net.cpp:120] Top shape: 1 54 100 (5400)
I0303 14:57:34.049368 28889 net.cpp:120] Top shape: 1 54 100 (5400)
I0303 14:57:34.049377 28889 layer_factory.hpp:74] Creating layer h_3_RGB_lstm1_unit_3_1_split
I0303 14:57:34.049388 28889 net.cpp:84] Creating Layer h_3_RGB_lstm1_unit_3_1_split
I0303 14:57:34.049398 28889 net.cpp:381] h_3_RGB_lstm1_unit_3_1_split <- h_3
I0303 14:57:34.049409 28889 net.cpp:339] h_3_RGB_lstm1_unit_3_1_split -> h_3_RGB_lstm1_unit_3_1_split_0
I0303 14:57:34.049425 28889 net.cpp:339] h_3_RGB_lstm1_unit_3_1_split -> h_3_RGB_lstm1_unit_3_1_split_1
I0303 14:57:34.049438 28889 net.cpp:113] Setting up h_3_RGB_lstm1_unit_3_1_split
I0303 14:57:34.049450 28889 net.cpp:120] Top shape: 1 54 100 (5400)
I0303 14:57:34.049460 28889 net.cpp:120] Top shape: 1 54 100 (5400)
I0303 14:57:34.049469 28889 layer_factory.hpp:74] Creating layer RGB_lstm1_h_conted_3
I0303 14:57:34.049481 28889 net.cpp:84] Creating Layer RGB_lstm1_h_conted_3
I0303 14:57:34.049496 28889 net.cpp:381] RGB_lstm1_h_conted_3 <- h_3_RGB_lstm1_unit_3_1_split_0
I0303 14:57:34.049507 28889 net.cpp:381] RGB_lstm1_h_conted_3 <- cont_4_RGB_lstm1_cont_slice_3_split_0
I0303 14:57:34.049518 28889 net.cpp:339] RGB_lstm1_h_conted_3 -> h_conted_3
I0303 14:57:34.049533 28889 net.cpp:113] Setting up RGB_lstm1_h_conted_3
I0303 14:57:34.049546 28889 net.cpp:120] Top shape: 1 54 100 (5400)
I0303 14:57:34.049554 28889 layer_factory.hpp:74] Creating layer RGB_lstm1_transform_4
I0303 14:57:34.049571 28889 net.cpp:84] Creating Layer RGB_lstm1_transform_4
I0303 14:57:34.049582 28889 net.cpp:381] RGB_lstm1_transform_4 <- h_conted_3
I0303 14:57:34.049592 28889 net.cpp:339] RGB_lstm1_transform_4 -> W_hc_h_3
I0303 14:57:34.049604 28889 net.cpp:113] Setting up RGB_lstm1_transform_4
I0303 14:57:34.050005 28889 net.cpp:120] Top shape: 1 54 400 (21600)
I0303 14:57:34.050022 28889 net.cpp:425] Sharing parameters 'W_hc' owned by layer 'RGB_lstm1_transform_1', param index 0
I0303 14:57:34.050034 28889 layer_factory.hpp:74] Creating layer RGB_lstm1_gate_input_4
I0303 14:57:34.050050 28889 net.cpp:84] Creating Layer RGB_lstm1_gate_input_4
I0303 14:57:34.050061 28889 net.cpp:381] RGB_lstm1_gate_input_4 <- W_hc_h_3
I0303 14:57:34.050071 28889 net.cpp:381] RGB_lstm1_gate_input_4 <- W_xc_x_4
I0303 14:57:34.050086 28889 net.cpp:339] RGB_lstm1_gate_input_4 -> gate_input_4
I0303 14:57:34.050098 28889 net.cpp:113] Setting up RGB_lstm1_gate_input_4
I0303 14:57:34.050114 28889 net.cpp:120] Top shape: 1 54 400 (21600)
I0303 14:57:34.050123 28889 layer_factory.hpp:74] Creating layer RGB_lstm1_unit_4
I0303 14:57:34.050133 28889 net.cpp:84] Creating Layer RGB_lstm1_unit_4
I0303 14:57:34.050146 28889 net.cpp:381] RGB_lstm1_unit_4 <- c_3
I0303 14:57:34.050156 28889 net.cpp:381] RGB_lstm1_unit_4 <- gate_input_4
I0303 14:57:34.050173 28889 net.cpp:381] RGB_lstm1_unit_4 <- cont_4_RGB_lstm1_cont_slice_3_split_1
I0303 14:57:34.050210 28889 net.cpp:339] RGB_lstm1_unit_4 -> c_4
I0303 14:57:34.050233 28889 net.cpp:339] RGB_lstm1_unit_4 -> h_4
I0303 14:57:34.050247 28889 net.cpp:113] Setting up RGB_lstm1_unit_4
I0303 14:57:34.050261 28889 net.cpp:120] Top shape: 1 54 100 (5400)
I0303 14:57:34.050271 28889 net.cpp:120] Top shape: 1 54 100 (5400)
I0303 14:57:34.050279 28889 layer_factory.hpp:74] Creating layer h_4_RGB_lstm1_unit_4_1_split
I0303 14:57:34.050294 28889 net.cpp:84] Creating Layer h_4_RGB_lstm1_unit_4_1_split
I0303 14:57:34.050303 28889 net.cpp:381] h_4_RGB_lstm1_unit_4_1_split <- h_4
I0303 14:57:34.050318 28889 net.cpp:339] h_4_RGB_lstm1_unit_4_1_split -> h_4_RGB_lstm1_unit_4_1_split_0
I0303 14:57:34.050333 28889 net.cpp:339] h_4_RGB_lstm1_unit_4_1_split -> h_4_RGB_lstm1_unit_4_1_split_1
I0303 14:57:34.050345 28889 net.cpp:113] Setting up h_4_RGB_lstm1_unit_4_1_split
I0303 14:57:34.050361 28889 net.cpp:120] Top shape: 1 54 100 (5400)
I0303 14:57:34.050372 28889 net.cpp:120] Top shape: 1 54 100 (5400)
I0303 14:57:34.050381 28889 layer_factory.hpp:74] Creating layer RGB_lstm1_h_conted_4
I0303 14:57:34.050391 28889 net.cpp:84] Creating Layer RGB_lstm1_h_conted_4
I0303 14:57:34.050407 28889 net.cpp:381] RGB_lstm1_h_conted_4 <- h_4_RGB_lstm1_unit_4_1_split_0
I0303 14:57:34.050418 28889 net.cpp:381] RGB_lstm1_h_conted_4 <- cont_5_RGB_lstm1_cont_slice_4_split_0
I0303 14:57:34.050429 28889 net.cpp:339] RGB_lstm1_h_conted_4 -> h_conted_4
I0303 14:57:34.050441 28889 net.cpp:113] Setting up RGB_lstm1_h_conted_4
I0303 14:57:34.050454 28889 net.cpp:120] Top shape: 1 54 100 (5400)
I0303 14:57:34.050463 28889 layer_factory.hpp:74] Creating layer RGB_lstm1_transform_5
I0303 14:57:34.050474 28889 net.cpp:84] Creating Layer RGB_lstm1_transform_5
I0303 14:57:34.050484 28889 net.cpp:381] RGB_lstm1_transform_5 <- h_conted_4
I0303 14:57:34.050498 28889 net.cpp:339] RGB_lstm1_transform_5 -> W_hc_h_4
I0303 14:57:34.050519 28889 net.cpp:113] Setting up RGB_lstm1_transform_5
I0303 14:57:34.050925 28889 net.cpp:120] Top shape: 1 54 400 (21600)
I0303 14:57:34.050940 28889 net.cpp:425] Sharing parameters 'W_hc' owned by layer 'RGB_lstm1_transform_1', param index 0
I0303 14:57:34.050952 28889 layer_factory.hpp:74] Creating layer RGB_lstm1_gate_input_5
I0303 14:57:34.050967 28889 net.cpp:84] Creating Layer RGB_lstm1_gate_input_5
I0303 14:57:34.050979 28889 net.cpp:381] RGB_lstm1_gate_input_5 <- W_hc_h_4
I0303 14:57:34.050989 28889 net.cpp:381] RGB_lstm1_gate_input_5 <- W_xc_x_5
I0303 14:57:34.051002 28889 net.cpp:339] RGB_lstm1_gate_input_5 -> gate_input_5
I0303 14:57:34.051014 28889 net.cpp:113] Setting up RGB_lstm1_gate_input_5
I0303 14:57:34.051029 28889 net.cpp:120] Top shape: 1 54 400 (21600)
I0303 14:57:34.051038 28889 layer_factory.hpp:74] Creating layer RGB_lstm1_unit_5
I0303 14:57:34.051048 28889 net.cpp:84] Creating Layer RGB_lstm1_unit_5
I0303 14:57:34.051059 28889 net.cpp:381] RGB_lstm1_unit_5 <- c_4
I0303 14:57:34.051069 28889 net.cpp:381] RGB_lstm1_unit_5 <- gate_input_5
I0303 14:57:34.051082 28889 net.cpp:381] RGB_lstm1_unit_5 <- cont_5_RGB_lstm1_cont_slice_4_split_1
I0303 14:57:34.051098 28889 net.cpp:339] RGB_lstm1_unit_5 -> c_5
I0303 14:57:34.051113 28889 net.cpp:339] RGB_lstm1_unit_5 -> h_5
I0303 14:57:34.051126 28889 net.cpp:113] Setting up RGB_lstm1_unit_5
I0303 14:57:34.051141 28889 net.cpp:120] Top shape: 1 54 100 (5400)
I0303 14:57:34.051152 28889 net.cpp:120] Top shape: 1 54 100 (5400)
I0303 14:57:34.051162 28889 layer_factory.hpp:74] Creating layer h_5_RGB_lstm1_unit_5_1_split
I0303 14:57:34.051170 28889 net.cpp:84] Creating Layer h_5_RGB_lstm1_unit_5_1_split
I0303 14:57:34.051182 28889 net.cpp:381] h_5_RGB_lstm1_unit_5_1_split <- h_5
I0303 14:57:34.051203 28889 net.cpp:339] h_5_RGB_lstm1_unit_5_1_split -> h_5_RGB_lstm1_unit_5_1_split_0
I0303 14:57:34.051215 28889 net.cpp:339] h_5_RGB_lstm1_unit_5_1_split -> h_5_RGB_lstm1_unit_5_1_split_1
I0303 14:57:34.051228 28889 net.cpp:113] Setting up h_5_RGB_lstm1_unit_5_1_split
I0303 14:57:34.051241 28889 net.cpp:120] Top shape: 1 54 100 (5400)
I0303 14:57:34.051272 28889 net.cpp:120] Top shape: 1 54 100 (5400)
I0303 14:57:34.051285 28889 layer_factory.hpp:74] Creating layer RGB_lstm1_h_conted_5
I0303 14:57:34.051295 28889 net.cpp:84] Creating Layer RGB_lstm1_h_conted_5
I0303 14:57:34.051306 28889 net.cpp:381] RGB_lstm1_h_conted_5 <- h_5_RGB_lstm1_unit_5_1_split_0
I0303 14:57:34.051316 28889 net.cpp:381] RGB_lstm1_h_conted_5 <- cont_6_RGB_lstm1_cont_slice_5_split_0
I0303 14:57:34.051328 28889 net.cpp:339] RGB_lstm1_h_conted_5 -> h_conted_5
I0303 14:57:34.051362 28889 net.cpp:113] Setting up RGB_lstm1_h_conted_5
I0303 14:57:34.051378 28889 net.cpp:120] Top shape: 1 54 100 (5400)
I0303 14:57:34.051389 28889 layer_factory.hpp:74] Creating layer RGB_lstm1_transform_6
I0303 14:57:34.051400 28889 net.cpp:84] Creating Layer RGB_lstm1_transform_6
I0303 14:57:34.051411 28889 net.cpp:381] RGB_lstm1_transform_6 <- h_conted_5
I0303 14:57:34.051422 28889 net.cpp:339] RGB_lstm1_transform_6 -> W_hc_h_5
I0303 14:57:34.051439 28889 net.cpp:113] Setting up RGB_lstm1_transform_6
I0303 14:57:34.051841 28889 net.cpp:120] Top shape: 1 54 400 (21600)
I0303 14:57:34.051856 28889 net.cpp:425] Sharing parameters 'W_hc' owned by layer 'RGB_lstm1_transform_1', param index 0
I0303 14:57:34.051868 28889 layer_factory.hpp:74] Creating layer RGB_lstm1_gate_input_6
I0303 14:57:34.051884 28889 net.cpp:84] Creating Layer RGB_lstm1_gate_input_6
I0303 14:57:34.051894 28889 net.cpp:381] RGB_lstm1_gate_input_6 <- W_hc_h_5
I0303 14:57:34.051904 28889 net.cpp:381] RGB_lstm1_gate_input_6 <- W_xc_x_6
I0303 14:57:34.051924 28889 net.cpp:339] RGB_lstm1_gate_input_6 -> gate_input_6
I0303 14:57:34.051940 28889 net.cpp:113] Setting up RGB_lstm1_gate_input_6
I0303 14:57:34.051954 28889 net.cpp:120] Top shape: 1 54 400 (21600)
I0303 14:57:34.051964 28889 layer_factory.hpp:74] Creating layer RGB_lstm1_unit_6
I0303 14:57:34.051977 28889 net.cpp:84] Creating Layer RGB_lstm1_unit_6
I0303 14:57:34.051986 28889 net.cpp:381] RGB_lstm1_unit_6 <- c_5
I0303 14:57:34.052001 28889 net.cpp:381] RGB_lstm1_unit_6 <- gate_input_6
I0303 14:57:34.052013 28889 net.cpp:381] RGB_lstm1_unit_6 <- cont_6_RGB_lstm1_cont_slice_5_split_1
I0303 14:57:34.052023 28889 net.cpp:339] RGB_lstm1_unit_6 -> c_6
I0303 14:57:34.052040 28889 net.cpp:339] RGB_lstm1_unit_6 -> h_6
I0303 14:57:34.052054 28889 net.cpp:113] Setting up RGB_lstm1_unit_6
I0303 14:57:34.052067 28889 net.cpp:120] Top shape: 1 54 100 (5400)
I0303 14:57:34.052076 28889 net.cpp:120] Top shape: 1 54 100 (5400)
I0303 14:57:34.052086 28889 layer_factory.hpp:74] Creating layer h_6_RGB_lstm1_unit_6_1_split
I0303 14:57:34.052098 28889 net.cpp:84] Creating Layer h_6_RGB_lstm1_unit_6_1_split
I0303 14:57:34.052110 28889 net.cpp:381] h_6_RGB_lstm1_unit_6_1_split <- h_6
I0303 14:57:34.052122 28889 net.cpp:339] h_6_RGB_lstm1_unit_6_1_split -> h_6_RGB_lstm1_unit_6_1_split_0
I0303 14:57:34.052136 28889 net.cpp:339] h_6_RGB_lstm1_unit_6_1_split -> h_6_RGB_lstm1_unit_6_1_split_1
I0303 14:57:34.052152 28889 net.cpp:113] Setting up h_6_RGB_lstm1_unit_6_1_split
I0303 14:57:34.052165 28889 net.cpp:120] Top shape: 1 54 100 (5400)
I0303 14:57:34.052175 28889 net.cpp:120] Top shape: 1 54 100 (5400)
I0303 14:57:34.052184 28889 layer_factory.hpp:74] Creating layer RGB_lstm1_h_conted_6
I0303 14:57:34.052201 28889 net.cpp:84] Creating Layer RGB_lstm1_h_conted_6
I0303 14:57:34.052209 28889 net.cpp:381] RGB_lstm1_h_conted_6 <- h_6_RGB_lstm1_unit_6_1_split_0
I0303 14:57:34.052225 28889 net.cpp:381] RGB_lstm1_h_conted_6 <- cont_7_RGB_lstm1_cont_slice_6_split_0
I0303 14:57:34.052242 28889 net.cpp:339] RGB_lstm1_h_conted_6 -> h_conted_6
I0303 14:57:34.052253 28889 net.cpp:113] Setting up RGB_lstm1_h_conted_6
I0303 14:57:34.052265 28889 net.cpp:120] Top shape: 1 54 100 (5400)
I0303 14:57:34.052273 28889 layer_factory.hpp:74] Creating layer RGB_lstm1_transform_7
I0303 14:57:34.052291 28889 net.cpp:84] Creating Layer RGB_lstm1_transform_7
I0303 14:57:34.052301 28889 net.cpp:381] RGB_lstm1_transform_7 <- h_conted_6
I0303 14:57:34.052312 28889 net.cpp:339] RGB_lstm1_transform_7 -> W_hc_h_6
I0303 14:57:34.052328 28889 net.cpp:113] Setting up RGB_lstm1_transform_7
I0303 14:57:34.052750 28889 net.cpp:120] Top shape: 1 54 400 (21600)
I0303 14:57:34.052769 28889 net.cpp:425] Sharing parameters 'W_hc' owned by layer 'RGB_lstm1_transform_1', param index 0
I0303 14:57:34.052783 28889 layer_factory.hpp:74] Creating layer RGB_lstm1_gate_input_7
I0303 14:57:34.052796 28889 net.cpp:84] Creating Layer RGB_lstm1_gate_input_7
I0303 14:57:34.052809 28889 net.cpp:381] RGB_lstm1_gate_input_7 <- W_hc_h_6
I0303 14:57:34.052819 28889 net.cpp:381] RGB_lstm1_gate_input_7 <- W_xc_x_7
I0303 14:57:34.052834 28889 net.cpp:339] RGB_lstm1_gate_input_7 -> gate_input_7
I0303 14:57:34.052848 28889 net.cpp:113] Setting up RGB_lstm1_gate_input_7
I0303 14:57:34.052861 28889 net.cpp:120] Top shape: 1 54 400 (21600)
I0303 14:57:34.052875 28889 layer_factory.hpp:74] Creating layer RGB_lstm1_unit_7
I0303 14:57:34.052887 28889 net.cpp:84] Creating Layer RGB_lstm1_unit_7
I0303 14:57:34.052896 28889 net.cpp:381] RGB_lstm1_unit_7 <- c_6
I0303 14:57:34.052911 28889 net.cpp:381] RGB_lstm1_unit_7 <- gate_input_7
I0303 14:57:34.052920 28889 net.cpp:381] RGB_lstm1_unit_7 <- cont_7_RGB_lstm1_cont_slice_6_split_1
I0303 14:57:34.052935 28889 net.cpp:339] RGB_lstm1_unit_7 -> c_7
I0303 14:57:34.052948 28889 net.cpp:339] RGB_lstm1_unit_7 -> h_7
I0303 14:57:34.052966 28889 net.cpp:113] Setting up RGB_lstm1_unit_7
I0303 14:57:34.052978 28889 net.cpp:120] Top shape: 1 54 100 (5400)
I0303 14:57:34.052992 28889 net.cpp:120] Top shape: 1 54 100 (5400)
I0303 14:57:34.053002 28889 layer_factory.hpp:74] Creating layer h_7_RGB_lstm1_unit_7_1_split
I0303 14:57:34.053012 28889 net.cpp:84] Creating Layer h_7_RGB_lstm1_unit_7_1_split
I0303 14:57:34.053025 28889 net.cpp:381] h_7_RGB_lstm1_unit_7_1_split <- h_7
I0303 14:57:34.053037 28889 net.cpp:339] h_7_RGB_lstm1_unit_7_1_split -> h_7_RGB_lstm1_unit_7_1_split_0
I0303 14:57:34.053050 28889 net.cpp:339] h_7_RGB_lstm1_unit_7_1_split -> h_7_RGB_lstm1_unit_7_1_split_1
I0303 14:57:34.053064 28889 net.cpp:113] Setting up h_7_RGB_lstm1_unit_7_1_split
I0303 14:57:34.053077 28889 net.cpp:120] Top shape: 1 54 100 (5400)
I0303 14:57:34.053087 28889 net.cpp:120] Top shape: 1 54 100 (5400)
I0303 14:57:34.053097 28889 layer_factory.hpp:74] Creating layer RGB_lstm1_h_conted_7
I0303 14:57:34.053112 28889 net.cpp:84] Creating Layer RGB_lstm1_h_conted_7
I0303 14:57:34.053122 28889 net.cpp:381] RGB_lstm1_h_conted_7 <- h_7_RGB_lstm1_unit_7_1_split_0
I0303 14:57:34.053133 28889 net.cpp:381] RGB_lstm1_h_conted_7 <- cont_8_RGB_lstm1_cont_slice_7_split_0
I0303 14:57:34.053143 28889 net.cpp:339] RGB_lstm1_h_conted_7 -> h_conted_7
I0303 14:57:34.053158 28889 net.cpp:113] Setting up RGB_lstm1_h_conted_7
I0303 14:57:34.053169 28889 net.cpp:120] Top shape: 1 54 100 (5400)
I0303 14:57:34.053179 28889 layer_factory.hpp:74] Creating layer RGB_lstm1_transform_8
I0303 14:57:34.053206 28889 net.cpp:84] Creating Layer RGB_lstm1_transform_8
I0303 14:57:34.053216 28889 net.cpp:381] RGB_lstm1_transform_8 <- h_conted_7
I0303 14:57:34.053231 28889 net.cpp:339] RGB_lstm1_transform_8 -> W_hc_h_7
I0303 14:57:34.053244 28889 net.cpp:113] Setting up RGB_lstm1_transform_8
I0303 14:57:34.053642 28889 net.cpp:120] Top shape: 1 54 400 (21600)
I0303 14:57:34.053658 28889 net.cpp:425] Sharing parameters 'W_hc' owned by layer 'RGB_lstm1_transform_1', param index 0
I0303 14:57:34.053669 28889 layer_factory.hpp:74] Creating layer RGB_lstm1_gate_input_8
I0303 14:57:34.053686 28889 net.cpp:84] Creating Layer RGB_lstm1_gate_input_8
I0303 14:57:34.053697 28889 net.cpp:381] RGB_lstm1_gate_input_8 <- W_hc_h_7
I0303 14:57:34.053710 28889 net.cpp:381] RGB_lstm1_gate_input_8 <- W_xc_x_8
I0303 14:57:34.053725 28889 net.cpp:339] RGB_lstm1_gate_input_8 -> gate_input_8
I0303 14:57:34.053740 28889 net.cpp:113] Setting up RGB_lstm1_gate_input_8
I0303 14:57:34.053752 28889 net.cpp:120] Top shape: 1 54 400 (21600)
I0303 14:57:34.053764 28889 layer_factory.hpp:74] Creating layer RGB_lstm1_unit_8
I0303 14:57:34.053781 28889 net.cpp:84] Creating Layer RGB_lstm1_unit_8
I0303 14:57:34.053789 28889 net.cpp:381] RGB_lstm1_unit_8 <- c_7
I0303 14:57:34.053815 28889 net.cpp:381] RGB_lstm1_unit_8 <- gate_input_8
I0303 14:57:34.053830 28889 net.cpp:381] RGB_lstm1_unit_8 <- cont_8_RGB_lstm1_cont_slice_7_split_1
I0303 14:57:34.053844 28889 net.cpp:339] RGB_lstm1_unit_8 -> c_8
I0303 14:57:34.053858 28889 net.cpp:339] RGB_lstm1_unit_8 -> h_8
I0303 14:57:34.053870 28889 net.cpp:113] Setting up RGB_lstm1_unit_8
I0303 14:57:34.053886 28889 net.cpp:120] Top shape: 1 54 100 (5400)
I0303 14:57:34.053896 28889 net.cpp:120] Top shape: 1 54 100 (5400)
I0303 14:57:34.053910 28889 layer_factory.hpp:74] Creating layer h_8_RGB_lstm1_unit_8_1_split
I0303 14:57:34.053922 28889 net.cpp:84] Creating Layer h_8_RGB_lstm1_unit_8_1_split
I0303 14:57:34.053931 28889 net.cpp:381] h_8_RGB_lstm1_unit_8_1_split <- h_8
I0303 14:57:34.053946 28889 net.cpp:339] h_8_RGB_lstm1_unit_8_1_split -> h_8_RGB_lstm1_unit_8_1_split_0
I0303 14:57:34.053957 28889 net.cpp:339] h_8_RGB_lstm1_unit_8_1_split -> h_8_RGB_lstm1_unit_8_1_split_1
I0303 14:57:34.053972 28889 net.cpp:113] Setting up h_8_RGB_lstm1_unit_8_1_split
I0303 14:57:34.053987 28889 net.cpp:120] Top shape: 1 54 100 (5400)
I0303 14:57:34.053998 28889 net.cpp:120] Top shape: 1 54 100 (5400)
I0303 14:57:34.054006 28889 layer_factory.hpp:74] Creating layer RGB_lstm1_h_conted_8
I0303 14:57:34.054018 28889 net.cpp:84] Creating Layer RGB_lstm1_h_conted_8
I0303 14:57:34.054028 28889 net.cpp:381] RGB_lstm1_h_conted_8 <- h_8_RGB_lstm1_unit_8_1_split_0
I0303 14:57:34.054041 28889 net.cpp:381] RGB_lstm1_h_conted_8 <- cont_9_RGB_lstm1_cont_slice_8_split_0
I0303 14:57:34.054051 28889 net.cpp:339] RGB_lstm1_h_conted_8 -> h_conted_8
I0303 14:57:34.054069 28889 net.cpp:113] Setting up RGB_lstm1_h_conted_8
I0303 14:57:34.054080 28889 net.cpp:120] Top shape: 1 54 100 (5400)
I0303 14:57:34.054095 28889 layer_factory.hpp:74] Creating layer RGB_lstm1_transform_9
I0303 14:57:34.054106 28889 net.cpp:84] Creating Layer RGB_lstm1_transform_9
I0303 14:57:34.054116 28889 net.cpp:381] RGB_lstm1_transform_9 <- h_conted_8
I0303 14:57:34.054131 28889 net.cpp:339] RGB_lstm1_transform_9 -> W_hc_h_8
I0303 14:57:34.054146 28889 net.cpp:113] Setting up RGB_lstm1_transform_9
I0303 14:57:34.054556 28889 net.cpp:120] Top shape: 1 54 400 (21600)
I0303 14:57:34.054572 28889 net.cpp:425] Sharing parameters 'W_hc' owned by layer 'RGB_lstm1_transform_1', param index 0
I0303 14:57:34.054584 28889 layer_factory.hpp:74] Creating layer RGB_lstm1_gate_input_9
I0303 14:57:34.054599 28889 net.cpp:84] Creating Layer RGB_lstm1_gate_input_9
I0303 14:57:34.054610 28889 net.cpp:381] RGB_lstm1_gate_input_9 <- W_hc_h_8
I0303 14:57:34.054620 28889 net.cpp:381] RGB_lstm1_gate_input_9 <- W_xc_x_9
I0303 14:57:34.054636 28889 net.cpp:339] RGB_lstm1_gate_input_9 -> gate_input_9
I0303 14:57:34.054647 28889 net.cpp:113] Setting up RGB_lstm1_gate_input_9
I0303 14:57:34.054661 28889 net.cpp:120] Top shape: 1 54 400 (21600)
I0303 14:57:34.054669 28889 layer_factory.hpp:74] Creating layer RGB_lstm1_unit_9
I0303 14:57:34.054684 28889 net.cpp:84] Creating Layer RGB_lstm1_unit_9
I0303 14:57:34.054694 28889 net.cpp:381] RGB_lstm1_unit_9 <- c_8
I0303 14:57:34.054704 28889 net.cpp:381] RGB_lstm1_unit_9 <- gate_input_9
I0303 14:57:34.054718 28889 net.cpp:381] RGB_lstm1_unit_9 <- cont_9_RGB_lstm1_cont_slice_8_split_1
I0303 14:57:34.054733 28889 net.cpp:339] RGB_lstm1_unit_9 -> c_9
I0303 14:57:34.054745 28889 net.cpp:339] RGB_lstm1_unit_9 -> h_9
I0303 14:57:34.054760 28889 net.cpp:113] Setting up RGB_lstm1_unit_9
I0303 14:57:34.054774 28889 net.cpp:120] Top shape: 1 54 100 (5400)
I0303 14:57:34.054783 28889 net.cpp:120] Top shape: 1 54 100 (5400)
I0303 14:57:34.054792 28889 layer_factory.hpp:74] Creating layer h_9_RGB_lstm1_unit_9_1_split
I0303 14:57:34.054803 28889 net.cpp:84] Creating Layer h_9_RGB_lstm1_unit_9_1_split
I0303 14:57:34.054812 28889 net.cpp:381] h_9_RGB_lstm1_unit_9_1_split <- h_9
I0303 14:57:34.054829 28889 net.cpp:339] h_9_RGB_lstm1_unit_9_1_split -> h_9_RGB_lstm1_unit_9_1_split_0
I0303 14:57:34.054842 28889 net.cpp:339] h_9_RGB_lstm1_unit_9_1_split -> h_9_RGB_lstm1_unit_9_1_split_1
I0303 14:57:34.054872 28889 net.cpp:113] Setting up h_9_RGB_lstm1_unit_9_1_split
I0303 14:57:34.054885 28889 net.cpp:120] Top shape: 1 54 100 (5400)
I0303 14:57:34.054896 28889 net.cpp:120] Top shape: 1 54 100 (5400)
I0303 14:57:34.054905 28889 layer_factory.hpp:74] Creating layer RGB_lstm1_h_conted_9
I0303 14:57:34.054916 28889 net.cpp:84] Creating Layer RGB_lstm1_h_conted_9
I0303 14:57:34.054925 28889 net.cpp:381] RGB_lstm1_h_conted_9 <- h_9_RGB_lstm1_unit_9_1_split_0
I0303 14:57:34.054940 28889 net.cpp:381] RGB_lstm1_h_conted_9 <- cont_10_RGB_lstm1_cont_slice_9_split_0
I0303 14:57:34.054955 28889 net.cpp:339] RGB_lstm1_h_conted_9 -> h_conted_9
I0303 14:57:34.054966 28889 net.cpp:113] Setting up RGB_lstm1_h_conted_9
I0303 14:57:34.054980 28889 net.cpp:120] Top shape: 1 54 100 (5400)
I0303 14:57:34.054990 28889 layer_factory.hpp:74] Creating layer RGB_lstm1_transform_10
I0303 14:57:34.054999 28889 net.cpp:84] Creating Layer RGB_lstm1_transform_10
I0303 14:57:34.055011 28889 net.cpp:381] RGB_lstm1_transform_10 <- h_conted_9
I0303 14:57:34.055023 28889 net.cpp:339] RGB_lstm1_transform_10 -> W_hc_h_9
I0303 14:57:34.055037 28889 net.cpp:113] Setting up RGB_lstm1_transform_10
I0303 14:57:34.055440 28889 net.cpp:120] Top shape: 1 54 400 (21600)
I0303 14:57:34.055456 28889 net.cpp:425] Sharing parameters 'W_hc' owned by layer 'RGB_lstm1_transform_1', param index 0
I0303 14:57:34.055469 28889 layer_factory.hpp:74] Creating layer RGB_lstm1_gate_input_10
I0303 14:57:34.055481 28889 net.cpp:84] Creating Layer RGB_lstm1_gate_input_10
I0303 14:57:34.055492 28889 net.cpp:381] RGB_lstm1_gate_input_10 <- W_hc_h_9
I0303 14:57:34.055502 28889 net.cpp:381] RGB_lstm1_gate_input_10 <- W_xc_x_10
I0303 14:57:34.055516 28889 net.cpp:339] RGB_lstm1_gate_input_10 -> gate_input_10
I0303 14:57:34.055528 28889 net.cpp:113] Setting up RGB_lstm1_gate_input_10
I0303 14:57:34.055541 28889 net.cpp:120] Top shape: 1 54 400 (21600)
I0303 14:57:34.055549 28889 layer_factory.hpp:74] Creating layer RGB_lstm1_unit_10
I0303 14:57:34.055559 28889 net.cpp:84] Creating Layer RGB_lstm1_unit_10
I0303 14:57:34.055568 28889 net.cpp:381] RGB_lstm1_unit_10 <- c_9
I0303 14:57:34.055578 28889 net.cpp:381] RGB_lstm1_unit_10 <- gate_input_10
I0303 14:57:34.055589 28889 net.cpp:381] RGB_lstm1_unit_10 <- cont_10_RGB_lstm1_cont_slice_9_split_1
I0303 14:57:34.055603 28889 net.cpp:339] RGB_lstm1_unit_10 -> c_10
I0303 14:57:34.055615 28889 net.cpp:339] RGB_lstm1_unit_10 -> h_10
I0303 14:57:34.055626 28889 net.cpp:113] Setting up RGB_lstm1_unit_10
I0303 14:57:34.055639 28889 net.cpp:120] Top shape: 1 54 100 (5400)
I0303 14:57:34.055649 28889 net.cpp:120] Top shape: 1 54 100 (5400)
I0303 14:57:34.055662 28889 layer_factory.hpp:74] Creating layer h_10_RGB_lstm1_unit_10_1_split
I0303 14:57:34.055672 28889 net.cpp:84] Creating Layer h_10_RGB_lstm1_unit_10_1_split
I0303 14:57:34.055681 28889 net.cpp:381] h_10_RGB_lstm1_unit_10_1_split <- h_10
I0303 14:57:34.055692 28889 net.cpp:339] h_10_RGB_lstm1_unit_10_1_split -> h_10_RGB_lstm1_unit_10_1_split_0
I0303 14:57:34.055706 28889 net.cpp:339] h_10_RGB_lstm1_unit_10_1_split -> h_10_RGB_lstm1_unit_10_1_split_1
I0303 14:57:34.055719 28889 net.cpp:113] Setting up h_10_RGB_lstm1_unit_10_1_split
I0303 14:57:34.055732 28889 net.cpp:120] Top shape: 1 54 100 (5400)
I0303 14:57:34.055745 28889 net.cpp:120] Top shape: 1 54 100 (5400)
I0303 14:57:34.055757 28889 layer_factory.hpp:74] Creating layer RGB_lstm1_h_conted_10
I0303 14:57:34.055768 28889 net.cpp:84] Creating Layer RGB_lstm1_h_conted_10
I0303 14:57:34.055776 28889 net.cpp:381] RGB_lstm1_h_conted_10 <- h_10_RGB_lstm1_unit_10_1_split_0
I0303 14:57:34.055788 28889 net.cpp:381] RGB_lstm1_h_conted_10 <- cont_11_RGB_lstm1_cont_slice_10_split_0
I0303 14:57:34.055800 28889 net.cpp:339] RGB_lstm1_h_conted_10 -> h_conted_10
I0303 14:57:34.055814 28889 net.cpp:113] Setting up RGB_lstm1_h_conted_10
I0303 14:57:34.055824 28889 net.cpp:120] Top shape: 1 54 100 (5400)
I0303 14:57:34.055833 28889 layer_factory.hpp:74] Creating layer RGB_lstm1_transform_11
I0303 14:57:34.055850 28889 net.cpp:84] Creating Layer RGB_lstm1_transform_11
I0303 14:57:34.055873 28889 net.cpp:381] RGB_lstm1_transform_11 <- h_conted_10
I0303 14:57:34.055891 28889 net.cpp:339] RGB_lstm1_transform_11 -> W_hc_h_10
I0303 14:57:34.055903 28889 net.cpp:113] Setting up RGB_lstm1_transform_11
I0303 14:57:34.056304 28889 net.cpp:120] Top shape: 1 54 400 (21600)
I0303 14:57:34.056320 28889 net.cpp:425] Sharing parameters 'W_hc' owned by layer 'RGB_lstm1_transform_1', param index 0
I0303 14:57:34.056332 28889 layer_factory.hpp:74] Creating layer RGB_lstm1_gate_input_11
I0303 14:57:34.056347 28889 net.cpp:84] Creating Layer RGB_lstm1_gate_input_11
I0303 14:57:34.056357 28889 net.cpp:381] RGB_lstm1_gate_input_11 <- W_hc_h_10
I0303 14:57:34.056368 28889 net.cpp:381] RGB_lstm1_gate_input_11 <- W_xc_x_11
I0303 14:57:34.056385 28889 net.cpp:339] RGB_lstm1_gate_input_11 -> gate_input_11
I0303 14:57:34.056398 28889 net.cpp:113] Setting up RGB_lstm1_gate_input_11
I0303 14:57:34.056412 28889 net.cpp:120] Top shape: 1 54 400 (21600)
I0303 14:57:34.056421 28889 layer_factory.hpp:74] Creating layer RGB_lstm1_unit_11
I0303 14:57:34.056437 28889 net.cpp:84] Creating Layer RGB_lstm1_unit_11
I0303 14:57:34.056445 28889 net.cpp:381] RGB_lstm1_unit_11 <- c_10
I0303 14:57:34.056488 28889 net.cpp:381] RGB_lstm1_unit_11 <- gate_input_11
I0303 14:57:34.056506 28889 net.cpp:381] RGB_lstm1_unit_11 <- cont_11_RGB_lstm1_cont_slice_10_split_1
I0303 14:57:34.056522 28889 net.cpp:339] RGB_lstm1_unit_11 -> c_11
I0303 14:57:34.056540 28889 net.cpp:339] RGB_lstm1_unit_11 -> h_11
I0303 14:57:34.056552 28889 net.cpp:113] Setting up RGB_lstm1_unit_11
I0303 14:57:34.056566 28889 net.cpp:120] Top shape: 1 54 100 (5400)
I0303 14:57:34.056589 28889 net.cpp:120] Top shape: 1 54 100 (5400)
I0303 14:57:34.056605 28889 layer_factory.hpp:74] Creating layer h_11_RGB_lstm1_unit_11_1_split
I0303 14:57:34.056623 28889 net.cpp:84] Creating Layer h_11_RGB_lstm1_unit_11_1_split
I0303 14:57:34.056640 28889 net.cpp:381] h_11_RGB_lstm1_unit_11_1_split <- h_11
I0303 14:57:34.056653 28889 net.cpp:339] h_11_RGB_lstm1_unit_11_1_split -> h_11_RGB_lstm1_unit_11_1_split_0
I0303 14:57:34.056666 28889 net.cpp:339] h_11_RGB_lstm1_unit_11_1_split -> h_11_RGB_lstm1_unit_11_1_split_1
I0303 14:57:34.056682 28889 net.cpp:113] Setting up h_11_RGB_lstm1_unit_11_1_split
I0303 14:57:34.056694 28889 net.cpp:120] Top shape: 1 54 100 (5400)
I0303 14:57:34.056706 28889 net.cpp:120] Top shape: 1 54 100 (5400)
I0303 14:57:34.056715 28889 layer_factory.hpp:74] Creating layer RGB_lstm1_h_conted_11
I0303 14:57:34.056730 28889 net.cpp:84] Creating Layer RGB_lstm1_h_conted_11
I0303 14:57:34.056740 28889 net.cpp:381] RGB_lstm1_h_conted_11 <- h_11_RGB_lstm1_unit_11_1_split_0
I0303 14:57:34.056751 28889 net.cpp:381] RGB_lstm1_h_conted_11 <- cont_12_RGB_lstm1_cont_slice_11_split_0
I0303 14:57:34.056762 28889 net.cpp:339] RGB_lstm1_h_conted_11 -> h_conted_11
I0303 14:57:34.056778 28889 net.cpp:113] Setting up RGB_lstm1_h_conted_11
I0303 14:57:34.056790 28889 net.cpp:120] Top shape: 1 54 100 (5400)
I0303 14:57:34.056802 28889 layer_factory.hpp:74] Creating layer RGB_lstm1_transform_12
I0303 14:57:34.056818 28889 net.cpp:84] Creating Layer RGB_lstm1_transform_12
I0303 14:57:34.056829 28889 net.cpp:381] RGB_lstm1_transform_12 <- h_conted_11
I0303 14:57:34.056846 28889 net.cpp:339] RGB_lstm1_transform_12 -> W_hc_h_11
I0303 14:57:34.056860 28889 net.cpp:113] Setting up RGB_lstm1_transform_12
I0303 14:57:34.057302 28889 net.cpp:120] Top shape: 1 54 400 (21600)
I0303 14:57:34.057322 28889 net.cpp:425] Sharing parameters 'W_hc' owned by layer 'RGB_lstm1_transform_1', param index 0
I0303 14:57:34.057333 28889 layer_factory.hpp:74] Creating layer RGB_lstm1_gate_input_12
I0303 14:57:34.057353 28889 net.cpp:84] Creating Layer RGB_lstm1_gate_input_12
I0303 14:57:34.057363 28889 net.cpp:381] RGB_lstm1_gate_input_12 <- W_hc_h_11
I0303 14:57:34.057374 28889 net.cpp:381] RGB_lstm1_gate_input_12 <- W_xc_x_12
I0303 14:57:34.057390 28889 net.cpp:339] RGB_lstm1_gate_input_12 -> gate_input_12
I0303 14:57:34.057415 28889 net.cpp:113] Setting up RGB_lstm1_gate_input_12
I0303 14:57:34.057428 28889 net.cpp:120] Top shape: 1 54 400 (21600)
I0303 14:57:34.057453 28889 layer_factory.hpp:74] Creating layer RGB_lstm1_unit_12
I0303 14:57:34.057471 28889 net.cpp:84] Creating Layer RGB_lstm1_unit_12
I0303 14:57:34.057482 28889 net.cpp:381] RGB_lstm1_unit_12 <- c_11
I0303 14:57:34.057492 28889 net.cpp:381] RGB_lstm1_unit_12 <- gate_input_12
I0303 14:57:34.057505 28889 net.cpp:381] RGB_lstm1_unit_12 <- cont_12_RGB_lstm1_cont_slice_11_split_1
I0303 14:57:34.057517 28889 net.cpp:339] RGB_lstm1_unit_12 -> c_12
I0303 14:57:34.057533 28889 net.cpp:339] RGB_lstm1_unit_12 -> h_12
I0303 14:57:34.057545 28889 net.cpp:113] Setting up RGB_lstm1_unit_12
I0303 14:57:34.057564 28889 net.cpp:120] Top shape: 1 54 100 (5400)
I0303 14:57:34.057574 28889 net.cpp:120] Top shape: 1 54 100 (5400)
I0303 14:57:34.057584 28889 layer_factory.hpp:74] Creating layer h_12_RGB_lstm1_unit_12_1_split
I0303 14:57:34.057593 28889 net.cpp:84] Creating Layer h_12_RGB_lstm1_unit_12_1_split
I0303 14:57:34.057603 28889 net.cpp:381] h_12_RGB_lstm1_unit_12_1_split <- h_12
I0303 14:57:34.057615 28889 net.cpp:339] h_12_RGB_lstm1_unit_12_1_split -> h_12_RGB_lstm1_unit_12_1_split_0
I0303 14:57:34.057631 28889 net.cpp:339] h_12_RGB_lstm1_unit_12_1_split -> h_12_RGB_lstm1_unit_12_1_split_1
I0303 14:57:34.057644 28889 net.cpp:113] Setting up h_12_RGB_lstm1_unit_12_1_split
I0303 14:57:34.057657 28889 net.cpp:120] Top shape: 1 54 100 (5400)
I0303 14:57:34.057667 28889 net.cpp:120] Top shape: 1 54 100 (5400)
I0303 14:57:34.057677 28889 layer_factory.hpp:74] Creating layer RGB_lstm1_h_conted_12
I0303 14:57:34.057688 28889 net.cpp:84] Creating Layer RGB_lstm1_h_conted_12
I0303 14:57:34.057703 28889 net.cpp:381] RGB_lstm1_h_conted_12 <- h_12_RGB_lstm1_unit_12_1_split_0
I0303 14:57:34.057713 28889 net.cpp:381] RGB_lstm1_h_conted_12 <- cont_13_RGB_lstm1_cont_slice_12_split_0
I0303 14:57:34.057724 28889 net.cpp:339] RGB_lstm1_h_conted_12 -> h_conted_12
I0303 14:57:34.057741 28889 net.cpp:113] Setting up RGB_lstm1_h_conted_12
I0303 14:57:34.057754 28889 net.cpp:120] Top shape: 1 54 100 (5400)
I0303 14:57:34.057762 28889 layer_factory.hpp:74] Creating layer RGB_lstm1_transform_13
I0303 14:57:34.057782 28889 net.cpp:84] Creating Layer RGB_lstm1_transform_13
I0303 14:57:34.057793 28889 net.cpp:381] RGB_lstm1_transform_13 <- h_conted_12
I0303 14:57:34.057804 28889 net.cpp:339] RGB_lstm1_transform_13 -> W_hc_h_12
I0303 14:57:34.057817 28889 net.cpp:113] Setting up RGB_lstm1_transform_13
I0303 14:57:34.058218 28889 net.cpp:120] Top shape: 1 54 400 (21600)
I0303 14:57:34.058234 28889 net.cpp:425] Sharing parameters 'W_hc' owned by layer 'RGB_lstm1_transform_1', param index 0
I0303 14:57:34.058246 28889 layer_factory.hpp:74] Creating layer RGB_lstm1_gate_input_13
I0303 14:57:34.058262 28889 net.cpp:84] Creating Layer RGB_lstm1_gate_input_13
I0303 14:57:34.058274 28889 net.cpp:381] RGB_lstm1_gate_input_13 <- W_hc_h_12
I0303 14:57:34.058285 28889 net.cpp:381] RGB_lstm1_gate_input_13 <- W_xc_x_13
I0303 14:57:34.058298 28889 net.cpp:339] RGB_lstm1_gate_input_13 -> gate_input_13
I0303 14:57:34.058310 28889 net.cpp:113] Setting up RGB_lstm1_gate_input_13
I0303 14:57:34.058325 28889 net.cpp:120] Top shape: 1 54 400 (21600)
I0303 14:57:34.058333 28889 layer_factory.hpp:74] Creating layer RGB_lstm1_unit_13
I0303 14:57:34.058351 28889 net.cpp:84] Creating Layer RGB_lstm1_unit_13
I0303 14:57:34.058362 28889 net.cpp:381] RGB_lstm1_unit_13 <- c_12
I0303 14:57:34.058374 28889 net.cpp:381] RGB_lstm1_unit_13 <- gate_input_13
I0303 14:57:34.058385 28889 net.cpp:381] RGB_lstm1_unit_13 <- cont_13_RGB_lstm1_cont_slice_12_split_1
I0303 14:57:34.058400 28889 net.cpp:339] RGB_lstm1_unit_13 -> c_13
I0303 14:57:34.058413 28889 net.cpp:339] RGB_lstm1_unit_13 -> h_13
I0303 14:57:34.058429 28889 net.cpp:113] Setting up RGB_lstm1_unit_13
I0303 14:57:34.058442 28889 net.cpp:120] Top shape: 1 54 100 (5400)
I0303 14:57:34.058452 28889 net.cpp:120] Top shape: 1 54 100 (5400)
I0303 14:57:34.058460 28889 layer_factory.hpp:74] Creating layer h_13_RGB_lstm1_unit_13_1_split
I0303 14:57:34.058472 28889 net.cpp:84] Creating Layer h_13_RGB_lstm1_unit_13_1_split
I0303 14:57:34.058495 28889 net.cpp:381] h_13_RGB_lstm1_unit_13_1_split <- h_13
I0303 14:57:34.058511 28889 net.cpp:339] h_13_RGB_lstm1_unit_13_1_split -> h_13_RGB_lstm1_unit_13_1_split_0
I0303 14:57:34.058524 28889 net.cpp:339] h_13_RGB_lstm1_unit_13_1_split -> h_13_RGB_lstm1_unit_13_1_split_1
I0303 14:57:34.058539 28889 net.cpp:113] Setting up h_13_RGB_lstm1_unit_13_1_split
I0303 14:57:34.058553 28889 net.cpp:120] Top shape: 1 54 100 (5400)
I0303 14:57:34.058563 28889 net.cpp:120] Top shape: 1 54 100 (5400)
I0303 14:57:34.058574 28889 layer_factory.hpp:74] Creating layer RGB_lstm1_h_conted_13
I0303 14:57:34.058588 28889 net.cpp:84] Creating Layer RGB_lstm1_h_conted_13
I0303 14:57:34.058601 28889 net.cpp:381] RGB_lstm1_h_conted_13 <- h_13_RGB_lstm1_unit_13_1_split_0
I0303 14:57:34.058611 28889 net.cpp:381] RGB_lstm1_h_conted_13 <- cont_14_RGB_lstm1_cont_slice_13_split_0
I0303 14:57:34.058626 28889 net.cpp:339] RGB_lstm1_h_conted_13 -> h_conted_13
I0303 14:57:34.058640 28889 net.cpp:113] Setting up RGB_lstm1_h_conted_13
I0303 14:57:34.058650 28889 net.cpp:120] Top shape: 1 54 100 (5400)
I0303 14:57:34.058660 28889 layer_factory.hpp:74] Creating layer RGB_lstm1_transform_14
I0303 14:57:34.058671 28889 net.cpp:84] Creating Layer RGB_lstm1_transform_14
I0303 14:57:34.058681 28889 net.cpp:381] RGB_lstm1_transform_14 <- h_conted_13
I0303 14:57:34.058698 28889 net.cpp:339] RGB_lstm1_transform_14 -> W_hc_h_13
I0303 14:57:34.058712 28889 net.cpp:113] Setting up RGB_lstm1_transform_14
I0303 14:57:34.059105 28889 net.cpp:120] Top shape: 1 54 400 (21600)
I0303 14:57:34.059121 28889 net.cpp:425] Sharing parameters 'W_hc' owned by layer 'RGB_lstm1_transform_1', param index 0
I0303 14:57:34.059134 28889 layer_factory.hpp:74] Creating layer RGB_lstm1_gate_input_14
…
I0303 14:57:34.082661 28889 layer_factory.hpp:74] Creating layer h_40_RGB_lstm1_unit_40_1_split
I0303 14:57:34.082695 28889 net.cpp:84] Creating Layer h_40_RGB_lstm1_unit_40_1_split
I0303 14:57:34.082712 28889 net.cpp:381] h_40_RGB_lstm1_unit_40_1_split <- h_40
I0303 14:57:34.082725 28889 net.cpp:339] h_40_RGB_lstm1_unit_40_1_split -> h_40_RGB_lstm1_unit_40_1_split_0
I0303 14:57:34.082741 28889 net.cpp:339] h_40_RGB_lstm1_unit_40_1_split -> h_40_RGB_lstm1_unit_40_1_split_1
I0303 14:57:34.082756 28889 net.cpp:113] Setting up h_40_RGB_lstm1_unit_40_1_split
I0303 14:57:34.082767 28889 net.cpp:120] Top shape: 1 54 100 (5400)
I0303 14:57:34.082778 28889 net.cpp:120] Top shape: 1 54 100 (5400)
I0303 14:57:34.082803 28889 layer_factory.hpp:74] Creating layer RGB_lstm1_h_conted_40
I0303 14:57:34.082815 28889 net.cpp:84] Creating Layer RGB_lstm1_h_conted_40
I0303 14:57:34.082830 28889 net.cpp:381] RGB_lstm1_h_conted_40 <- h_40_RGB_lstm1_unit_40_1_split_0
I0303 14:57:34.082841 28889 net.cpp:381] RGB_lstm1_h_conted_40 <- cont_41_RGB_lstm1_cont_slice_40_split_0
I0303 14:57:34.082854 28889 net.cpp:339] RGB_lstm1_h_conted_40 -> h_conted_40
I0303 14:57:34.082867 28889 net.cpp:113] Setting up RGB_lstm1_h_conted_40
I0303 14:57:34.082880 28889 net.cpp:120] Top shape: 1 54 100 (5400)
I0303 14:57:34.082890 28889 layer_factory.hpp:74] Creating layer RGB_lstm1_transform_41
I0303 14:57:34.082904 28889 net.cpp:84] Creating Layer RGB_lstm1_transform_41
I0303 14:57:34.082916 28889 net.cpp:381] RGB_lstm1_transform_41 <- h_conted_40
I0303 14:57:34.082932 28889 net.cpp:339] RGB_lstm1_transform_41 -> W_hc_h_40
I0303 14:57:34.082944 28889 net.cpp:113] Setting up RGB_lstm1_transform_41
I0303 14:57:34.083348 28889 net.cpp:120] Top shape: 1 54 400 (21600)
I0303 14:57:34.083365 28889 net.cpp:425] Sharing parameters 'W_hc' owned by layer 'RGB_lstm1_transform_1', param index 0
I0303 14:57:34.083377 28889 layer_factory.hpp:74] Creating layer RGB_lstm1_gate_input_41
I0303 14:57:34.083392 28889 net.cpp:84] Creating Layer RGB_lstm1_gate_input_41
I0303 14:57:34.083402 28889 net.cpp:381] RGB_lstm1_gate_input_41 <- W_hc_h_40
I0303 14:57:34.083415 28889 net.cpp:381] RGB_lstm1_gate_input_41 <- W_xc_x_41
I0303 14:57:34.083428 28889 net.cpp:339] RGB_lstm1_gate_input_41 -> gate_input_41
I0303 14:57:34.083441 28889 net.cpp:113] Setting up RGB_lstm1_gate_input_41
I0303 14:57:34.083454 28889 net.cpp:120] Top shape: 1 54 400 (21600)
I0303 14:57:34.083463 28889 layer_factory.hpp:74] Creating layer RGB_lstm1_unit_41
I0303 14:57:34.083478 28889 net.cpp:84] Creating Layer RGB_lstm1_unit_41
I0303 14:57:34.083490 28889 net.cpp:381] RGB_lstm1_unit_41 <- c_40
I0303 14:57:34.083501 28889 net.cpp:381] RGB_lstm1_unit_41 <- gate_input_41
I0303 14:57:34.083515 28889 net.cpp:381] RGB_lstm1_unit_41 <- cont_41_RGB_lstm1_cont_slice_40_split_1
I0303 14:57:34.083528 28889 net.cpp:339] RGB_lstm1_unit_41 -> c_41
I0303 14:57:34.083540 28889 net.cpp:339] RGB_lstm1_unit_41 -> h_41
I0303 14:57:34.083554 28889 net.cpp:113] Setting up RGB_lstm1_unit_41
I0303 14:57:34.083569 28889 net.cpp:120] Top shape: 1 54 100 (5400)
I0303 14:57:34.083580 28889 net.cpp:120] Top shape: 1 54 100 (5400)
I0303 14:57:34.083592 28889 layer_factory.hpp:74] Creating layer h_41_RGB_lstm1_unit_41_1_split
I0303 14:57:34.083606 28889 net.cpp:84] Creating Layer h_41_RGB_lstm1_unit_41_1_split
I0303 14:57:34.083617 28889 net.cpp:381] h_41_RGB_lstm1_unit_41_1_split <- h_41
I0303 14:57:34.083629 28889 net.cpp:339] h_41_RGB_lstm1_unit_41_1_split -> h_41_RGB_lstm1_unit_41_1_split_0
I0303 14:57:34.083642 28889 net.cpp:339] h_41_RGB_lstm1_unit_41_1_split -> h_41_RGB_lstm1_unit_41_1_split_1
I0303 14:57:34.083657 28889 net.cpp:113] Setting up h_41_RGB_lstm1_unit_41_1_split
I0303 14:57:34.083667 28889 net.cpp:120] Top shape: 1 54 100 (5400)
I0303 14:57:34.083681 28889 net.cpp:120] Top shape: 1 54 100 (5400)
I0303 14:57:34.083690 28889 layer_factory.hpp:74] Creating layer RGB_lstm1_h_conted_41
I0303 14:57:34.083703 28889 net.cpp:84] Creating Layer RGB_lstm1_h_conted_41
I0303 14:57:34.083716 28889 net.cpp:381] RGB_lstm1_h_conted_41 <- h_41_RGB_lstm1_unit_41_1_split_0
I0303 14:57:34.083729 28889 net.cpp:381] RGB_lstm1_h_conted_41 <- cont_42_RGB_lstm1_cont_slice_41_split_0
I0303 14:57:34.083739 28889 net.cpp:339] RGB_lstm1_h_conted_41 -> h_conted_41
I0303 14:57:34.083753 28889 net.cpp:113] Setting up RGB_lstm1_h_conted_41
I0303 14:57:34.083765 28889 net.cpp:120] Top shape: 1 54 100 (5400)
I0303 14:57:34.083775 28889 layer_factory.hpp:74] Creating layer RGB_lstm1_transform_42
I0303 14:57:34.083788 28889 net.cpp:84] Creating Layer RGB_lstm1_transform_42
I0303 14:57:34.083799 28889 net.cpp:381] RGB_lstm1_transform_42 <- h_conted_41
I0303 14:57:34.083816 28889 net.cpp:339] RGB_lstm1_transform_42 -> W_hc_h_41
I0303 14:57:34.083827 28889 net.cpp:113] Setting up RGB_lstm1_transform_42
I0303 14:57:34.084247 28889 net.cpp:120] Top shape: 1 54 400 (21600)
I0303 14:57:34.084264 28889 net.cpp:425] Sharing parameters 'W_hc' owned by layer 'RGB_lstm1_transform_1', param index 0
I0303 14:57:34.084276 28889 layer_factory.hpp:74] Creating layer RGB_lstm1_gate_input_42
I0303 14:57:34.084295 28889 net.cpp:84] Creating Layer RGB_lstm1_gate_input_42
I0303 14:57:34.084306 28889 net.cpp:381] RGB_lstm1_gate_input_42 <- W_hc_h_41
I0303 14:57:34.084316 28889 net.cpp:381] RGB_lstm1_gate_input_42 <- W_xc_x_42
I0303 14:57:34.084336 28889 net.cpp:339] RGB_lstm1_gate_input_42 -> gate_input_42
I0303 14:57:34.084348 28889 net.cpp:113] Setting up RGB_lstm1_gate_input_42
I0303 14:57:34.084362 28889 net.cpp:120] Top shape: 1 54 400 (21600)
I0303 14:57:34.084370 28889 layer_factory.hpp:74] Creating layer RGB_lstm1_unit_42
I0303 14:57:34.084383 28889 net.cpp:84] Creating Layer RGB_lstm1_unit_42
I0303 14:57:34.084393 28889 net.cpp:381] RGB_lstm1_unit_42 <- c_41
I0303 14:57:34.084410 28889 net.cpp:381] RGB_lstm1_unit_42 <- gate_input_42
I0303 14:57:34.084421 28889 net.cpp:381] RGB_lstm1_unit_42 <- cont_42_RGB_lstm1_cont_slice_41_split_1
I0303 14:57:34.084434 28889 net.cpp:339] RGB_lstm1_unit_42 -> c_42
I0303 14:57:34.084450 28889 net.cpp:339] RGB_lstm1_unit_42 -> h_42
I0303 14:57:34.084506 28889 net.cpp:113] Setting up RGB_lstm1_unit_42
I0303 14:57:34.084523 28889 net.cpp:120] Top shape: 1 54 100 (5400)
I0303 14:57:34.084534 28889 net.cpp:120] Top shape: 1 54 100 (5400)
I0303 14:57:34.084547 28889 layer_factory.hpp:74] Creating layer h_42_RGB_lstm1_unit_42_1_split
I0303 14:57:34.084561 28889 net.cpp:84] Creating Layer h_42_RGB_lstm1_unit_42_1_split
I0303 14:57:34.084571 28889 net.cpp:381] h_42_RGB_lstm1_unit_42_1_split <- h_42
I0303 14:57:34.084583 28889 net.cpp:339] h_42_RGB_lstm1_unit_42_1_split -> h_42_RGB_lstm1_unit_42_1_split_0
I0303 14:57:34.084596 28889 net.cpp:339] h_42_RGB_lstm1_unit_42_1_split -> h_42_RGB_lstm1_unit_42_1_split_1
I0303 14:57:34.084610 28889 net.cpp:113] Setting up h_42_RGB_lstm1_unit_42_1_split
I0303 14:57:34.084622 28889 net.cpp:120] Top shape: 1 54 100 (5400)
I0303 14:57:34.084633 28889 net.cpp:120] Top shape: 1 54 100 (5400)
I0303 14:57:34.084642 28889 layer_factory.hpp:74] Creating layer RGB_lstm1_h_conted_42
I0303 14:57:34.084655 28889 net.cpp:84] Creating Layer RGB_lstm1_h_conted_42
I0303 14:57:34.084666 28889 net.cpp:381] RGB_lstm1_h_conted_42 <- h_42_RGB_lstm1_unit_42_1_split_0
I0303 14:57:34.084681 28889 net.cpp:381] RGB_lstm1_h_conted_42 <- cont_43_RGB_lstm1_cont_slice_42_split_0
I0303 14:57:34.084692 28889 net.cpp:339] RGB_lstm1_h_conted_42 -> h_conted_42
I0303 14:57:34.084705 28889 net.cpp:113] Setting up RGB_lstm1_h_conted_42
I0303 14:57:34.084717 28889 net.cpp:120] Top shape: 1 54 100 (5400)
I0303 14:57:34.084728 28889 layer_factory.hpp:74] Creating layer RGB_lstm1_transform_43
I0303 14:57:34.084741 28889 net.cpp:84] Creating Layer RGB_lstm1_transform_43
I0303 14:57:34.084750 28889 net.cpp:381] RGB_lstm1_transform_43 <- h_conted_42
I0303 14:57:34.084766 28889 net.cpp:339] RGB_lstm1_transform_43 -> W_hc_h_42
I0303 14:57:34.084782 28889 net.cpp:113] Setting up RGB_lstm1_transform_43
I0303 14:57:34.085180 28889 net.cpp:120] Top shape: 1 54 400 (21600)
I0303 14:57:34.085201 28889 net.cpp:425] Sharing parameters 'W_hc' owned by layer 'RGB_lstm1_transform_1', param index 0
I0303 14:57:34.085212 28889 layer_factory.hpp:74] Creating layer RGB_lstm1_gate_input_43
I0303 14:57:34.085227 28889 net.cpp:84] Creating Layer RGB_lstm1_gate_input_43
I0303 14:57:34.085238 28889 net.cpp:381] RGB_lstm1_gate_input_43 <- W_hc_h_42
I0303 14:57:34.085252 28889 net.cpp:381] RGB_lstm1_gate_input_43 <- W_xc_x_43
I0303 14:57:34.085266 28889 net.cpp:339] RGB_lstm1_gate_input_43 -> gate_input_43
I0303 14:57:34.085278 28889 net.cpp:113] Setting up RGB_lstm1_gate_input_43
I0303 14:57:34.085292 28889 net.cpp:120] Top shape: 1 54 400 (21600)
I0303 14:57:34.085304 28889 layer_factory.hpp:74] Creating layer RGB_lstm1_unit_43
I0303 14:57:34.085319 28889 net.cpp:84] Creating Layer RGB_lstm1_unit_43
I0303 14:57:34.085342 28889 net.cpp:381] RGB_lstm1_unit_43 <- c_42
I0303 14:57:34.085355 28889 net.cpp:381] RGB_lstm1_unit_43 <- gate_input_43
I0303 14:57:34.085369 28889 net.cpp:381] RGB_lstm1_unit_43 <- cont_43_RGB_lstm1_cont_slice_42_split_1
I0303 14:57:34.085382 28889 net.cpp:339] RGB_lstm1_unit_43 -> c_43
I0303 14:57:34.085397 28889 net.cpp:339] RGB_lstm1_unit_43 -> h_43
I0303 14:57:34.085412 28889 net.cpp:113] Setting up RGB_lstm1_unit_43
I0303 14:57:34.085429 28889 net.cpp:120] Top shape: 1 54 100 (5400)
I0303 14:57:34.085440 28889 net.cpp:120] Top shape: 1 54 100 (5400)
I0303 14:57:34.085453 28889 layer_factory.hpp:74] Creating layer h_43_RGB_lstm1_unit_43_1_split
I0303 14:57:34.085464 28889 net.cpp:84] Creating Layer h_43_RGB_lstm1_unit_43_1_split
I0303 14:57:34.085472 28889 net.cpp:381] h_43_RGB_lstm1_unit_43_1_split <- h_43
I0303 14:57:34.085487 28889 net.cpp:339] h_43_RGB_lstm1_unit_43_1_split -> h_43_RGB_lstm1_unit_43_1_split_0
I0303 14:57:34.085502 28889 net.cpp:339] h_43_RGB_lstm1_unit_43_1_split -> h_43_RGB_lstm1_unit_43_1_split_1
I0303 14:57:34.085516 28889 net.cpp:113] Setting up h_43_RGB_lstm1_unit_43_1_split
I0303 14:57:34.085528 28889 net.cpp:120] Top shape: 1 54 100 (5400)
I0303 14:57:34.085542 28889 net.cpp:120] Top shape: 1 54 100 (5400)
I0303 14:57:34.085551 28889 layer_factory.hpp:74] Creating layer RGB_lstm1_h_conted_43
I0303 14:57:34.085562 28889 net.cpp:84] Creating Layer RGB_lstm1_h_conted_43
I0303 14:57:34.085573 28889 net.cpp:381] RGB_lstm1_h_conted_43 <- h_43_RGB_lstm1_unit_43_1_split_0
I0303 14:57:34.085588 28889 net.cpp:381] RGB_lstm1_h_conted_43 <- cont_44_RGB_lstm1_cont_slice_43_split_0
I0303 14:57:34.085600 28889 net.cpp:339] RGB_lstm1_h_conted_43 -> h_conted_43
I0303 14:57:34.085613 28889 net.cpp:113] Setting up RGB_lstm1_h_conted_43
I0303 14:57:34.085628 28889 net.cpp:120] Top shape: 1 54 100 (5400)
I0303 14:57:34.085636 28889 layer_factory.hpp:74] Creating layer RGB_lstm1_transform_44
I0303 14:57:34.085649 28889 net.cpp:84] Creating Layer RGB_lstm1_transform_44
I0303 14:57:34.085660 28889 net.cpp:381] RGB_lstm1_transform_44 <- h_conted_43
I0303 14:57:34.085677 28889 net.cpp:339] RGB_lstm1_transform_44 -> W_hc_h_43
I0303 14:57:34.085690 28889 net.cpp:113] Setting up RGB_lstm1_transform_44
I0303 14:57:34.086091 28889 net.cpp:120] Top shape: 1 54 400 (21600)
I0303 14:57:34.086107 28889 net.cpp:425] Sharing parameters 'W_hc' owned by layer 'RGB_lstm1_transform_1', param index 0
I0303 14:57:34.086119 28889 layer_factory.hpp:74] Creating layer RGB_lstm1_gate_input_44
I0303 14:57:34.086133 28889 net.cpp:84] Creating Layer RGB_lstm1_gate_input_44
I0303 14:57:34.086143 28889 net.cpp:381] RGB_lstm1_gate_input_44 <- W_hc_h_43
I0303 14:57:34.086155 28889 net.cpp:381] RGB_lstm1_gate_input_44 <- W_xc_x_44
I0303 14:57:34.086166 28889 net.cpp:339] RGB_lstm1_gate_input_44 -> gate_input_44
I0303 14:57:34.086181 28889 net.cpp:113] Setting up RGB_lstm1_gate_input_44
I0303 14:57:34.086199 28889 net.cpp:120] Top shape: 1 54 400 (21600)
I0303 14:57:34.086208 28889 layer_factory.hpp:74] Creating layer RGB_lstm1_unit_44
I0303 14:57:34.086221 28889 net.cpp:84] Creating Layer RGB_lstm1_unit_44
I0303 14:57:34.086233 28889 net.cpp:381] RGB_lstm1_unit_44 <- c_43
I0303 14:57:34.086244 28889 net.cpp:381] RGB_lstm1_unit_44 <- gate_input_44
I0303 14:57:34.086258 28889 net.cpp:381] RGB_lstm1_unit_44 <- cont_44_RGB_lstm1_cont_slice_43_split_1
I0303 14:57:34.086271 28889 net.cpp:339] RGB_lstm1_unit_44 -> c_44
I0303 14:57:34.086285 28889 net.cpp:339] RGB_lstm1_unit_44 -> h_44
I0303 14:57:34.086299 28889 net.cpp:113] Setting up RGB_lstm1_unit_44
I0303 14:57:34.086313 28889 net.cpp:120] Top shape: 1 54 100 (5400)
I0303 14:57:34.086323 28889 net.cpp:120] Top shape: 1 54 100 (5400)
I0303 14:57:34.086333 28889 layer_factory.hpp:74] Creating layer h_44_RGB_lstm1_unit_44_1_split
I0303 14:57:34.086345 28889 net.cpp:84] Creating Layer h_44_RGB_lstm1_unit_44_1_split
I0303 14:57:34.086357 28889 net.cpp:381] h_44_RGB_lstm1_unit_44_1_split <- h_44
I0303 14:57:34.086372 28889 net.cpp:339] h_44_RGB_lstm1_unit_44_1_split -> h_44_RGB_lstm1_unit_44_1_split_0
I0303 14:57:34.086405 28889 net.cpp:339] h_44_RGB_lstm1_unit_44_1_split -> h_44_RGB_lstm1_unit_44_1_split_1
I0303 14:57:34.086421 28889 net.cpp:113] Setting up h_44_RGB_lstm1_unit_44_1_split
I0303 14:57:34.086432 28889 net.cpp:120] Top shape: 1 54 100 (5400)
I0303 14:57:34.086443 28889 net.cpp:120] Top shape: 1 54 100 (5400)
I0303 14:57:34.086457 28889 layer_factory.hpp:74] Creating layer RGB_lstm1_h_conted_44
I0303 14:57:34.086470 28889 net.cpp:84] Creating Layer RGB_lstm1_h_conted_44
I0303 14:57:34.086483 28889 net.cpp:381] RGB_lstm1_h_conted_44 <- h_44_RGB_lstm1_unit_44_1_split_0
I0303 14:57:34.086498 28889 net.cpp:381] RGB_lstm1_h_conted_44 <- cont_45_RGB_lstm1_cont_slice_44_split_0
I0303 14:57:34.086508 28889 net.cpp:339] RGB_lstm1_h_conted_44 -> h_conted_44
I0303 14:57:34.086524 28889 net.cpp:113] Setting up RGB_lstm1_h_conted_44
I0303 14:57:34.086535 28889 net.cpp:120] Top shape: 1 54 100 (5400)
I0303 14:57:34.086546 28889 layer_factory.hpp:74] Creating layer RGB_lstm1_transform_45
I0303 14:57:34.086560 28889 net.cpp:84] Creating Layer RGB_lstm1_transform_45
I0303 14:57:34.086572 28889 net.cpp:381] RGB_lstm1_transform_45 <- h_conted_44
I0303 14:57:34.086586 28889 net.cpp:339] RGB_lstm1_transform_45 -> W_hc_h_44
I0303 14:57:34.086603 28889 net.cpp:113] Setting up RGB_lstm1_transform_45
I0303 14:57:34.087007 28889 net.cpp:120] Top shape: 1 54 400 (21600)
I0303 14:57:34.087023 28889 net.cpp:425] Sharing parameters 'W_hc' owned by layer 'RGB_lstm1_transform_1', param index 0
I0303 14:57:34.087034 28889 layer_factory.hpp:74] Creating layer RGB_lstm1_gate_input_45
I0303 14:57:34.087049 28889 net.cpp:84] Creating Layer RGB_lstm1_gate_input_45
I0303 14:57:34.087059 28889 net.cpp:381] RGB_lstm1_gate_input_45 <- W_hc_h_44
I0303 14:57:34.087074 28889 net.cpp:381] RGB_lstm1_gate_input_45 <- W_xc_x_45
I0303 14:57:34.087085 28889 net.cpp:339] RGB_lstm1_gate_input_45 -> gate_input_45
I0303 14:57:34.087097 28889 net.cpp:113] Setting up RGB_lstm1_gate_input_45
I0303 14:57:34.087111 28889 net.cpp:120] Top shape: 1 54 400 (21600)
I0303 14:57:34.087121 28889 layer_factory.hpp:74] Creating layer RGB_lstm1_unit_45
I0303 14:57:34.087133 28889 net.cpp:84] Creating Layer RGB_lstm1_unit_45
I0303 14:57:34.087146 28889 net.cpp:381] RGB_lstm1_unit_45 <- c_44
I0303 14:57:34.087157 28889 net.cpp:381] RGB_lstm1_unit_45 <- gate_input_45
I0303 14:57:34.087167 28889 net.cpp:381] RGB_lstm1_unit_45 <- cont_45_RGB_lstm1_cont_slice_44_split_1
I0303 14:57:34.087178 28889 net.cpp:339] RGB_lstm1_unit_45 -> c_45
I0303 14:57:34.087201 28889 net.cpp:339] RGB_lstm1_unit_45 -> h_45
I0303 14:57:34.087214 28889 net.cpp:113] Setting up RGB_lstm1_unit_45
I0303 14:57:34.087227 28889 net.cpp:120] Top shape: 1 54 100 (5400)
I0303 14:57:34.087242 28889 net.cpp:120] Top shape: 1 54 100 (5400)
I0303 14:57:34.087252 28889 layer_factory.hpp:74] Creating layer h_45_RGB_lstm1_unit_45_1_split
I0303 14:57:34.087270 28889 net.cpp:84] Creating Layer h_45_RGB_lstm1_unit_45_1_split
I0303 14:57:34.087280 28889 net.cpp:381] h_45_RGB_lstm1_unit_45_1_split <- h_45
I0303 14:57:34.087291 28889 net.cpp:339] h_45_RGB_lstm1_unit_45_1_split -> h_45_RGB_lstm1_unit_45_1_split_0
I0303 14:57:34.087306 28889 net.cpp:339] h_45_RGB_lstm1_unit_45_1_split -> h_45_RGB_lstm1_unit_45_1_split_1
I0303 14:57:34.087323 28889 net.cpp:113] Setting up h_45_RGB_lstm1_unit_45_1_split
I0303 14:57:34.087337 28889 net.cpp:120] Top shape: 1 54 100 (5400)
I0303 14:57:34.087347 28889 net.cpp:120] Top shape: 1 54 100 (5400)
I0303 14:57:34.087357 28889 layer_factory.hpp:74] Creating layer RGB_lstm1_h_conted_45
I0303 14:57:34.087368 28889 net.cpp:84] Creating Layer RGB_lstm1_h_conted_45
I0303 14:57:34.087378 28889 net.cpp:381] RGB_lstm1_h_conted_45 <- h_45_RGB_lstm1_unit_45_1_split_0
I0303 14:57:34.087393 28889 net.cpp:381] RGB_lstm1_h_conted_45 <- cont_46_RGB_lstm1_cont_slice_45_split_0
I0303 14:57:34.087405 28889 net.cpp:339] RGB_lstm1_h_conted_45 -> h_conted_45
I0303 14:57:34.087419 28889 net.cpp:113] Setting up RGB_lstm1_h_conted_45
I0303 14:57:34.087432 28889 net.cpp:120] Top shape: 1 54 100 (5400)
I0303 14:57:34.087457 28889 layer_factory.hpp:74] Creating layer RGB_lstm1_transform_46
I0303 14:57:34.087472 28889 net.cpp:84] Creating Layer RGB_lstm1_transform_46
I0303 14:57:34.087483 28889 net.cpp:381] RGB_lstm1_transform_46 <- h_conted_45
I0303 14:57:34.087501 28889 net.cpp:339] RGB_lstm1_transform_46 -> W_hc_h_45
I0303 14:57:34.087514 28889 net.cpp:113] Setting up RGB_lstm1_transform_46
I0303 14:57:34.087914 28889 net.cpp:120] Top shape: 1 54 400 (21600)
I0303 14:57:34.087931 28889 net.cpp:425] Sharing parameters 'W_hc' owned by layer 'RGB_lstm1_transform_1', param index 0
I0303 14:57:34.087944 28889 layer_factory.hpp:74] Creating layer RGB_lstm1_gate_input_46
I0303 14:57:34.087955 28889 net.cpp:84] Creating Layer RGB_lstm1_gate_input_46
I0303 14:57:34.087968 28889 net.cpp:381] RGB_lstm1_gate_input_46 <- W_hc_h_45
I0303 14:57:34.087981 28889 net.cpp:381] RGB_lstm1_gate_input_46 <- W_xc_x_46
I0303 14:57:34.087995 28889 net.cpp:339] RGB_lstm1_gate_input_46 -> gate_input_46
I0303 14:57:34.088006 28889 net.cpp:113] Setting up RGB_lstm1_gate_input_46
I0303 14:57:34.088021 28889 net.cpp:120] Top shape: 1 54 400 (21600)
I0303 14:57:34.088032 28889 layer_factory.hpp:74] Creating layer RGB_lstm1_unit_46
I0303 14:57:34.088043 28889 net.cpp:84] Creating Layer RGB_lstm1_unit_46
I0303 14:57:34.088055 28889 net.cpp:381] RGB_lstm1_unit_46 <- c_45
I0303 14:57:34.088071 28889 net.cpp:381] RGB_lstm1_unit_46 <- gate_input_46
I0303 14:57:34.088083 28889 net.cpp:381] RGB_lstm1_unit_46 <- cont_46_RGB_lstm1_cont_slice_45_split_1
I0303 14:57:34.088095 28889 net.cpp:339] RGB_lstm1_unit_46 -> c_46
I0303 14:57:34.088109 28889 net.cpp:339] RGB_lstm1_unit_46 -> h_46
I0303 14:57:34.088125 28889 net.cpp:113] Setting up RGB_lstm1_unit_46
I0303 14:57:34.088138 28889 net.cpp:120] Top shape: 1 54 100 (5400)
I0303 14:57:34.088151 28889 net.cpp:120] Top shape: 1 54 100 (5400)
I0303 14:57:34.088160 28889 layer_factory.hpp:74] Creating layer h_46_RGB_lstm1_unit_46_1_split
I0303 14:57:34.088174 28889 net.cpp:84] Creating Layer h_46_RGB_lstm1_unit_46_1_split
I0303 14:57:34.088191 28889 net.cpp:381] h_46_RGB_lstm1_unit_46_1_split <- h_46
I0303 14:57:34.088202 28889 net.cpp:339] h_46_RGB_lstm1_unit_46_1_split -> h_46_RGB_lstm1_unit_46_1_split_0
I0303 14:57:34.088217 28889 net.cpp:339] h_46_RGB_lstm1_unit_46_1_split -> h_46_RGB_lstm1_unit_46_1_split_1
I0303 14:57:34.088228 28889 net.cpp:113] Setting up h_46_RGB_lstm1_unit_46_1_split
I0303 14:57:34.088241 28889 net.cpp:120] Top shape: 1 54 100 (5400)
I0303 14:57:34.088254 28889 net.cpp:120] Top shape: 1 54 100 (5400)
I0303 14:57:34.088265 28889 layer_factory.hpp:74] Creating layer RGB_lstm1_h_conted_46
I0303 14:57:34.088275 28889 net.cpp:84] Creating Layer RGB_lstm1_h_conted_46
I0303 14:57:34.088286 28889 net.cpp:381] RGB_lstm1_h_conted_46 <- h_46_RGB_lstm1_unit_46_1_split_0
I0303 14:57:34.088299 28889 net.cpp:381] RGB_lstm1_h_conted_46 <- cont_47_RGB_lstm1_cont_slice_46_split_0
I0303 14:57:34.088315 28889 net.cpp:339] RGB_lstm1_h_conted_46 -> h_conted_46
I0303 14:57:34.088330 28889 net.cpp:113] Setting up RGB_lstm1_h_conted_46
I0303 14:57:34.088343 28889 net.cpp:120] Top shape: 1 54 100 (5400)
I0303 14:57:34.088352 28889 layer_factory.hpp:74] Creating layer RGB_lstm1_transform_47
I0303 14:57:34.088364 28889 net.cpp:84] Creating Layer RGB_lstm1_transform_47
I0303 14:57:34.088376 28889 net.cpp:381] RGB_lstm1_transform_47 <- h_conted_46
I0303 14:57:34.088392 28889 net.cpp:339] RGB_lstm1_transform_47 -> W_hc_h_46
I0303 14:57:34.088407 28889 net.cpp:113] Setting up RGB_lstm1_transform_47
I0303 14:57:34.088801 28889 net.cpp:120] Top shape: 1 54 400 (21600)
I0303 14:57:34.088817 28889 net.cpp:425] Sharing parameters 'W_hc' owned by layer 'RGB_lstm1_transform_1', param index 0
I0303 14:57:34.088829 28889 layer_factory.hpp:74] Creating layer RGB_lstm1_gate_input_47
I0303 14:57:34.088842 28889 net.cpp:84] Creating Layer RGB_lstm1_gate_input_47
I0303 14:57:34.088855 28889 net.cpp:381] RGB_lstm1_gate_input_47 <- W_hc_h_46
I0303 14:57:34.088866 28889 net.cpp:381] RGB_lstm1_gate_input_47 <- W_xc_x_47
I0303 14:57:34.088903 28889 net.cpp:339] RGB_lstm1_gate_input_47 -> gate_input_47
I0303 14:57:34.088923 28889 net.cpp:113] Setting up RGB_lstm1_gate_input_47
I0303 14:57:34.088940 28889 net.cpp:120] Top shape: 1 54 400 (21600)
I0303 14:57:34.088956 28889 layer_factory.hpp:74] Creating layer RGB_lstm1_unit_47
I0303 14:57:34.088974 28889 net.cpp:84] Creating Layer RGB_lstm1_unit_47
I0303 14:57:34.088990 28889 net.cpp:381] RGB_lstm1_unit_47 <- c_46
I0303 14:57:34.089004 28889 net.cpp:381] RGB_lstm1_unit_47 <- gate_input_47
I0303 14:57:34.089015 28889 net.cpp:381] RGB_lstm1_unit_47 <- cont_47_RGB_lstm1_cont_slice_46_split_1
I0303 14:57:34.089033 28889 net.cpp:339] RGB_lstm1_unit_47 -> c_47
I0303 14:57:34.089049 28889 net.cpp:339] RGB_lstm1_unit_47 -> h_47
I0303 14:57:34.089066 28889 net.cpp:113] Setting up RGB_lstm1_unit_47
I0303 14:57:34.089081 28889 net.cpp:120] Top shape: 1 54 100 (5400)
I0303 14:57:34.089093 28889 net.cpp:120] Top shape: 1 54 100 (5400)
I0303 14:57:34.089103 28889 layer_factory.hpp:74] Creating layer h_47_RGB_lstm1_unit_47_1_split
I0303 14:57:34.089118 28889 net.cpp:84] Creating Layer h_47_RGB_lstm1_unit_47_1_split
I0303 14:57:34.089128 28889 net.cpp:381] h_47_RGB_lstm1_unit_47_1_split <- h_47
I0303 14:57:34.089138 28889 net.cpp:339] h_47_RGB_lstm1_unit_47_1_split -> h_47_RGB_lstm1_unit_47_1_split_0
I0303 14:57:34.089154 28889 net.cpp:339] h_47_RGB_lstm1_unit_47_1_split -> h_47_RGB_lstm1_unit_47_1_split_1
I0303 14:57:34.089170 28889 net.cpp:113] Setting up h_47_RGB_lstm1_unit_47_1_split
I0303 14:57:34.089184 28889 net.cpp:120] Top shape: 1 54 100 (5400)
I0303 14:57:34.089198 28889 net.cpp:120] Top shape: 1 54 100 (5400)
I0303 14:57:34.089210 28889 layer_factory.hpp:74] Creating layer RGB_lstm1_h_conted_47
I0303 14:57:34.089221 28889 net.cpp:84] Creating Layer RGB_lstm1_h_conted_47
I0303 14:57:34.089231 28889 net.cpp:381] RGB_lstm1_h_conted_47 <- h_47_RGB_lstm1_unit_47_1_split_0
I0303 14:57:34.089251 28889 net.cpp:381] RGB_lstm1_h_conted_47 <- cont_48_RGB_lstm1_cont_slice_47_split_0
I0303 14:57:34.089272 28889 net.cpp:339] RGB_lstm1_h_conted_47 -> h_conted_47
I0303 14:57:34.089284 28889 net.cpp:113] Setting up RGB_lstm1_h_conted_47
I0303 14:57:34.089303 28889 net.cpp:120] Top shape: 1 54 100 (5400)
I0303 14:57:34.089311 28889 layer_factory.hpp:74] Creating layer RGB_lstm1_transform_48
I0303 14:57:34.089328 28889 net.cpp:84] Creating Layer RGB_lstm1_transform_48
I0303 14:57:34.089337 28889 net.cpp:381] RGB_lstm1_transform_48 <- h_conted_47
I0303 14:57:34.089349 28889 net.cpp:339] RGB_lstm1_transform_48 -> W_hc_h_47
I0303 14:57:34.089365 28889 net.cpp:113] Setting up RGB_lstm1_transform_48
I0303 14:57:34.089764 28889 net.cpp:120] Top shape: 1 54 400 (21600)
I0303 14:57:34.089781 28889 net.cpp:425] Sharing parameters 'W_hc' owned by layer 'RGB_lstm1_transform_1', param index 0
I0303 14:57:34.089792 28889 layer_factory.hpp:74] Creating layer RGB_lstm1_gate_input_48
I0303 14:57:34.089804 28889 net.cpp:84] Creating Layer RGB_lstm1_gate_input_48
I0303 14:57:34.089818 28889 net.cpp:381] RGB_lstm1_gate_input_48 <- W_hc_h_47
I0303 14:57:34.089828 28889 net.cpp:381] RGB_lstm1_gate_input_48 <- W_xc_x_48
I0303 14:57:34.089845 28889 net.cpp:339] RGB_lstm1_gate_input_48 -> gate_input_48
I0303 14:57:34.089859 28889 net.cpp:113] Setting up RGB_lstm1_gate_input_48
I0303 14:57:34.089874 28889 net.cpp:120] Top shape: 1 54 400 (21600)
I0303 14:57:34.089884 28889 layer_factory.hpp:74] Creating layer RGB_lstm1_unit_48
I0303 14:57:34.089895 28889 net.cpp:84] Creating Layer RGB_lstm1_unit_48
I0303 14:57:34.089906 28889 net.cpp:381] RGB_lstm1_unit_48 <- c_47
I0303 14:57:34.089920 28889 net.cpp:381] RGB_lstm1_unit_48 <- gate_input_48
I0303 14:57:34.089931 28889 net.cpp:381] RGB_lstm1_unit_48 <- cont_48_RGB_lstm1_cont_slice_47_split_1
I0303 14:57:34.089942 28889 net.cpp:339] RGB_lstm1_unit_48 -> c_48
I0303 14:57:34.089956 28889 net.cpp:339] RGB_lstm1_unit_48 -> h_48
I0303 14:57:34.089972 28889 net.cpp:113] Setting up RGB_lstm1_unit_48
I0303 14:57:34.089985 28889 net.cpp:120] Top shape: 1 54 100 (5400)
I0303 14:57:34.089994 28889 net.cpp:120] Top shape: 1 54 100 (5400)
I0303 14:57:34.090023 28889 layer_factory.hpp:74] Creating layer h_48_RGB_lstm1_unit_48_1_split
I0303 14:57:34.090039 28889 net.cpp:84] Creating Layer h_48_RGB_lstm1_unit_48_1_split
I0303 14:57:34.090049 28889 net.cpp:381] h_48_RGB_lstm1_unit_48_1_split <- h_48
I0303 14:57:34.090065 28889 net.cpp:339] h_48_RGB_lstm1_unit_48_1_split -> h_48_RGB_lstm1_unit_48_1_split_0
I0303 14:57:34.090080 28889 net.cpp:339] h_48_RGB_lstm1_unit_48_1_split -> h_48_RGB_lstm1_unit_48_1_split_1
I0303 14:57:34.090096 28889 net.cpp:113] Setting up h_48_RGB_lstm1_unit_48_1_split
I0303 14:57:34.090109 28889 net.cpp:120] Top shape: 1 54 100 (5400)
I0303 14:57:34.090123 28889 net.cpp:120] Top shape: 1 54 100 (5400)
I0303 14:57:34.090132 28889 layer_factory.hpp:74] Creating layer RGB_lstm1_h_conted_48
I0303 14:57:34.090143 28889 net.cpp:84] Creating Layer RGB_lstm1_h_conted_48
I0303 14:57:34.090154 28889 net.cpp:381] RGB_lstm1_h_conted_48 <- h_48_RGB_lstm1_unit_48_1_split_0
I0303 14:57:34.090167 28889 net.cpp:381] RGB_lstm1_h_conted_48 <- cont_49_RGB_lstm1_cont_slice_48_split_0
I0303 14:57:34.090179 28889 net.cpp:339] RGB_lstm1_h_conted_48 -> h_conted_48
I0303 14:57:34.090196 28889 net.cpp:113] Setting up RGB_lstm1_h_conted_48
I0303 14:57:34.090210 28889 net.cpp:120] Top shape: 1 54 100 (5400)
I0303 14:57:34.090219 28889 layer_factory.hpp:74] Creating layer RGB_lstm1_transform_49
I0303 14:57:34.090235 28889 net.cpp:84] Creating Layer RGB_lstm1_transform_49
I0303 14:57:34.090247 28889 net.cpp:381] RGB_lstm1_transform_49 <- h_conted_48
I0303 14:57:34.090258 28889 net.cpp:339] RGB_lstm1_transform_49 -> W_hc_h_48
I0303 14:57:34.090272 28889 net.cpp:113] Setting up RGB_lstm1_transform_49
I0303 14:57:34.090667 28889 net.cpp:120] Top shape: 1 54 400 (21600)
I0303 14:57:34.090683 28889 net.cpp:425] Sharing parameters 'W_hc' owned by layer 'RGB_lstm1_transform_1', param index 0
I0303 14:57:34.090695 28889 layer_factory.hpp:74] Creating layer RGB_lstm1_gate_input_49
I0303 14:57:34.090708 28889 net.cpp:84] Creating Layer RGB_lstm1_gate_input_49
I0303 14:57:34.090720 28889 net.cpp:381] RGB_lstm1_gate_input_49 <- W_hc_h_48
I0303 14:57:34.090730 28889 net.cpp:381] RGB_lstm1_gate_input_49 <- W_xc_x_49
I0303 14:57:34.090741 28889 net.cpp:339] RGB_lstm1_gate_input_49 -> gate_input_49
I0303 14:57:34.090755 28889 net.cpp:113] Setting up RGB_lstm1_gate_input_49
I0303 14:57:34.090767 28889 net.cpp:120] Top shape: 1 54 400 (21600)
I0303 14:57:34.090777 28889 layer_factory.hpp:74] Creating layer RGB_lstm1_unit_49
I0303 14:57:34.090792 28889 net.cpp:84] Creating Layer RGB_lstm1_unit_49
I0303 14:57:34.090803 28889 net.cpp:381] RGB_lstm1_unit_49 <- c_48
I0303 14:57:34.090813 28889 net.cpp:381] RGB_lstm1_unit_49 <- gate_input_49
I0303 14:57:34.090824 28889 net.cpp:381] RGB_lstm1_unit_49 <- cont_49_RGB_lstm1_cont_slice_48_split_1
I0303 14:57:34.090836 28889 net.cpp:339] RGB_lstm1_unit_49 -> c_49
I0303 14:57:34.090849 28889 net.cpp:339] RGB_lstm1_unit_49 -> h_49
I0303 14:57:34.090864 28889 net.cpp:113] Setting up RGB_lstm1_unit_49
I0303 14:57:34.090879 28889 net.cpp:120] Top shape: 1 54 100 (5400)
I0303 14:57:34.090893 28889 net.cpp:120] Top shape: 1 54 100 (5400)
I0303 14:57:34.090903 28889 layer_factory.hpp:74] Creating layer h_49_RGB_lstm1_unit_49_1_split
I0303 14:57:34.090914 28889 net.cpp:84] Creating Layer h_49_RGB_lstm1_unit_49_1_split
I0303 14:57:34.090924 28889 net.cpp:381] h_49_RGB_lstm1_unit_49_1_split <- h_49
I0303 14:57:34.090934 28889 net.cpp:339] h_49_RGB_lstm1_unit_49_1_split -> h_49_RGB_lstm1_unit_49_1_split_0
I0303 14:57:34.090947 28889 net.cpp:339] h_49_RGB_lstm1_unit_49_1_split -> h_49_RGB_lstm1_unit_49_1_split_1
I0303 14:57:34.090962 28889 net.cpp:113] Setting up h_49_RGB_lstm1_unit_49_1_split
I0303 14:57:34.090975 28889 net.cpp:120] Top shape: 1 54 100 (5400)
I0303 14:57:34.090986 28889 net.cpp:120] Top shape: 1 54 100 (5400)
I0303 14:57:34.090996 28889 layer_factory.hpp:74] Creating layer RGB_lstm1_h_conted_49
I0303 14:57:34.091011 28889 net.cpp:84] Creating Layer RGB_lstm1_h_conted_49
I0303 14:57:34.091022 28889 net.cpp:381] RGB_lstm1_h_conted_49 <- h_49_RGB_lstm1_unit_49_1_split_0
I0303 14:57:34.091058 28889 net.cpp:381] RGB_lstm1_h_conted_49 <- cont_50_RGB_lstm1_cont_slice_49_split_0
I0303 14:57:34.091071 28889 net.cpp:339] RGB_lstm1_h_conted_49 -> h_conted_49
I0303 14:57:34.091089 28889 net.cpp:113] Setting up RGB_lstm1_h_conted_49
I0303 14:57:34.091101 28889 net.cpp:120] Top shape: 1 54 100 (5400)
I0303 14:57:34.091114 28889 layer_factory.hpp:74] Creating layer RGB_lstm1_transform_50
I0303 14:57:34.091131 28889 net.cpp:84] Creating Layer RGB_lstm1_transform_50
I0303 14:57:34.091141 28889 net.cpp:381] RGB_lstm1_transform_50 <- h_conted_49
I0303 14:57:34.091152 28889 net.cpp:339] RGB_lstm1_transform_50 -> W_hc_h_49
I0303 14:57:34.091166 28889 net.cpp:113] Setting up RGB_lstm1_transform_50
I0303 14:57:34.091577 28889 net.cpp:120] Top shape: 1 54 400 (21600)
I0303 14:57:34.091594 28889 net.cpp:425] Sharing parameters 'W_hc' owned by layer 'RGB_lstm1_transform_1', param index 0
I0303 14:57:34.091605 28889 layer_factory.hpp:74] Creating layer RGB_lstm1_gate_input_50
I0303 14:57:34.091624 28889 net.cpp:84] Creating Layer RGB_lstm1_gate_input_50
I0303 14:57:34.091634 28889 net.cpp:381] RGB_lstm1_gate_input_50 <- W_hc_h_49
I0303 14:57:34.091646 28889 net.cpp:381] RGB_lstm1_gate_input_50 <- W_xc_x_50
I0303 14:57:34.091660 28889 net.cpp:339] RGB_lstm1_gate_input_50 -> gate_input_50
I0303 14:57:34.091671 28889 net.cpp:113] Setting up RGB_lstm1_gate_input_50
I0303 14:57:34.091684 28889 net.cpp:120] Top shape: 1 54 400 (21600)
I0303 14:57:34.091698 28889 layer_factory.hpp:74] Creating layer RGB_lstm1_unit_50
I0303 14:57:34.091719 28889 net.cpp:84] Creating Layer RGB_lstm1_unit_50
I0303 14:57:34.091730 28889 net.cpp:381] RGB_lstm1_unit_50 <- c_49
I0303 14:57:34.091743 28889 net.cpp:381] RGB_lstm1_unit_50 <- gate_input_50
I0303 14:57:34.091760 28889 net.cpp:381] RGB_lstm1_unit_50 <- cont_50_RGB_lstm1_cont_slice_49_split_1
I0303 14:57:34.091779 28889 net.cpp:339] RGB_lstm1_unit_50 -> c_50
I0303 14:57:34.091795 28889 net.cpp:339] RGB_lstm1_unit_50 -> h_50
I0303 14:57:34.091811 28889 net.cpp:113] Setting up RGB_lstm1_unit_50
I0303 14:57:34.091828 28889 net.cpp:120] Top shape: 1 54 100 (5400)
I0303 14:57:34.091840 28889 net.cpp:120] Top shape: 1 54 100 (5400)
I0303 14:57:34.091851 28889 layer_factory.hpp:74] Creating layer h_50_RGB_lstm1_unit_50_1_split
I0303 14:57:34.091866 28889 net.cpp:84] Creating Layer h_50_RGB_lstm1_unit_50_1_split
I0303 14:57:34.091874 28889 net.cpp:381] h_50_RGB_lstm1_unit_50_1_split <- h_50
I0303 14:57:34.091889 28889 net.cpp:339] h_50_RGB_lstm1_unit_50_1_split -> h_50_RGB_lstm1_unit_50_1_split_0
I0303 14:57:34.091902 28889 net.cpp:339] h_50_RGB_lstm1_unit_50_1_split -> h_50_RGB_lstm1_unit_50_1_split_1
I0303 14:57:34.091917 28889 net.cpp:113] Setting up h_50_RGB_lstm1_unit_50_1_split
I0303 14:57:34.091928 28889 net.cpp:120] Top shape: 1 54 100 (5400)
I0303 14:57:34.091939 28889 net.cpp:120] Top shape: 1 54 100 (5400)
I0303 14:57:34.091950 28889 layer_factory.hpp:74] Creating layer RGB_lstm1_h_conted_50
I0303 14:57:34.091966 28889 net.cpp:84] Creating Layer RGB_lstm1_h_conted_50
I0303 14:57:34.091980 28889 net.cpp:381] RGB_lstm1_h_conted_50 <- h_50_RGB_lstm1_unit_50_1_split_0
I0303 14:57:34.091992 28889 net.cpp:381] RGB_lstm1_h_conted_50 <- cont_51_RGB_lstm1_cont_slice_50_split_0
I0303 14:57:34.092007 28889 net.cpp:339] RGB_lstm1_h_conted_50 -> h_conted_50
I0303 14:57:34.092020 28889 net.cpp:113] Setting up RGB_lstm1_h_conted_50
I0303 14:57:34.092032 28889 net.cpp:120] Top shape: 1 54 100 (5400)
I0303 14:57:34.092044 28889 layer_factory.hpp:74] Creating layer RGB_lstm1_transform_51
I0303 14:57:34.092056 28889 net.cpp:84] Creating Layer RGB_lstm1_transform_51
I0303 14:57:34.092067 28889 net.cpp:381] RGB_lstm1_transform_51 <- h_conted_50
I0303 14:57:34.092082 28889 net.cpp:339] RGB_lstm1_transform_51 -> W_hc_h_50
I0303 14:57:34.092097 28889 net.cpp:113] Setting up RGB_lstm1_transform_51
I0303 14:57:34.092499 28889 net.cpp:120] Top shape: 1 54 400 (21600)
I0303 14:57:34.092516 28889 net.cpp:425] Sharing parameters 'W_hc' owned by layer 'RGB_lstm1_transform_1', param index 0
I0303 14:57:34.092546 28889 layer_factory.hpp:74] Creating layer RGB_lstm1_gate_input_51
I0303 14:57:34.092562 28889 net.cpp:84] Creating Layer RGB_lstm1_gate_input_51
I0303 14:57:34.092573 28889 net.cpp:381] RGB_lstm1_gate_input_51 <- W_hc_h_50
I0303 14:57:34.092588 28889 net.cpp:381] RGB_lstm1_gate_input_51 <- W_xc_x_51
I0303 14:57:34.092604 28889 net.cpp:339] RGB_lstm1_gate_input_51 -> gate_input_51
I0303 14:57:34.092617 28889 net.cpp:113] Setting up RGB_lstm1_gate_input_51
I0303 14:57:34.092634 28889 net.cpp:120] Top shape: 1 54 400 (21600)
I0303 14:57:34.092643 28889 layer_factory.hpp:74] Creating layer RGB_lstm1_unit_51
I0303 14:57:34.092658 28889 net.cpp:84] Creating Layer RGB_lstm1_unit_51
I0303 14:57:34.092669 28889 net.cpp:381] RGB_lstm1_unit_51 <- c_50
I0303 14:57:34.092679 28889 net.cpp:381] RGB_lstm1_unit_51 <- gate_input_51
I0303 14:57:34.092691 28889 net.cpp:381] RGB_lstm1_unit_51 <- cont_51_RGB_lstm1_cont_slice_50_split_1
I0303 14:57:34.092706 28889 net.cpp:339] RGB_lstm1_unit_51 -> c_51
I0303 14:57:34.092721 28889 net.cpp:339] RGB_lstm1_unit_51 -> h_51
I0303 14:57:34.092736 28889 net.cpp:113] Setting up RGB_lstm1_unit_51
I0303 14:57:34.092751 28889 net.cpp:120] Top shape: 1 54 100 (5400)
I0303 14:57:34.092763 28889 net.cpp:120] Top shape: 1 54 100 (5400)
I0303 14:57:34.092773 28889 layer_factory.hpp:74] Creating layer h_51_RGB_lstm1_unit_51_1_split
I0303 14:57:34.092787 28889 net.cpp:84] Creating Layer h_51_RGB_lstm1_unit_51_1_split
I0303 14:57:34.092797 28889 net.cpp:381] h_51_RGB_lstm1_unit_51_1_split <- h_51
I0303 14:57:34.092810 28889 net.cpp:339] h_51_RGB_lstm1_unit_51_1_split -> h_51_RGB_lstm1_unit_51_1_split_0
I0303 14:57:34.092824 28889 net.cpp:339] h_51_RGB_lstm1_unit_51_1_split -> h_51_RGB_lstm1_unit_51_1_split_1
I0303 14:57:34.092840 28889 net.cpp:113] Setting up h_51_RGB_lstm1_unit_51_1_split
I0303 14:57:34.092854 28889 net.cpp:120] Top shape: 1 54 100 (5400)
I0303 14:57:34.092869 28889 net.cpp:120] Top shape: 1 54 100 (5400)
I0303 14:57:34.092878 28889 layer_factory.hpp:74] Creating layer RGB_lstm1_h_conted_51
I0303 14:57:34.092890 28889 net.cpp:84] Creating Layer RGB_lstm1_h_conted_51
I0303 14:57:34.092900 28889 net.cpp:381] RGB_lstm1_h_conted_51 <- h_51_RGB_lstm1_unit_51_1_split_0
I0303 14:57:34.092913 28889 net.cpp:381] RGB_lstm1_h_conted_51 <- cont_52_RGB_lstm1_cont_slice_51_split_0
I0303 14:57:34.092928 28889 net.cpp:339] RGB_lstm1_h_conted_51 -> h_conted_51
I0303 14:57:34.092943 28889 net.cpp:113] Setting up RGB_lstm1_h_conted_51
I0303 14:57:34.092957 28889 net.cpp:120] Top shape: 1 54 100 (5400)
I0303 14:57:34.092965 28889 layer_factory.hpp:74] Creating layer RGB_lstm1_transform_52
I0303 14:57:34.092979 28889 net.cpp:84] Creating Layer RGB_lstm1_transform_52
I0303 14:57:34.092989 28889 net.cpp:381] RGB_lstm1_transform_52 <- h_conted_51
I0303 14:57:34.093003 28889 net.cpp:339] RGB_lstm1_transform_52 -> W_hc_h_51
I0303 14:57:34.093016 28889 net.cpp:113] Setting up RGB_lstm1_transform_52
I0303 14:57:34.093418 28889 net.cpp:120] Top shape: 1 54 400 (21600)
I0303 14:57:34.093436 28889 net.cpp:425] Sharing parameters 'W_hc' owned by layer 'RGB_lstm1_transform_1', param index 0
I0303 14:57:34.093447 28889 layer_factory.hpp:74] Creating layer RGB_lstm1_gate_input_52
I0303 14:57:34.093461 28889 net.cpp:84] Creating Layer RGB_lstm1_gate_input_52
I0303 14:57:34.093473 28889 net.cpp:381] RGB_lstm1_gate_input_52 <- W_hc_h_51
I0303 14:57:34.093484 28889 net.cpp:381] RGB_lstm1_gate_input_52 <- W_xc_x_52
I0303 14:57:34.093497 28889 net.cpp:339] RGB_lstm1_gate_input_52 -> gate_input_52
I0303 14:57:34.093511 28889 net.cpp:113] Setting up RGB_lstm1_gate_input_52
I0303 14:57:34.093528 28889 net.cpp:120] Top shape: 1 54 400 (21600)
I0303 14:57:34.093540 28889 layer_factory.hpp:74] Creating layer RGB_lstm1_unit_52
I0303 14:57:34.093552 28889 net.cpp:84] Creating Layer RGB_lstm1_unit_52
I0303 14:57:34.093565 28889 net.cpp:381] RGB_lstm1_unit_52 <- c_51
I0303 14:57:34.093576 28889 net.cpp:381] RGB_lstm1_unit_52 <- gate_input_52
I0303 14:57:34.093586 28889 net.cpp:381] RGB_lstm1_unit_52 <- cont_52_RGB_lstm1_cont_slice_51_split_1
I0303 14:57:34.093616 28889 net.cpp:339] RGB_lstm1_unit_52 -> c_52
I0303 14:57:34.093637 28889 net.cpp:339] RGB_lstm1_unit_52 -> h_52
I0303 14:57:34.093650 28889 net.cpp:113] Setting up RGB_lstm1_unit_52
I0303 14:57:34.093664 28889 net.cpp:120] Top shape: 1 54 100 (5400)
I0303 14:57:34.093677 28889 net.cpp:120] Top shape: 1 54 100 (5400)
I0303 14:57:34.093688 28889 layer_factory.hpp:74] Creating layer h_52_RGB_lstm1_unit_52_1_split
I0303 14:57:34.093700 28889 net.cpp:84] Creating Layer h_52_RGB_lstm1_unit_52_1_split
I0303 14:57:34.093713 28889 net.cpp:381] h_52_RGB_lstm1_unit_52_1_split <- h_52
I0303 14:57:34.093725 28889 net.cpp:339] h_52_RGB_lstm1_unit_52_1_split -> h_52_RGB_lstm1_unit_52_1_split_0
I0303 14:57:34.093737 28889 net.cpp:339] h_52_RGB_lstm1_unit_52_1_split -> h_52_RGB_lstm1_unit_52_1_split_1
I0303 14:57:34.093750 28889 net.cpp:113] Setting up h_52_RGB_lstm1_unit_52_1_split
I0303 14:57:34.093762 28889 net.cpp:120] Top shape: 1 54 100 (5400)
I0303 14:57:34.093775 28889 net.cpp:120] Top shape: 1 54 100 (5400)
I0303 14:57:34.093786 28889 layer_factory.hpp:74] Creating layer RGB_lstm1_h_conted_52
I0303 14:57:34.093802 28889 net.cpp:84] Creating Layer RGB_lstm1_h_conted_52
I0303 14:57:34.093816 28889 net.cpp:381] RGB_lstm1_h_conted_52 <- h_52_RGB_lstm1_unit_52_1_split_0
I0303 14:57:34.093827 28889 net.cpp:381] RGB_lstm1_h_conted_52 <- cont_53_RGB_lstm1_cont_slice_52_split_0
I0303 14:57:34.093840 28889 net.cpp:339] RGB_lstm1_h_conted_52 -> h_conted_52
I0303 14:57:34.093854 28889 net.cpp:113] Setting up RGB_lstm1_h_conted_52
I0303 14:57:34.093868 28889 net.cpp:120] Top shape: 1 54 100 (5400)
I0303 14:57:34.093879 28889 layer_factory.hpp:74] Creating layer RGB_lstm1_transform_53
I0303 14:57:34.093890 28889 net.cpp:84] Creating Layer RGB_lstm1_transform_53
I0303 14:57:34.093900 28889 net.cpp:381] RGB_lstm1_transform_53 <- h_conted_52
I0303 14:57:34.093915 28889 net.cpp:339] RGB_lstm1_transform_53 -> W_hc_h_52
I0303 14:57:34.093929 28889 net.cpp:113] Setting up RGB_lstm1_transform_53
I0303 14:57:34.094342 28889 net.cpp:120] Top shape: 1 54 400 (21600)
I0303 14:57:34.094358 28889 net.cpp:425] Sharing parameters 'W_hc' owned by layer 'RGB_lstm1_transform_1', param index 0
I0303 14:57:34.094370 28889 layer_factory.hpp:74] Creating layer RGB_lstm1_gate_input_53
I0303 14:57:34.094384 28889 net.cpp:84] Creating Layer RGB_lstm1_gate_input_53
I0303 14:57:34.094395 28889 net.cpp:381] RGB_lstm1_gate_input_53 <- W_hc_h_52
I0303 14:57:34.094408 28889 net.cpp:381] RGB_lstm1_gate_input_53 <- W_xc_x_53
I0303 14:57:34.094421 28889 net.cpp:339] RGB_lstm1_gate_input_53 -> gate_input_53
I0303 14:57:34.094434 28889 net.cpp:113] Setting up RGB_lstm1_gate_input_53
I0303 14:57:34.094449 28889 net.cpp:120] Top shape: 1 54 400 (21600)
I0303 14:57:34.094460 28889 layer_factory.hpp:74] Creating layer RGB_lstm1_unit_53
I0303 14:57:34.094473 28889 net.cpp:84] Creating Layer RGB_lstm1_unit_53
I0303 14:57:34.094483 28889 net.cpp:381] RGB_lstm1_unit_53 <- c_52
I0303 14:57:34.094493 28889 net.cpp:381] RGB_lstm1_unit_53 <- gate_input_53
I0303 14:57:34.094506 28889 net.cpp:381] RGB_lstm1_unit_53 <- cont_53_RGB_lstm1_cont_slice_52_split_1
I0303 14:57:34.094526 28889 net.cpp:339] RGB_lstm1_unit_53 -> c_53
I0303 14:57:34.094538 28889 net.cpp:339] RGB_lstm1_unit_53 -> h_53
I0303 14:57:34.094554 28889 net.cpp:113] Setting up RGB_lstm1_unit_53
I0303 14:57:34.094568 28889 net.cpp:120] Top shape: 1 54 100 (5400)
I0303 14:57:34.094580 28889 net.cpp:120] Top shape: 1 54 100 (5400)
I0303 14:57:34.094590 28889 layer_factory.hpp:74] Creating layer h_53_RGB_lstm1_unit_53_1_split
I0303 14:57:34.094602 28889 net.cpp:84] Creating Layer h_53_RGB_lstm1_unit_53_1_split
I0303 14:57:34.094614 28889 net.cpp:381] h_53_RGB_lstm1_unit_53_1_split <- h_53
I0303 14:57:34.094624 28889 net.cpp:339] h_53_RGB_lstm1_unit_53_1_split -> h_53_RGB_lstm1_unit_53_1_split_0
I0303 14:57:34.094637 28889 net.cpp:339] h_53_RGB_lstm1_unit_53_1_split -> h_53_RGB_lstm1_unit_53_1_split_1
I0303 14:57:34.094652 28889 net.cpp:113] Setting up h_53_RGB_lstm1_unit_53_1_split
I0303 14:57:34.094683 28889 net.cpp:120] Top shape: 1 54 100 (5400)
I0303 14:57:34.094699 28889 net.cpp:120] Top shape: 1 54 100 (5400)
I0303 14:57:34.094709 28889 layer_factory.hpp:74] Creating layer RGB_lstm1_h_conted_53
I0303 14:57:34.094722 28889 net.cpp:84] Creating Layer RGB_lstm1_h_conted_53
I0303 14:57:34.094732 28889 net.cpp:381] RGB_lstm1_h_conted_53 <- h_53_RGB_lstm1_unit_53_1_split_0
I0303 14:57:34.094748 28889 net.cpp:381] RGB_lstm1_h_conted_53 <- cont_54_RGB_lstm1_cont_slice_53_split_0
I0303 14:57:34.094759 28889 net.cpp:339] RGB_lstm1_h_conted_53 -> h_conted_53
I0303 14:57:34.094771 28889 net.cpp:113] Setting up RGB_lstm1_h_conted_53
I0303 14:57:34.094784 28889 net.cpp:120] Top shape: 1 54 100 (5400)
I0303 14:57:34.094797 28889 layer_factory.hpp:74] Creating layer RGB_lstm1_transform_54
I0303 14:57:34.094812 28889 net.cpp:84] Creating Layer RGB_lstm1_transform_54
I0303 14:57:34.094823 28889 net.cpp:381] RGB_lstm1_transform_54 <- h_conted_53
I0303 14:57:34.094838 28889 net.cpp:339] RGB_lstm1_transform_54 -> W_hc_h_53
I0303 14:57:34.094851 28889 net.cpp:113] Setting up RGB_lstm1_transform_54
I0303 14:57:34.095250 28889 net.cpp:120] Top shape: 1 54 400 (21600)
I0303 14:57:34.095268 28889 net.cpp:425] Sharing parameters 'W_hc' owned by layer 'RGB_lstm1_transform_1', param index 0
I0303 14:57:34.095280 28889 layer_factory.hpp:74] Creating layer RGB_lstm1_gate_input_54
I0303 14:57:34.095294 28889 net.cpp:84] Creating Layer RGB_lstm1_gate_input_54
I0303 14:57:34.095305 28889 net.cpp:381] RGB_lstm1_gate_input_54 <- W_hc_h_53
I0303 14:57:34.095319 28889 net.cpp:381] RGB_lstm1_gate_input_54 <- W_xc_x_54
I0303 14:57:34.095330 28889 net.cpp:339] RGB_lstm1_gate_input_54 -> gate_input_54
I0303 14:57:34.095343 28889 net.cpp:113] Setting up RGB_lstm1_gate_input_54
I0303 14:57:34.095356 28889 net.cpp:120] Top shape: 1 54 400 (21600)
I0303 14:57:34.095369 28889 layer_factory.hpp:74] Creating layer RGB_lstm1_unit_54
I0303 14:57:34.095381 28889 net.cpp:84] Creating Layer RGB_lstm1_unit_54
I0303 14:57:34.095392 28889 net.cpp:381] RGB_lstm1_unit_54 <- c_53
I0303 14:57:34.095404 28889 net.cpp:381] RGB_lstm1_unit_54 <- gate_input_54
I0303 14:57:34.095414 28889 net.cpp:381] RGB_lstm1_unit_54 <- cont_54_RGB_lstm1_cont_slice_53_split_1
I0303 14:57:34.095428 28889 net.cpp:339] RGB_lstm1_unit_54 -> c_54
I0303 14:57:34.095445 28889 net.cpp:339] RGB_lstm1_unit_54 -> h_54
I0303 14:57:34.095458 28889 net.cpp:113] Setting up RGB_lstm1_unit_54
I0303 14:57:34.095471 28889 net.cpp:120] Top shape: 1 54 100 (5400)
I0303 14:57:34.095482 28889 net.cpp:120] Top shape: 1 54 100 (5400)
I0303 14:57:34.095494 28889 layer_factory.hpp:74] Creating layer RGB_lstm1_
I0303 14:57:34.095510 28889 net.cpp:84] Creating Layer RGB_lstm1_
I0303 14:57:34.095520 28889 net.cpp:381] RGB_lstm1_ <- c_54
I0303 14:57:34.095531 28889 net.cpp:339] RGB_lstm1_ -> c_T
I0303 14:57:34.095543 28889 net.cpp:113] Setting up RGB_lstm1_
I0303 14:57:34.095557 28889 net.cpp:120] Top shape: 1 54 100 (5400)
I0303 14:57:34.095568 28889 layer_factory.hpp:74] Creating layer RGB_lstm1_h_concat
I0303 14:57:34.095587 28889 net.cpp:84] Creating Layer RGB_lstm1_h_concat
I0303 14:57:34.095597 28889 net.cpp:381] RGB_lstm1_h_concat <- h_1_RGB_lstm1_unit_1_1_split_1
I0303 14:57:34.095613 28889 net.cpp:381] RGB_lstm1_h_concat <- h_2_RGB_lstm1_unit_2_1_split_1
I0303 14:57:34.095626 28889 net.cpp:381] RGB_lstm1_h_concat <- h_3_RGB_lstm1_unit_3_1_split_1
…
I0303 14:57:34.099532 28889 net.cpp:205] This network produces output c_T
I0303 14:57:34.099550 28889 net.cpp:205] This network produces output h
I0303 14:57:34.099886 28889 net.cpp:446] Collecting Learning Rate and Weight Decay.
I0303 14:57:34.099956 28889 net.cpp:218] Network initialization done.
I0303 14:57:34.099970 28889 net.cpp:219] Memory required for data: 25674192
I0303 14:57:34.100487 28889 recurrent_layer.cpp:135] Adding parameter 0: W_xc
I0303 14:57:34.100505 28889 recurrent_layer.cpp:135] Adding parameter 1: b_c
I0303 14:57:34.100515 28889 recurrent_layer.cpp:135] Adding parameter 2: W_hc
I0303 14:57:34.100687 28889 net.cpp:120] Top shape: 54 54 100 (291600)
I0303 14:57:34.100723 28889 layer_factory.hpp:74] Creating layer RGB_lstm1_reshape
I0303 14:57:34.100745 28889 net.cpp:84] Creating Layer RGB_lstm1_reshape
I0303 14:57:34.100756 28889 net.cpp:381] RGB_lstm1_reshape <- RGB_lstm1
I0303 14:57:34.100771 28889 net.cpp:339] RGB_lstm1_reshape -> RGB_lstm1_reshape
I0303 14:57:34.100795 28889 net.cpp:113] Setting up RGB_lstm1_reshape
I0303 14:57:34.100810 28889 net.cpp:120] Top shape: 1 100 54 54 (291600)
I0303 14:57:34.100819 28889 layer_factory.hpp:74] Creating layer RGB_lstm1_trans
I0303 14:57:34.100832 28889 net.cpp:84] Creating Layer RGB_lstm1_trans
I0303 14:57:34.100842 28889 net.cpp:381] RGB_lstm1_trans <- RGB_lstm1_reshape
I0303 14:57:34.100852 28889 net.cpp:339] RGB_lstm1_trans -> RGB_lstm1_trans
I0303 14:57:34.100867 28889 net.cpp:113] Setting up RGB_lstm1_trans
I0303 14:57:34.100880 28889 net.cpp:120] Top shape: 1 100 54 54 (291600)
I0303 14:57:34.100890 28889 layer_factory.hpp:74] Creating layer local_global
I0303 14:57:34.100908 28889 net.cpp:84] Creating Layer local_global
I0303 14:57:34.100919 28889 net.cpp:381] local_global <- conv8_conv8_0_split_1
I0303 14:57:34.100929 28889 net.cpp:381] local_global <- RGB_lstm1_trans
I0303 14:57:34.100944 28889 net.cpp:339] local_global -> local_global
I0303 14:57:34.100956 28889 net.cpp:113] Setting up local_global
I0303 14:57:34.100968 28889 net.cpp:120] Top shape: 1 138 54 54 (402408)
I0303 14:57:34.100978 28889 layer_factory.hpp:74] Creating layer local_global_conv
I0303 14:57:34.100991 28889 net.cpp:84] Creating Layer local_global_conv
I0303 14:57:34.101001 28889 net.cpp:381] local_global_conv <- local_global
I0303 14:57:34.101016 28889 net.cpp:339] local_global_conv -> local_global_conv
I0303 14:57:34.101032 28889 net.cpp:113] Setting up local_global_conv
I0303 14:57:34.102731 28889 net.cpp:120] Top shape: 1 38 54 54 (110808)
I0303 14:57:34.102751 28889 layer_factory.hpp:74] Creating layer local_global_conv_local_global_conv_0_split
I0303 14:57:34.102766 28889 net.cpp:84] Creating Layer local_global_conv_local_global_conv_0_split
I0303 14:57:34.102780 28889 net.cpp:381] local_global_conv_local_global_conv_0_split <- local_global_conv
I0303 14:57:34.102809 28889 net.cpp:339] local_global_conv_local_global_conv_0_split -> local_global_conv_local_global_conv_0_split_0
I0303 14:57:34.102825 28889 net.cpp:339] local_global_conv_local_global_conv_0_split -> local_global_conv_local_global_conv_0_split_1
I0303 14:57:34.102838 28889 net.cpp:113] Setting up local_global_conv_local_global_conv_0_split
I0303 14:57:34.102854 28889 net.cpp:120] Top shape: 1 38 54 54 (110808)
I0303 14:57:34.102865 28889 net.cpp:120] Top shape: 1 38 54 54 (110808)
I0303 14:57:34.102874 28889 layer_factory.hpp:74] Creating layer loss
I0303 14:57:34.102890 28889 net.cpp:84] Creating Layer loss
I0303 14:57:34.102900 28889 net.cpp:381] loss <- local_global_conv_local_global_conv_0_split_0
I0303 14:57:34.102916 28889 net.cpp:381] loss <- label_shrink_label_shrink_0_split_0
I0303 14:57:34.102929 28889 net.cpp:339] loss -> (automatic)
I0303 14:57:34.102944 28889 net.cpp:113] Setting up loss
I0303 14:57:34.102959 28889 layer_factory.hpp:74] Creating layer loss
I0303 14:57:34.103265 28889 net.cpp:120] Top shape: (1)
I0303 14:57:34.103281 28889 net.cpp:122]     with loss weight 1
I0303 14:57:34.103322 28889 layer_factory.hpp:74] Creating layer accuracy
I0303 14:57:34.103338 28889 net.cpp:84] Creating Layer accuracy
I0303 14:57:34.103351 28889 net.cpp:381] accuracy <- local_global_conv_local_global_conv_0_split_1
I0303 14:57:34.103363 28889 net.cpp:381] accuracy <- label_shrink_label_shrink_0_split_1
I0303 14:57:34.103374 28889 net.cpp:339] accuracy -> accuracy
I0303 14:57:34.103389 28889 net.cpp:113] Setting up accuracy
I0303 14:57:34.103423 28889 net.cpp:120] Top shape: 1 1 1 3 (3)
I0303 14:57:34.103438 28889 net.cpp:169] accuracy does not need backward computation.
I0303 14:57:34.103448 28889 net.cpp:167] loss needs backward computation.
I0303 14:57:34.103462 28889 net.cpp:167] local_global_conv_local_global_conv_0_split needs backward computation.
I0303 14:57:34.103474 28889 net.cpp:167] local_global_conv needs backward computation.
I0303 14:57:34.103487 28889 net.cpp:167] local_global needs backward computation.
…
