…
I0303 14:58:42.670428 29550 net.cpp:258] The NetState phase (0) differed from the phase (1) specified by a rule in layer data
I0303 14:58:42.670758 29550 net.cpp:42] Initializing net from parameters: 
name: "deeplab"
state {
  phase: TRAIN
}
layer {
  name: "data"
  type: "ImageSegData"
  top: "data"
  top: "label"
  include {
    phase: TRAIN
  }
  transform_param {
    mirror: true
    crop_size: 426
    mean_value: 110.324
    mean_value: 116.435
    mean_value: 125.793
  }
  image_data_param {
    source: "/home/ganyk/SUNRGBD/list_train.txt"
    batch_size: 1
    shuffle: false
    root_folder: "/home/ganyk/"
    label_type: PIXEL
  }
}
layer {
  name: "conv1_1"
  type: "Convolution"
  bottom: "data"
  top: "conv1_1"
  param {
    lr_mult: 1
    decay_mult: 1
  }
  param {
    lr_mult: 2
    decay_mult: 0
  }
  convolution_param {
    num_output: 64
    pad: 1
    kernel_size: 3
  }
}
layer {
  name: "relu1_1"
  type: "ReLU"
  bottom: "conv1_1"
  top: "conv1_1"
}
layer {
  name: "conv1_2"
  type: "Convolution"
  bottom: "conv1_1"
  top: "conv1_2"
  param {
    lr_mult: 1
    decay_mult: 1
  }
  param {
    lr_mult: 2
    decay_mult: 0
  }
  convolution_param {
    num_output: 64
    pad: 1
    kernel_size: 3
  }
}
layer {
  name: "relu1_2"
  type: "ReLU"
  bottom: "conv1_2"
  top: "conv1_2"
}
layer {
  name: "pool1"
  type: "Pooling"
  bottom: "conv1_2"
  top: "pool1"
  pooling_param {
    pool: MAX
    kernel_size: 2
    stride: 2
    pad: 1
  }
}
layer {
  name: "conv2_1"
  type: "Convolution"
  bottom: "pool1"
  top: "conv2_1"
  param {
    lr_mult: 1
    decay_mult: 1
  }
  param {
    lr_mult: 2
    decay_mult: 0
  }
  convolution_param {
    num_output: 128
    pad: 1
    kernel_size: 3
  }
}
layer {
  name: "relu2_1"
  type: "ReLU"
  bottom: "conv2_1"
  top: "conv2_1"
}
layer {
  name: "conv2_2"
  type: "Convolution"
  bottom: "conv2_1"
  top: "conv2_2"
  param {
    lr_mult: 1
    decay_mult: 1
  }
  param {
    lr_mult: 2
    decay_mult: 0
  }
  convolution_param {
    num_output: 128
    pad: 1
    kernel_size: 3
  }
}
layer {
  name: "relu2_2"
  type: "ReLU"
  bottom: "conv2_2"
  top: "conv2_2"
}
layer {
  name: "pool2"
  type: "Pooling"
  bottom: "conv2_2"
  top: "pool2"
  pooling_param {
    pool: MAX
    kernel_size: 2
    stride: 2
    pad: 1
  }
}
layer {
  name: "conv3_1"
  type: "Convolution"
  bottom: "pool2"
  top: "conv3_1"
  param {
    lr_mult: 1
    decay_mult: 1
  }
  param {
    lr_mult: 2
    decay_mult: 0
  }
  convolution_param {
    num_output: 256
    pad: 1
    kernel_size: 3
  }
}
layer {
  name: "relu3_1"
  type: "ReLU"
  bottom: "conv3_1"
  top: "conv3_1"
}
layer {
  name: "conv3_2"
  type: "Convolution"
  bottom: "conv3_1"
  top: "conv3_2"
  param {
    lr_mult: 1
    decay_mult: 1
  }
  param {
    lr_mult: 2
    decay_mult: 0
  }
  convolution_param {
    num_output: 256
    pad: 1
    kernel_size: 3
  }
}
layer {
  name: "relu3_2"
  type: "ReLU"
  bottom: "conv3_2"
  top: "conv3_2"
}
layer {
  name: "conv3_3"
  type: "Convolution"
  bottom: "conv3_2"
  top: "conv3_3"
  param {
    lr_mult: 1
    decay_mult: 1
  }
  param {
    lr_mult: 2
    decay_mult: 0
  }
  convolution_param {
    num_output: 256
    pad: 1
    kernel_size: 3
  }
}
layer {
  name: "relu3_3"
  type: "ReLU"
  bottom: "conv3_3"
  top: "conv3_3"
}
layer {
  name: "pool3"
  type: "Pooling"
  bottom: "conv3_3"
  top: "pool3"
  pooling_param {
    pool: MAX
    kernel_size: 2
    stride: 2
    pad: 1
  }
}
layer {
  name: "conv4_1"
  type: "Convolution"
  bottom: "pool3"
  top: "conv4_1"
  param {
    lr_mult: 1
    decay_mult: 1
  }
  param {
    lr_mult: 2
    decay_mult: 0
  }
  convolution_param {
    num_output: 512
    pad: 1
    kernel_size: 3
  }
}
layer {
  name: "relu4_1"
  type: "ReLU"
  bottom: "conv4_1"
  top: "conv4_1"
}
layer {
  name: "conv4_2"
  type: "Convolution"
  bottom: "conv4_1"
  top: "conv4_2"
  param {
    lr_mult: 1
    decay_mult: 1
  }
  param {
    lr_mult: 2
    decay_mult: 0
  }
  convolution_param {
    num_output: 512
    pad: 1
    kernel_size: 3
  }
}
layer {
  name: "relu4_2"
  type: "ReLU"
  bottom: "conv4_2"
  top: "conv4_2"
}
layer {
  name: "conv4_3"
  type: "Convolution"
  bottom: "conv4_2"
  top: "conv4_3"
  param {
    lr_mult: 1
    decay_mult: 1
  }
  param {
    lr_mult: 2
    decay_mult: 0
  }
  convolution_param {
    num_output: 512
    pad: 1
    kernel_size: 3
  }
}
layer {
  name: "relu4_3"
  type: "ReLU"
  bottom: "conv4_3"
  top: "conv4_3"
}
layer {
  name: "pool4"
  type: "Pooling"
  bottom: "conv4_3"
  top: "pool4"
  pooling_param {
    pool: MAX
    kernel_size: 2
    stride: 1
  }
}
layer {
  name: "conv5_1"
  type: "ConvolutionDeeplab"
  bottom: "pool4"
  top: "conv5_1"
  param {
    lr_mult: 1
    decay_mult: 1
  }
  param {
    lr_mult: 2
    decay_mult: 0
  }
  convolution_deeplab_param {
    num_output: 512
    pad: 2
    kernel_size: 3
    hole: 2
  }
}
layer {
  name: "relu5_1"
  type: "ReLU"
  bottom: "conv5_1"
  top: "conv5_1"
}
layer {
  name: "conv5_2"
  type: "ConvolutionDeeplab"
  bottom: "conv5_1"
  top: "conv5_2"
  param {
    lr_mult: 1
    decay_mult: 1
  }
  param {
    lr_mult: 2
    decay_mult: 0
  }
  convolution_deeplab_param {
    num_output: 512
    pad: 2
    kernel_size: 3
    hole: 2
  }
}
layer {
  name: "relu5_2"
  type: "ReLU"
  bottom: "conv5_2"
  top: "conv5_2"
}
layer {
  name: "conv5_3"
  type: "ConvolutionDeeplab"
  bottom: "conv5_2"
  top: "conv5_3"
  param {
    lr_mult: 1
    decay_mult: 1
  }
  param {
    lr_mult: 2
    decay_mult: 0
  }
  convolution_deeplab_param {
    num_output: 512
    pad: 2
    kernel_size: 3
    hole: 2
  }
}
layer {
  name: "relu5_3"
  type: "ReLU"
  bottom: "conv5_3"
  top: "conv5_3"
}
layer {
  name: "pool5"
  type: "Pooling"
  bottom: "conv5_3"
  top: "pool5"
  pooling_param {
    pool: MAX
    kernel_size: 3
    stride: 1
    pad: 1
  }
}
layer {
  name: "conv6"
  type: "ConvolutionDeeplab"
  bottom: "pool5"
  top: "conv6"
  param {
    lr_mult: 1
    decay_mult: 1
  }
  param {
    lr_mult: 2
    decay_mult: 0
  }
  convolution_deeplab_param {
    num_output: 4096
    pad: 6
    kernel_size: 4
    weight_filler {
      type: "gaussian"
      std: 0.001
    }
    bias_filler {
      type: "constant"
      value: 0
    }
    hole: 4
  }
}
layer {
  name: "relu6"
  type: "ReLU"
  bottom: "conv6"
  top: "conv6"
}
layer {
  name: "drop6"
  type: "Dropout"
  bottom: "conv6"
  top: "conv6"
  dropout_param {
    dropout_ratio: 0.5
  }
}
layer {
  name: "conv7"
  type: "Convolution"
  bottom: "conv6"
  top: "conv7"
  param {
    lr_mult: 1
    decay_mult: 1
  }
  param {
    lr_mult: 2
    decay_mult: 0
  }
  convolution_param {
    num_output: 4096
    kernel_size: 1
    weight_filler {
      type: "gaussian"
      std: 0.001
    }
    bias_filler {
      type: "constant"
      value: 0
    }
  }
}
layer {
  name: "relu7"
  type: "ReLU"
  bottom: "conv7"
  top: "conv7"
}
layer {
  name: "drop7"
  type: "Dropout"
  bottom: "conv7"
  top: "conv7"
  dropout_param {
    dropout_ratio: 0.5
  }
}
layer {
  name: "conv8"
  type: "Convolution"
  bottom: "conv7"
  top: "conv8"
  param {
    lr_mult: 10
    decay_mult: 1
  }
  param {
    lr_mult: 20
    decay_mult: 0
  }
  convolution_param {
    num_output: 38
    kernel_size: 1
    weight_filler {
      type: "gaussian"
      std: 0.01
    }
    bias_filler {
      type: "constant"
      value: 0
    }
  }
}
layer {
  name: "label_shrink"
  type: "Interp"
  bottom: "label"
  top: "label_shrink"
  interp_param {
    shrink_factor: 8
    pad_beg: -1
    pad_end: 0
  }
}
layer {
  name: "mask_54_54"
  type: "Mask"
  top: "mask_54_54"
  mask_param {
    width: 54
    height: 54
  }
}
layer {
  name: "conv8_trans"
  type: "Transpose"
  bottom: "conv8"
  top: "conv8_trans"
  transpose_param {
    shape {
      dim: 54
      dim: 54
      dim: 38
    }
    transposetype: CONVTOLSTM
  }
}
layer {
  name: "RGB_lstm1"
  type: "LSTM"
  bottom: "conv8_trans"
  bottom: "mask_54_54"
  top: "RGB_lstm1"
  recurrent_param {
    num_output: 100
    weight_filler {
      type: "uniform"
      min: -0.01
      max: 0.01
    }
    bias_filler {
      type: "constant"
      value: 0
    }
  }
}
layer {
  name: "RGB_lstm1_reshape"
  type: "Reshape"
  bottom: "RGB_lstm1"
  top: "RGB_lstm1_reshape"
  reshape_param {
    shape {
      dim: 1
      dim: 100
      dim: 54
      dim: 54
    }
  }
}
layer {
  name: "RGB_lstm1_trans"
  type: "Transpose"
  bottom: "RGB_lstm1_reshape"
  top: "RGB_lstm1_trans"
  transpose_param {
    shape {
      dim: 1
      dim: 100
      dim: 54
      dim: 54
    }
    transposetype: LSTMTOCONV
  }
}
layer {
  name: "local_global"
  type: "Concat"
  bottom: "conv8"
  bottom: "RGB_lstm1_trans"
  top: "local_global"
  concat_param {
    axis: 1
  }
}
layer {
  name: "local_global_conv"
  type: "Convolution"
  bottom: "local_global"
  top: "local_global_conv"
  param {
    lr_mult: 1
    decay_mult: 1
  }
  param {
    lr_mult: 2
    decay_mult: 0
  }
  convolution_param {
    num_output: 38
    pad: 1
    kernel_size: 3
    weight_filler {
      type: "gaussian"
      std: 0.01
    }
    bias_filler {
      type: "constant"
      value: 0
    }
  }
}
layer {
  name: "loss"
  type: "SoftmaxWithLoss"
  bottom: "local_global_conv"
  bottom: "label_shrink"
  include {
    phase: TRAIN
  }
}
layer {
  name: "accuracy"
  type: "SegAccuracy"
  bottom: "local_global_conv"
  bottom: "label_shrink"
  top: "accuracy"
}
I0303 14:58:42.673142 29550 layer_factory.hpp:74] Creating layer data
I0303 14:58:42.673177 29550 net.cpp:84] Creating Layer data
I0303 14:58:42.673198 29550 net.cpp:339] data -> data
I0303 14:58:42.673240 29550 net.cpp:339] data -> label
I0303 14:58:42.673266 29550 net.cpp:339] data -> (automatic)
I0303 14:58:42.673280 29550 net.cpp:113] Setting up data
I0303 14:58:42.673295 29550 image_seg_data_layer.cpp:45] Opening file /home/ganyk/SUNRGBD/list_train.txt
I0303 14:58:42.680387 29550 image_seg_data_layer.cpp:67] A total of 5285 images.
I0303 14:58:42.686643 29550 image_seg_data_layer.cpp:113] output data size: 1,3,426,426
I0303 14:58:42.686667 29550 image_seg_data_layer.cpp:117] output label size: 1,1,426,426
I0303 14:58:42.686682 29550 image_seg_data_layer.cpp:121] output data_dim size: 1,1,1,2
I0303 14:58:42.688225 29550 net.cpp:120] Top shape: 1 3 426 426 (544428)
I0303 14:58:42.688251 29550 net.cpp:120] Top shape: 1 1 426 426 (181476)
I0303 14:58:42.688267 29550 net.cpp:120] Top shape: 1 1 1 2 (2)
I0303 14:58:42.688316 29550 layer_factory.hpp:74] Creating layer conv1_1
I0303 14:58:42.688345 29550 net.cpp:84] Creating Layer conv1_1
I0303 14:58:42.688365 29550 net.cpp:381] conv1_1 <- data
I0303 14:58:42.688393 29550 net.cpp:339] conv1_1 -> conv1_1
I0303 14:58:42.688417 29550 net.cpp:113] Setting up conv1_1
I0303 14:58:42.688901 29550 net.cpp:120] Top shape: 1 64 426 426 (11614464)
I0303 14:58:42.688930 29550 layer_factory.hpp:74] Creating layer relu1_1
I0303 14:58:42.688966 29550 net.cpp:84] Creating Layer relu1_1
I0303 14:58:42.688990 29550 net.cpp:381] relu1_1 <- conv1_1
I0303 14:58:42.689009 29550 net.cpp:328] relu1_1 -> conv1_1 (in-place)
I0303 14:58:42.689034 29550 net.cpp:113] Setting up relu1_1
I0303 14:58:42.689055 29550 net.cpp:120] Top shape: 1 64 426 426 (11614464)
I0303 14:58:42.689075 29550 layer_factory.hpp:74] Creating layer conv1_2
I0303 14:58:42.689097 29550 net.cpp:84] Creating Layer conv1_2
I0303 14:58:42.689112 29550 net.cpp:381] conv1_2 <- conv1_1
I0303 14:58:42.689131 29550 net.cpp:339] conv1_2 -> conv1_2
I0303 14:58:42.689151 29550 net.cpp:113] Setting up conv1_2
I0303 14:58:42.689699 29550 net.cpp:120] Top shape: 1 64 426 426 (11614464)
I0303 14:58:42.689725 29550 layer_factory.hpp:74] Creating layer relu1_2
I0303 14:58:42.689780 29550 net.cpp:84] Creating Layer relu1_2
I0303 14:58:42.689800 29550 net.cpp:381] relu1_2 <- conv1_2
I0303 14:58:42.689817 29550 net.cpp:328] relu1_2 -> conv1_2 (in-place)
I0303 14:58:42.689836 29550 net.cpp:113] Setting up relu1_2
I0303 14:58:42.689854 29550 net.cpp:120] Top shape: 1 64 426 426 (11614464)
I0303 14:58:42.689870 29550 layer_factory.hpp:74] Creating layer pool1
I0303 14:58:42.689889 29550 net.cpp:84] Creating Layer pool1
I0303 14:58:42.689904 29550 net.cpp:381] pool1 <- conv1_2
I0303 14:58:42.689925 29550 net.cpp:339] pool1 -> pool1
I0303 14:58:42.689947 29550 net.cpp:113] Setting up pool1
I0303 14:58:42.689987 29550 net.cpp:120] Top shape: 1 64 214 214 (2930944)
I0303 14:58:42.690002 29550 layer_factory.hpp:74] Creating layer conv2_1
I0303 14:58:42.690021 29550 net.cpp:84] Creating Layer conv2_1
I0303 14:58:42.690034 29550 net.cpp:381] conv2_1 <- pool1
I0303 14:58:42.690057 29550 net.cpp:339] conv2_1 -> conv2_1
I0303 14:58:42.690078 29550 net.cpp:113] Setting up conv2_1
I0303 14:58:42.690484 29550 net.cpp:120] Top shape: 1 128 214 214 (5861888)
I0303 14:58:42.690510 29550 layer_factory.hpp:74] Creating layer relu2_1
I0303 14:58:42.690529 29550 net.cpp:84] Creating Layer relu2_1
I0303 14:58:42.690544 29550 net.cpp:381] relu2_1 <- conv2_1
I0303 14:58:42.690565 29550 net.cpp:328] relu2_1 -> conv2_1 (in-place)
I0303 14:58:42.690585 29550 net.cpp:113] Setting up relu2_1
I0303 14:58:42.690603 29550 net.cpp:120] Top shape: 1 128 214 214 (5861888)
I0303 14:58:42.690618 29550 layer_factory.hpp:74] Creating layer conv2_2
I0303 14:58:42.690637 29550 net.cpp:84] Creating Layer conv2_2
I0303 14:58:42.690652 29550 net.cpp:381] conv2_2 <- conv2_1
I0303 14:58:42.690681 29550 net.cpp:339] conv2_2 -> conv2_2
I0303 14:58:42.690701 29550 net.cpp:113] Setting up conv2_2
I0303 14:58:42.691231 29550 net.cpp:120] Top shape: 1 128 214 214 (5861888)
I0303 14:58:42.691254 29550 layer_factory.hpp:74] Creating layer relu2_2
I0303 14:58:42.691272 29550 net.cpp:84] Creating Layer relu2_2
I0303 14:58:42.691287 29550 net.cpp:381] relu2_2 <- conv2_2
I0303 14:58:42.691304 29550 net.cpp:328] relu2_2 -> conv2_2 (in-place)
I0303 14:58:42.691323 29550 net.cpp:113] Setting up relu2_2
I0303 14:58:42.691341 29550 net.cpp:120] Top shape: 1 128 214 214 (5861888)
I0303 14:58:42.691359 29550 layer_factory.hpp:74] Creating layer pool2
I0303 14:58:42.691378 29550 net.cpp:84] Creating Layer pool2
I0303 14:58:42.691395 29550 net.cpp:381] pool2 <- conv2_2
I0303 14:58:42.691412 29550 net.cpp:339] pool2 -> pool2
I0303 14:58:42.691432 29550 net.cpp:113] Setting up pool2
I0303 14:58:42.691458 29550 net.cpp:120] Top shape: 1 128 108 108 (1492992)
I0303 14:58:42.691475 29550 layer_factory.hpp:74] Creating layer conv3_1
I0303 14:58:42.691493 29550 net.cpp:84] Creating Layer conv3_1
I0303 14:58:42.691509 29550 net.cpp:381] conv3_1 <- pool2
I0303 14:58:42.691525 29550 net.cpp:339] conv3_1 -> conv3_1
I0303 14:58:42.691543 29550 net.cpp:113] Setting up conv3_1
I0303 14:58:42.692296 29550 net.cpp:120] Top shape: 1 256 108 108 (2985984)
I0303 14:58:42.692322 29550 layer_factory.hpp:74] Creating layer relu3_1
I0303 14:58:42.692343 29550 net.cpp:84] Creating Layer relu3_1
I0303 14:58:42.692360 29550 net.cpp:381] relu3_1 <- conv3_1
I0303 14:58:42.692378 29550 net.cpp:328] relu3_1 -> conv3_1 (in-place)
I0303 14:58:42.692397 29550 net.cpp:113] Setting up relu3_1
I0303 14:58:42.692415 29550 net.cpp:120] Top shape: 1 256 108 108 (2985984)
I0303 14:58:42.692430 29550 layer_factory.hpp:74] Creating layer conv3_2
I0303 14:58:42.692451 29550 net.cpp:84] Creating Layer conv3_2
I0303 14:58:42.692466 29550 net.cpp:381] conv3_2 <- conv3_1
I0303 14:58:42.692486 29550 net.cpp:339] conv3_2 -> conv3_2
I0303 14:58:42.692504 29550 net.cpp:113] Setting up conv3_2
I0303 14:58:42.695679 29550 net.cpp:120] Top shape: 1 256 108 108 (2985984)
I0303 14:58:42.695749 29550 layer_factory.hpp:74] Creating layer relu3_2
I0303 14:58:42.695776 29550 net.cpp:84] Creating Layer relu3_2
I0303 14:58:42.695792 29550 net.cpp:381] relu3_2 <- conv3_2
I0303 14:58:42.695812 29550 net.cpp:328] relu3_2 -> conv3_2 (in-place)
I0303 14:58:42.695917 29550 net.cpp:113] Setting up relu3_2
I0303 14:58:42.696133 29550 net.cpp:120] Top shape: 1 256 108 108 (2985984)
I0303 14:58:42.696183 29550 layer_factory.hpp:74] Creating layer conv3_3
I0303 14:58:42.697273 29550 net.cpp:84] Creating Layer conv3_3
I0303 14:58:42.697391 29550 net.cpp:381] conv3_3 <- conv3_2
I0303 14:58:42.697432 29550 net.cpp:339] conv3_3 -> conv3_3
I0303 14:58:42.697468 29550 net.cpp:113] Setting up conv3_3
I0303 14:58:42.699419 29550 net.cpp:120] Top shape: 1 256 108 108 (2985984)
I0303 14:58:42.699488 29550 layer_factory.hpp:74] Creating layer relu3_3
I0303 14:58:42.699522 29550 net.cpp:84] Creating Layer relu3_3
I0303 14:58:42.699537 29550 net.cpp:381] relu3_3 <- conv3_3
I0303 14:58:42.699554 29550 net.cpp:328] relu3_3 -> conv3_3 (in-place)
I0303 14:58:42.699574 29550 net.cpp:113] Setting up relu3_3
I0303 14:58:42.699594 29550 net.cpp:120] Top shape: 1 256 108 108 (2985984)
I0303 14:58:42.699605 29550 layer_factory.hpp:74] Creating layer pool3
I0303 14:58:42.699625 29550 net.cpp:84] Creating Layer pool3
I0303 14:58:42.699638 29550 net.cpp:381] pool3 <- conv3_3
I0303 14:58:42.699733 29550 net.cpp:339] pool3 -> pool3
I0303 14:58:42.699755 29550 net.cpp:113] Setting up pool3
I0303 14:58:42.699781 29550 net.cpp:120] Top shape: 1 256 55 55 (774400)
I0303 14:58:42.699798 29550 layer_factory.hpp:74] Creating layer conv4_1
I0303 14:58:42.699820 29550 net.cpp:84] Creating Layer conv4_1
I0303 14:58:42.699833 29550 net.cpp:381] conv4_1 <- pool3
I0303 14:58:42.699854 29550 net.cpp:339] conv4_1 -> conv4_1
I0303 14:58:42.699875 29550 net.cpp:113] Setting up conv4_1
I0303 14:58:42.702688 29550 net.cpp:120] Top shape: 1 512 55 55 (1548800)
I0303 14:58:42.702713 29550 layer_factory.hpp:74] Creating layer relu4_1
I0303 14:58:42.702731 29550 net.cpp:84] Creating Layer relu4_1
I0303 14:58:42.702745 29550 net.cpp:381] relu4_1 <- conv4_1
I0303 14:58:42.702764 29550 net.cpp:328] relu4_1 -> conv4_1 (in-place)
I0303 14:58:42.702894 29550 net.cpp:113] Setting up relu4_1
I0303 14:58:42.702915 29550 net.cpp:120] Top shape: 1 512 55 55 (1548800)
I0303 14:58:42.702936 29550 layer_factory.hpp:74] Creating layer conv4_2
I0303 14:58:42.702956 29550 net.cpp:84] Creating Layer conv4_2
I0303 14:58:42.702970 29550 net.cpp:381] conv4_2 <- conv4_1
I0303 14:58:42.702992 29550 net.cpp:339] conv4_2 -> conv4_2
I0303 14:58:42.703012 29550 net.cpp:113] Setting up conv4_2
I0303 14:58:42.710033 29550 net.cpp:120] Top shape: 1 512 55 55 (1548800)
I0303 14:58:42.710146 29550 layer_factory.hpp:74] Creating layer relu4_2
I0303 14:58:42.710180 29550 net.cpp:84] Creating Layer relu4_2
I0303 14:58:42.710335 29550 net.cpp:381] relu4_2 <- conv4_2
I0303 14:58:42.710357 29550 net.cpp:328] relu4_2 -> conv4_2 (in-place)
I0303 14:58:42.710379 29550 net.cpp:113] Setting up relu4_2
I0303 14:58:42.710397 29550 net.cpp:120] Top shape: 1 512 55 55 (1548800)
I0303 14:58:42.710417 29550 layer_factory.hpp:74] Creating layer conv4_3
I0303 14:58:42.710512 29550 net.cpp:84] Creating Layer conv4_3
I0303 14:58:42.710528 29550 net.cpp:381] conv4_3 <- conv4_2
I0303 14:58:42.710546 29550 net.cpp:339] conv4_3 -> conv4_3
I0303 14:58:42.710566 29550 net.cpp:113] Setting up conv4_3
I0303 14:58:42.718276 29550 net.cpp:120] Top shape: 1 512 55 55 (1548800)
I0303 14:58:42.718361 29550 layer_factory.hpp:74] Creating layer relu4_3
I0303 14:58:42.718387 29550 net.cpp:84] Creating Layer relu4_3
I0303 14:58:42.718402 29550 net.cpp:381] relu4_3 <- conv4_3
I0303 14:58:42.718417 29550 net.cpp:328] relu4_3 -> conv4_3 (in-place)
I0303 14:58:42.718437 29550 net.cpp:113] Setting up relu4_3
I0303 14:58:42.718452 29550 net.cpp:120] Top shape: 1 512 55 55 (1548800)
I0303 14:58:42.718462 29550 layer_factory.hpp:74] Creating layer pool4
I0303 14:58:42.718479 29550 net.cpp:84] Creating Layer pool4
I0303 14:58:42.718492 29550 net.cpp:381] pool4 <- conv4_3
I0303 14:58:42.718510 29550 net.cpp:339] pool4 -> pool4
I0303 14:58:42.718533 29550 net.cpp:113] Setting up pool4
I0303 14:58:42.718557 29550 net.cpp:120] Top shape: 1 512 54 54 (1492992)
I0303 14:58:42.718634 29550 layer_factory.hpp:74] Creating layer conv5_1
I0303 14:58:42.718670 29550 net.cpp:84] Creating Layer conv5_1
I0303 14:58:42.718803 29550 net.cpp:381] conv5_1 <- pool4
I0303 14:58:42.718823 29550 net.cpp:339] conv5_1 -> conv5_1
I0303 14:58:42.718852 29550 net.cpp:113] Setting up conv5_1
I0303 14:58:42.723181 29550 net.cpp:120] Top shape: 1 512 54 54 (1492992)
I0303 14:58:42.723237 29550 layer_factory.hpp:74] Creating layer relu5_1
I0303 14:58:42.723263 29550 net.cpp:84] Creating Layer relu5_1
I0303 14:58:42.723278 29550 net.cpp:381] relu5_1 <- conv5_1
I0303 14:58:42.723294 29550 net.cpp:328] relu5_1 -> conv5_1 (in-place)
I0303 14:58:42.723311 29550 net.cpp:113] Setting up relu5_1
I0303 14:58:42.723327 29550 net.cpp:120] Top shape: 1 512 54 54 (1492992)
I0303 14:58:42.723340 29550 layer_factory.hpp:74] Creating layer conv5_2
I0303 14:58:42.723357 29550 net.cpp:84] Creating Layer conv5_2
I0303 14:58:42.723453 29550 net.cpp:381] conv5_2 <- conv5_1
I0303 14:58:42.723484 29550 net.cpp:339] conv5_2 -> conv5_2
I0303 14:58:42.723505 29550 net.cpp:113] Setting up conv5_2
I0303 14:58:42.730396 29550 net.cpp:120] Top shape: 1 512 54 54 (1492992)
I0303 14:58:42.730461 29550 layer_factory.hpp:74] Creating layer relu5_2
I0303 14:58:42.730486 29550 net.cpp:84] Creating Layer relu5_2
I0303 14:58:42.730501 29550 net.cpp:381] relu5_2 <- conv5_2
I0303 14:58:42.730520 29550 net.cpp:328] relu5_2 -> conv5_2 (in-place)
I0303 14:58:42.730541 29550 net.cpp:113] Setting up relu5_2
I0303 14:58:42.730556 29550 net.cpp:120] Top shape: 1 512 54 54 (1492992)
I0303 14:58:42.730569 29550 layer_factory.hpp:74] Creating layer conv5_3
I0303 14:58:42.730588 29550 net.cpp:84] Creating Layer conv5_3
I0303 14:58:42.730602 29550 net.cpp:381] conv5_3 <- conv5_2
I0303 14:58:42.730623 29550 net.cpp:339] conv5_3 -> conv5_3
I0303 14:58:42.730762 29550 net.cpp:113] Setting up conv5_3
I0303 14:58:42.738420 29550 net.cpp:120] Top shape: 1 512 54 54 (1492992)
I0303 14:58:42.738487 29550 layer_factory.hpp:74] Creating layer relu5_3
I0303 14:58:42.738514 29550 net.cpp:84] Creating Layer relu5_3
I0303 14:58:42.738529 29550 net.cpp:381] relu5_3 <- conv5_3
I0303 14:58:42.738548 29550 net.cpp:328] relu5_3 -> conv5_3 (in-place)
I0303 14:58:42.738566 29550 net.cpp:113] Setting up relu5_3
I0303 14:58:42.738589 29550 net.cpp:120] Top shape: 1 512 54 54 (1492992)
I0303 14:58:42.738602 29550 layer_factory.hpp:74] Creating layer pool5
I0303 14:58:42.738626 29550 net.cpp:84] Creating Layer pool5
I0303 14:58:42.738643 29550 net.cpp:381] pool5 <- conv5_3
I0303 14:58:42.738663 29550 net.cpp:339] pool5 -> pool5
I0303 14:58:42.738881 29550 net.cpp:113] Setting up pool5
I0303 14:58:42.738986 29550 net.cpp:120] Top shape: 1 512 54 54 (1492992)
I0303 14:58:42.739013 29550 layer_factory.hpp:74] Creating layer conv6
I0303 14:58:42.739080 29550 net.cpp:84] Creating Layer conv6
I0303 14:58:42.739130 29550 net.cpp:381] conv6 <- pool5
I0303 14:58:42.739166 29550 net.cpp:339] conv6 -> conv6
I0303 14:58:42.739212 29550 net.cpp:113] Setting up conv6
I0303 14:58:43.828166 29550 net.cpp:120] Top shape: 1 4096 54 54 (11943936)
I0303 14:58:43.828227 29550 layer_factory.hpp:74] Creating layer relu6
I0303 14:58:43.828253 29550 net.cpp:84] Creating Layer relu6
I0303 14:58:43.828378 29550 net.cpp:381] relu6 <- conv6
I0303 14:58:43.828399 29550 net.cpp:328] relu6 -> conv6 (in-place)
I0303 14:58:43.828419 29550 net.cpp:113] Setting up relu6
I0303 14:58:43.828438 29550 net.cpp:120] Top shape: 1 4096 54 54 (11943936)
I0303 14:58:43.828450 29550 layer_factory.hpp:74] Creating layer drop6
I0303 14:58:43.828480 29550 net.cpp:84] Creating Layer drop6
I0303 14:58:43.828495 29550 net.cpp:381] drop6 <- conv6
I0303 14:58:43.828510 29550 net.cpp:328] drop6 -> conv6 (in-place)
I0303 14:58:43.828531 29550 net.cpp:113] Setting up drop6
I0303 14:58:43.828557 29550 net.cpp:120] Top shape: 1 4096 54 54 (11943936)
I0303 14:58:43.828575 29550 layer_factory.hpp:74] Creating layer conv7
I0303 14:58:43.828600 29550 net.cpp:84] Creating Layer conv7
I0303 14:58:43.828621 29550 net.cpp:381] conv7 <- conv6
I0303 14:58:43.828690 29550 net.cpp:339] conv7 -> conv7
I0303 14:58:43.828718 29550 net.cpp:113] Setting up conv7
I0303 14:58:44.352676 29550 net.cpp:120] Top shape: 1 4096 54 54 (11943936)
I0303 14:58:44.352780 29550 layer_factory.hpp:74] Creating layer relu7
I0303 14:58:44.352836 29550 net.cpp:84] Creating Layer relu7
I0303 14:58:44.352862 29550 net.cpp:381] relu7 <- conv7
I0303 14:58:44.352881 29550 net.cpp:328] relu7 -> conv7 (in-place)
I0303 14:58:44.353009 29550 net.cpp:113] Setting up relu7
I0303 14:58:44.353029 29550 net.cpp:120] Top shape: 1 4096 54 54 (11943936)
I0303 14:58:44.353042 29550 layer_factory.hpp:74] Creating layer drop7
I0303 14:58:44.353073 29550 net.cpp:84] Creating Layer drop7
I0303 14:58:44.353088 29550 net.cpp:381] drop7 <- conv7
I0303 14:58:44.353112 29550 net.cpp:328] drop7 -> conv7 (in-place)
I0303 14:58:44.353130 29550 net.cpp:113] Setting up drop7
I0303 14:58:44.353148 29550 net.cpp:120] Top shape: 1 4096 54 54 (11943936)
I0303 14:58:44.353168 29550 layer_factory.hpp:74] Creating layer conv8
I0303 14:58:44.353226 29550 net.cpp:84] Creating Layer conv8
I0303 14:58:44.353271 29550 net.cpp:381] conv8 <- conv7
I0303 14:58:44.353293 29550 net.cpp:339] conv8 -> conv8
I0303 14:58:44.353324 29550 net.cpp:113] Setting up conv8
I0303 14:58:44.358275 29550 net.cpp:120] Top shape: 1 38 54 54 (110808)
I0303 14:58:44.358299 29550 layer_factory.hpp:74] Creating layer conv8_conv8_0_split
I0303 14:58:44.358328 29550 net.cpp:84] Creating Layer conv8_conv8_0_split
I0303 14:58:44.358345 29550 net.cpp:381] conv8_conv8_0_split <- conv8
I0303 14:58:44.358371 29550 net.cpp:339] conv8_conv8_0_split -> conv8_conv8_0_split_0
I0303 14:58:44.358428 29550 net.cpp:339] conv8_conv8_0_split -> conv8_conv8_0_split_1
I0303 14:58:44.358451 29550 net.cpp:113] Setting up conv8_conv8_0_split
I0303 14:58:44.358470 29550 net.cpp:120] Top shape: 1 38 54 54 (110808)
I0303 14:58:44.358485 29550 net.cpp:120] Top shape: 1 38 54 54 (110808)
I0303 14:58:44.358497 29550 layer_factory.hpp:74] Creating layer label_shrink
I0303 14:58:44.358521 29550 net.cpp:84] Creating Layer label_shrink
I0303 14:58:44.358538 29550 net.cpp:381] label_shrink <- label
I0303 14:58:44.358556 29550 net.cpp:339] label_shrink -> label_shrink
I0303 14:58:44.358604 29550 net.cpp:113] Setting up label_shrink
I0303 14:58:44.358631 29550 net.cpp:120] Top shape: 1 1 54 54 (2916)
I0303 14:58:44.358646 29550 layer_factory.hpp:74] Creating layer label_shrink_label_shrink_0_split
I0303 14:58:44.358662 29550 net.cpp:84] Creating Layer label_shrink_label_shrink_0_split
I0303 14:58:44.358676 29550 net.cpp:381] label_shrink_label_shrink_0_split <- label_shrink
I0303 14:58:44.358691 29550 net.cpp:339] label_shrink_label_shrink_0_split -> label_shrink_label_shrink_0_split_0
I0303 14:58:44.358721 29550 net.cpp:339] label_shrink_label_shrink_0_split -> label_shrink_label_shrink_0_split_1
I0303 14:58:44.358738 29550 net.cpp:113] Setting up label_shrink_label_shrink_0_split
I0303 14:58:44.358755 29550 net.cpp:120] Top shape: 1 1 54 54 (2916)
I0303 14:58:44.358770 29550 net.cpp:120] Top shape: 1 1 54 54 (2916)
I0303 14:58:44.358783 29550 layer_factory.hpp:74] Creating layer mask_54_54
I0303 14:58:44.358805 29550 net.cpp:84] Creating Layer mask_54_54
I0303 14:58:44.358825 29550 net.cpp:339] mask_54_54 -> mask_54_54
I0303 14:58:44.358844 29550 net.cpp:113] Setting up mask_54_54
I0303 14:58:44.358865 29550 net.cpp:120] Top shape: 54 54 (2916)
I0303 14:58:44.358881 29550 layer_factory.hpp:74] Creating layer conv8_trans
I0303 14:58:44.358906 29550 net.cpp:84] Creating Layer conv8_trans
I0303 14:58:44.358922 29550 net.cpp:381] conv8_trans <- conv8_conv8_0_split_0
I0303 14:58:44.358939 29550 net.cpp:339] conv8_trans -> conv8_trans
I0303 14:58:44.358963 29550 net.cpp:113] Setting up conv8_trans
I0303 14:58:44.358983 29550 net.cpp:120] Top shape: 54 54 38 (110808)
I0303 14:58:44.358999 29550 layer_factory.hpp:74] Creating layer RGB_lstm1
I0303 14:58:44.359021 29550 net.cpp:84] Creating Layer RGB_lstm1
I0303 14:58:44.359036 29550 net.cpp:381] RGB_lstm1 <- conv8_trans
I0303 14:58:44.359050 29550 net.cpp:381] RGB_lstm1 <- mask_54_54
I0303 14:58:44.359127 29550 net.cpp:339] RGB_lstm1 -> RGB_lstm1
I0303 14:58:44.359153 29550 net.cpp:113] Setting up RGB_lstm1
I0303 14:58:44.359174 29550 recurrent_layer.cpp:27] Initializing recurrent layer: assuming input batch contains 54 timesteps of 54 independent streams.
I0303 14:58:44.361277 29550 net.cpp:42] Initializing net from parameters: 
input: "x"
input: "cont"
input: "c_0"
input: "h_0"
force_backward: true
input_shape {
  dim: 54
  dim: 54
  dim: 38
}
input_shape {
  dim: 1
  dim: 54
  dim: 54
}
input_shape {
  dim: 1
  dim: 54
  dim: 100
}
input_shape {
  dim: 1
  dim: 54
  dim: 100
}
layer {
  name: "RGB_lstm1_cont_slice"
  type: "Slice"
  bottom: "cont"
  top: "cont_1"
  top: "cont_2"
  top: "cont_3"
  top: "cont_4"
  top: "cont_5"
  top: "cont_6"
  top: "cont_7"
  top: "cont_8"
  top: "cont_9"
  top: "cont_10"
  top: "cont_11"
  top: "cont_12"
  top: "cont_13"
  top: "cont_14"
  top: "cont_15"
  top: "cont_16"
  top: "cont_17"
  top: "cont_18"
  top: "cont_19"
  top: "cont_20"
  top: "cont_21"
  top: "cont_22"
  top: "cont_23"
  top: "cont_24"
  top: "cont_25"
  top: "cont_26"
  top: "cont_27"
  top: "cont_28"
  top: "cont_29"
  top: "cont_30"
  top: "cont_31"
  top: "cont_32"
  top: "cont_33"
  top: "cont_34"
  top: "cont_35"
  top: "cont_36"
  top: "cont_37"
  top: "cont_38"
  top: "cont_39"
  top: "cont_40"
  top: "cont_41"
  top: "cont_42"
  top: "cont_43"
  top: "cont_44"
  top: "cont_45"
  top: "cont_46"
  top: "cont_47"
  top: "cont_48"
  top: "cont_49"
  top: "cont_50"
  top: "cont_51"
  top: "cont_52"
  top: "cont_53"
  top: "cont_54"
  slice_param {
    axis: 1
  }
}
layer {
  name: "RGB_lstm1_x_transform"
  type: "InnerProduct"
  bottom: "x"
  top: "W_xc_x"
  param {
    name: "W_xc"
  }
  param {
    name: "b_c"
  }
  inner_product_param {
    num_output: 400
    bias_term: true
    weight_filler {
      type: "uniform"
      min: -0.01
      max: 0.01
    }
    bias_filler {
      type: "constant"
      value: 0
    }
    axis: 2
  }
}
layer {
  name: "RGB_lstm1_W_xc_x_slice"
  type: "Slice"
  bottom: "W_xc_x"
  top: "W_xc_x_1"
  top: "W_xc_x_2"
  top: "W_xc_x_3"
  top: "W_xc_x_4"
  top: "W_xc_x_5"
  top: "W_xc_x_6"
  top: "W_xc_x_7"
  top: "W_xc_x_8"
  top: "W_xc_x_9"
  top: "W_xc_x_10"
  top: "W_xc_x_11"
  top: "W_xc_x_12"
  top: "W_xc_x_13"
  top: "W_xc_x_14"
  top: "W_xc_x_15"
  top: "W_xc_x_16"
  top: "W_xc_x_17"
  top: "W_xc_x_18"
  top: "W_xc_x_19"
  top: "W_xc_x_20"
  top: "W_xc_x_21"
  top: "W_xc_x_22"
  top: "W_xc_x_23"
  top: "W_xc_x_24"
  top: "W_xc_x_25"
  top: "W_xc_x_26"
  top: "W_xc_x_27"
  top: "W_xc_x_28"
  top: "W_xc_x_29"
  top: "W_xc_x_30"
  top: "W_xc_x_31"
  top: "W_xc_x_32"
  top: "W_xc_x_33"
  top: "W_xc_x_34"
  top: "W_xc_x_35"
  top: "W_xc_x_36"
  top: "W_xc_x_37"
  top: "W_xc_x_38"
  top: "W_xc_x_39"
  top: "W_xc_x_40"
  top: "W_xc_x_41"
  top: "W_xc_x_42"
  top: "W_xc_x_43"
  top: "W_xc_x_44"
  top: "W_xc_x_45"
  top: "W_xc_x_46"
  top: "W_xc_x_47"
  top: "W_xc_x_48"
  top: "W_xc_x_49"
  top: "W_xc_x_50"
  top: "W_xc_x_51"
  top: "W_xc_x_52"
  top: "W_xc_x_53"
  top: "W_xc_x_54"
  slice_param {
    axis: 0
  }
}
layer {
  name: "RGB_lstm1_h_conted_0"
  type: "Eltwise"
  bottom: "h_0"
  bottom: "cont_1"
  top: "h_conted_0"
  eltwise_param {
    operation: SUM
    coeff_blob: true
  }
}
layer {
  name: "RGB_lstm1_transform_1"
  type: "InnerProduct"
  bottom: "h_conted_0"
  top: "W_hc_h_0"
  param {
    name: "W_hc"
  }
  inner_product_param {
    num_output: 400
    bias_term: false
    weight_filler {
      type: "uniform"
      min: -0.01
      max: 0.01
    }
    axis: 2
  }
}
layer {
  name: "RGB_lstm1_gate_input_1"
  type: "Eltwise"
  bottom: "W_hc_h_0"
  bottom: "W_xc_x_1"
  top: "gate_input_1"
  eltwise_param {
    operation: SUM
  }
}
layer {
  name: "RGB_lstm1_unit_1"
  type: "LSTMUnit"
  bottom: "c_0"
  bottom: "gate_input_1"
  bottom: "cont_1"
  top: "c_1"
  top: "h_1"
}
layer {
  name: "RGB_lstm1_h_conted_1"
  type: "Eltwise"
  bottom: "h_1"
  bottom: "cont_2"
  top: "h_conted_1"
  eltwise_param {
    operation: SUM
    coeff_blob: true
  }
}
layer {
  name: "RGB_lstm1_transform_2"
  type: "InnerProduct"
  bottom: "h_conted_1"
  top: "W_hc_h_1"
  param {
    name: "W_hc"
  }
  inner_product_param {
    num_output: 400
    bias_term: false
    weight_filler {
      type: "uniform"
      min: -0.01
      max: 0.01
    }
    axis: 2
  }
}
layer {
  name: "RGB_lstm1_gate_input_2"
  type: "Eltwise"
  bottom: "W_hc_h_1"
  bottom: "W_xc_x_2"
  top: "gate_input_2"
  eltwise_param {
    operation: SUM
  }
}
layer {
  name: "RGB_lstm1_unit_2"
  type: "LSTMUnit"
  bottom: "c_1"
  bottom: "gate_input_2"
  bottom: "cont_2"
  top: "c_2"
  top: "h_2"
}
layer {
  name: "RGB_lstm1_h_conted_2"
  type: "Eltwise"
  bottom: "h_2"
  bottom: "cont_3"
  top: "h_conted_2"
  eltwise_param {
    operation: SUM
    coeff_blob: true
  }
}
layer {
  name: "RGB_lstm1_transform_3"
  type: "InnerProduct"
  bottom: "h_conted_2"
  top: "W_hc_h_2"
  param {
    name: "W_hc"
  }
  inner_product_param {
    num_output: 400
    bias_term: false
    weight_filler {
      type: "uniform"
      min: -0.01
      max: 0.01
    }
    axis: 2
  }
}
layer {
  name: "RGB_lstm1_gate_input_3"
  type: "Eltwise"
  bottom: "W_hc_h_2"
  bottom: "W_xc_x_3"
  top: "gate_input_3"
  eltwise_param {
    operation: SUM
  }
}
layer {
  name: "RGB_lstm1_unit_3"
  type: "LSTMUnit"
  bottom: "c_2"
  bottom: "gate_input_3"
  bottom: "cont_3"
  top: "c_3"
  top: "h_3"
}
layer {
  name: "RGB_lstm1_h_conted_3"
  type: "Eltwise"
  bottom: "h_3"
  bottom: "cont_4"
  top: "h_conted_3"
  eltwise_param {
    operation: SUM
    coeff_blob: true
  }
}
layer {
  name: "RGB_lstm1_transform_4"
  type: "InnerProduct"
  bottom: "h_conted_3"
  top: "W_hc_h_3"
  param {
    name: "W_hc"
  }
  inner_product_param {
    num_output: 400
    bias_term: false
    weight_filler {
      type: "uniform"
      min: -0.01
      max: 0.01
    }
    axis: 2
  }
}
layer {
  name: "RGB_lstm1_gate_input_4"
  type: "Eltwise"
  bottom: "W_hc_h_3"
  bottom: "W_xc_x_4"
  top: "gate_input_4"
  eltwise_param {
    operation: SUM
  }
}
layer {
  name: "RGB_lstm1_unit_4"
  type: "LSTMUnit"
  bottom: "c_3"
  bottom: "gate_input_4"
  bottom: "cont_4"
  top: "c_4"
  top: "h_4"
}
layer {
  name: "RGB_lstm1_h_conted_4"
  type: "Eltwise"
  bottom: "h_4"
  bottom: "cont_5"
  top: "h_conted_4"
  eltwise_param {
    operation: SUM
    coeff_blob: true
  }
}
layer {
  name: "RGB_lstm1_transform_5"
  type: "InnerProduct"
  bottom: "h_conted_4"
  top: "W_hc_h_4"
  param {
    name: "W_hc"
  }
  inner_product_param {
    num_output: 400
    bias_term: false
    weight_filler {
      type: "uniform"
      min: -0.01
      max: 0.01
    }
    axis: 2
  }
}
layer {
  name: "RGB_lstm1_gate_input_5"
  type: "Eltwise"
  bottom: "W_hc_h_4"
  bottom: "W_xc_x_5"
  top: "gate_input_5"
  eltwise_param {
    operation: SUM
  }
}
layer {
  name: "RGB_lstm1_unit_5"
  type: "LSTMUnit"
  bottom: "c_4"
  bottom: "gate_input_5"
  bottom: "cont_5"
  top: "c_5"
  top: "h_5"
}
layer {
  name: "RGB_lstm1_h_conted_5"
  type: "Eltwise"
  bottom: "h_5"
  bottom: "cont_6"
  top: "h_conted_5"
  eltwise_param {
    operation: SUM
    coeff_blob: true
  }
}
layer {
  name: "RGB_lstm1_transform_6"
  type: "InnerProduct"
  bottom: "h_conted_5"
  top: "W_hc_h_5"
  param {
    name: "W_hc"
  }
  inner_product_param {
    num_output: 400
    bias_term: false
    weight_filler {
      type: "uniform"
      min: -0.01
      max: 0.01
    }
    axis: 2
  }
}
layer {
  name: "RGB_lstm1_gate_input_6"
  type: "Eltwise"
  bottom: "W_hc_h_5"
  bottom: "W_xc_x_6"
  top: "gate_input_6"
  eltwise_param {
    operation: SUM
  }
}
layer {
  name: "RGB_lstm1_unit_6"
  type: "LSTMUnit"
  bottom: "c_5"
  bottom: "gate_input_6"
  bottom: "cont_6"
  top: "c_6"
  top: "h_6"
}
layer {
  name: "RGB_lstm1_h_conted_6"
  type: "Eltwise"
  bottom: "h_6"
  bottom: "cont_7"
  top: "h_conted_6"
  eltwise_param {
    operation: SUM
    coeff_blob: true
  }
}
layer {
  name: "RGB_lstm1_transform_7"
  type: "InnerProduct"
  bottom: "h_conted_6"
  top: "W_hc_h_6"
  param {
    name: "W_hc"
  }
  inner_product_param {
    num_output: 400
    bias_term: false
    weight_filler {
      type: "uniform"
      min: -0.01
      max: 0.01
    }
    axis: 2
  }
}
layer {
  name: "RGB_lstm1_gate_input_7"
  type: "Eltwise"
  bottom: "W_hc_h_6"
  bottom: "W_xc_x_7"
  top: "gate_input_7"
  eltwise_param {
    operation: SUM
  }
}
layer {
  name: "RGB_lstm1_unit_7"
  type: "LSTMUnit"
  bottom: "c_6"
  bottom: "gate_input_7"
  bottom: "cont_7"
  top: "c_7"
  top: "h_7"
}
layer {
  name: "RGB_lstm1_h_conted_7"
  type: "Eltwise"
  bottom: "h_7"
  bottom: "cont_8"
  top: "h_conted_7"
  eltwise_param {
    operation: SUM
    coeff_blob: true
  }
}
layer {
  name: "RGB_lstm1_transform_8"
  type: "InnerProduct"
  bottom: "h_conted_7"
  top: "W_hc_h_7"
  param {
    name: "W_hc"
  }
  inner_product_param {
    num_output: 400
    bias_term: false
    weight_filler {
      type: "uniform"
      min: -0.01
      max: 0.01
    }
    axis: 2
  }
}
layer {
  name: "RGB_lstm1_gate_input_8"
  type: "Eltwise"
  bottom: "W_hc_h_7"
  bottom: "W_xc_x_8"
  top: "gate_input_8"
  eltwise_param {
    operation: SUM
  }
}
layer {
  name: "RGB_lstm1_unit_8"
  type: "LSTMUnit"
  bottom: "c_7"
  bottom: "gate_input_8"
  bottom: "cont_8"
  top: "c_8"
  top: "h_8"
}
layer {
  name: "RGB_lstm1_h_conted_8"
  type: "Eltwise"
  bottom: "h_8"
  bottom: "cont_9"
  top: "h_conted_8"
  eltwise_param {
    operation: SUM
    coeff_blob: true
  }
}
layer {
  name: "RGB_lstm1_transform_9"
  type: "InnerProduct"
  bottom: "h_conted_8"
  top: "W_hc_h_8"
  param {
    name: "W_hc"
  }
  inner_product_param {
    num_output: 400
    bias_term: false
    weight_filler {
      type: "uniform"
      min: -0.01
      max: 0.01
    }
    axis: 2
  }
}
layer {
  name: "RGB_lstm1_gate_input_9"
  type: "Eltwise"
  bottom: "W_hc_h_8"
  bottom: "W_xc_x_9"
  top: "gate_input_9"
  eltwise_param {
    operation: SUM
  }
}
layer {
  name: "RGB_lstm1_unit_9"
  type: "LSTMUnit"
  bottom: "c_8"
  bottom: "gate_input_9"
  bottom: "cont_9"
  top: "c_9"
  top: "h_9"
}
layer {
  name: "RGB_lstm1_h_conted_9"
  type: "Eltwise"
  bottom: "h_9"
  bottom: "cont_10"
  top: "h_conted_9"
  eltwise_param {
    operation: SUM
    coeff_blob: true
  }
}
layer {
  name: "RGB_lstm1_transform_10"
  type: "InnerProduct"
  bottom: "h_conted_9"
  top: "W_hc_h_9"
  param {
    name: "W_hc"
  }
  inner_product_param {
    num_output: 400
    bias_term: false
    weight_filler {
      type: "uniform"
      min: -0.01
      max: 0.01
    }
    axis: 2
  }
}
layer {
  name: "RGB_lstm1_gate_input_10"
  type: "Eltwise"
  bottom: "W_hc_h_9"
  bottom: "W_xc_x_10"
  top: "gate_input_10"
  eltwise_param {
    operation: SUM
  }
}
layer {
  name: "RGB_lstm1_unit_10"
  type: "LSTMUnit"
  bottom: "c_9"
  bottom: "gate_input_10"
  bottom: "cont_10"
  top: "c_10"
  top: "h_10"
}
layer {
  name: "RGB_lstm1_h_conted_10"
  type: "Eltwise"
  bottom: "h_10"
  bottom: "cont_11"
  top: "h_conted_10"
  eltwise_param {
    operation: SUM
    coeff_blob: true
  }
}
layer {
  name: "RGB_lstm1_transform_11"
  type: "InnerProduct"
  bottom: "h_conted_10"
  top: "W_hc_h_10"
  param {
    name: "W_hc"
  }
  inner_product_param {
    num_output: 400
    bias_term: false
    weight_filler {
      type: "uniform"
      min: -0.01
      max: 0.01
    }
    axis: 2
  }
}
layer {
  name: "RGB_lstm1_gate_input_11"
  type: "Eltwise"
  bottom: "W_hc_h_10"
  bottom: "W_xc_x_11"
  top: "gate_input_11"
  eltwise_param {
    operation: SUM
  }
}
layer {
  name: "RGB_lstm1_unit_11"
  type: "LSTMUnit"
  bottom: "c_10"
  bottom: "gate_input_11"
  bottom: "cont_11"
  top: "c_11"
  top: "h_11"
}
layer {
  name: "RGB_lstm1_h_conted_11"
  type: "Eltwise"
  bottom: "h_11"
  bottom: "cont_12"
  top: "h_conted_11"
  eltwise_param {
    operation: SUM
    coeff_blob: true
  }
}
layer {
  name: "RGB_lstm1_transform_12"
  type: "InnerProduct"
  bottom: "h_conted_11"
  top: "W_hc_h_11"
  param {
    name: "W_hc"
  }
  inner_product_param {
    num_output: 400
    bias_term: false
    weight_filler {
      type: "uniform"
      min: -0.01
      max: 0.01
    }
    axis: 2
  }
}
layer {
  name: "RGB_lstm1_gate_input_12"
  type: "Eltwise"
  bottom: "W_hc_h_11"
  bottom: "W_xc_x_12"
  top: "gate_input_12"
  eltwise_param {
    operation: SUM
  }
}
layer {
  name: "RGB_lstm1_unit_12"
  type: "LSTMUnit"
  bottom: "c_11"
  bottom: "gate_input_12"
  bottom: "cont_12"
  top: "c_12"
  top: "h_12"
}
layer {
  name: "RGB_lstm1_h_conted_12"
  type: "Eltwise"
  bottom: "h_12"
  bottom: "cont_13"
  top: "h_conted_12"
  eltwise_param {
    operation: SUM
    coeff_blob: true
  }
}
layer {
  name: "RGB_lstm1_transform_13"
  type: "InnerProduct"
  bottom: "h_conted_12"
  top: "W_hc_h_12"
  param {
    name: "W_hc"
  }
  inner_product_param {
    num_output: 400
    bias_term: false
    weight_filler {
      type: "uniform"
      min: -0.01
      max: 0.01
    }
    axis: 2
  }
}
layer {
  name: "RGB_lstm1_gate_input_13"
  type: "Eltwise"
  bottom: "W_hc_h_12"
  bottom: "W_xc_x_13"
  top: "gate_input_13"
  eltwise_param {
    operation: SUM
  }
}
layer {
  name: "RGB_lstm1_unit_13"
  type: "LSTMUnit"
  bottom: "c_12"
  bottom: "gate_input_13"
  bottom: "cont_13"
  top: "c_13"
  top: "h_13"
}
layer {
  name: "RGB_lstm1_h_conted_13"
  type: "Eltwise"
  bottom: "h_13"
  bottom: "cont_14"
  top: "h_conted_13"
  eltwise_param {
    operation: SUM
    coeff_blob: true
  }
}
layer {
  name: "RGB_lstm1_transform_14"
  type: "InnerProduct"
  bottom: "h_conted_13"
  top: "W_hc_h_13"
  param {
    name: "W_hc"
  }
  inner_product_param {
    num_output: 400
    bias_term: false
    weight_filler {
      type: "uniform"
      min: -0.01
      max: 0.01
    }
    axis: 2
  }
}
layer {
  name: "RGB_lstm1_gate_input_14"
  type: "Eltwise"
  bottom: "W_hc_h_13"
  bottom: "W_xc_x_14"
  top: "gate_input_14"
  eltwise_param {
    operation: SUM
  }
}
layer {
  name: "RGB_lstm1_unit_14"
  type: "LSTMUnit"
  bottom: "c_13"
  bottom: "gate_input_14"
  bottom: "cont_14"
  top: "c_14"
  top: "h_14"
}
layer {
  name: "RGB_lstm1_h_conted_14"
  type: "Eltwise"
  bottom: "h_14"
  bottom: "cont_15"
  top: "h_conted_14"
  eltwise_param {
    operation: SUM
    coeff_blob: true
  }
}
layer {
  name: "RGB_lstm1_transform_15"
  type: "InnerProduct"
  bottom: "h_conted_14"
  top: "W_hc_h_14"
  param {
    name: "W_hc"
  }
  inner_product_param {
    num_output: 400
    bias_term: false
    weight_filler {
      type: "uniform"
      min: -0.01
      max: 0.01
    }
    axis: 2
  }
}
layer {
  name: "RGB_lstm1_gate_input_15"
  type: "Eltwise"
  bottom: "W_hc_h_14"
  bottom: "W_xc_x_15"
  top: "gate_input_15"
  eltwise_param {
    operation: SUM
  }
}
layer {
  name: "RGB_lstm1_unit_15"
  type: "LSTMUnit"
  bottom: "c_14"
  bottom: "gate_input_15"
  bottom: "cont_15"
  top: "c_15"
  top: "h_15"
}
layer {
  name: "RGB_lstm1_h_conted_15"
  type: "Eltwise"
  bottom: "h_15"
  bottom: "cont_16"
  top: "h_conted_15"
  eltwise_param {
    operation: SUM
    coeff_blob: true
  }
}
layer {
  name: "RGB_lstm1_transform_16"
  type: "InnerProduct"
  bottom: "h_conted_15"
  top: "W_hc_h_15"
  param {
    name: "W_hc"
  }
  inner_product_param {
    num_output: 400
    bias_term: false
    weight_filler {
      type: "uniform"
      min: -0.01
      max: 0.01
    }
    axis: 2
  }
}
layer {
  name: "RGB_lstm1_gate_input_16"
  type: "Eltwise"
  bottom: "W_hc_h_15"
  bottom: "W_xc_x_16"
  top: "gate_input_16"
  eltwise_param {
    operation: SUM
  }
}
layer {
  name: "RGB_lstm1_unit_16"
  type: "LSTMUnit"
  bottom: "c_15"
  bottom: "gate_input_16"
  bottom: "cont_16"
  top: "c_16"
  top: "h_16"
}
layer {
  name: "RGB_lstm1_h_conted_16"
  type: "Eltwise"
  bottom: "h_16"
  bottom: "cont_17"
  top: "h_conted_16"
  eltwise_param {
    operation: SUM
    coeff_blob: true
  }
}
layer {
  name: "RGB_lstm1_transform_17"
  type: "InnerProduct"
  bottom: "h_conted_16"
  top: "W_hc_h_16"
  param {
    name: "W_hc"
  }
  inner_product_param {
    num_output: 400
    bias_term: false
    weight_filler {
      type: "uniform"
      min: -0.01
      max: 0.01
    }
    axis: 2
  }
}
layer {
  name: "RGB_lstm1_gate_input_17"
  type: "Eltwise"
  bottom: "W_hc_h_16"
  bottom: "W_xc_x_17"
  top: "gate_input_17"
  eltwise_param {
    operation: SUM
  }
}
layer {
  name: "RGB_lstm1_unit_17"
  type: "LSTMUnit"
  bottom: "c_16"
  bottom: "gate_input_17"
  bottom: "cont_17"
  top: "c_17"
  top: "h_17"
}
layer {
  name: "RGB_lstm1_h_conted_17"
  type: "Eltwise"
  bottom: "h_17"
  bottom: "cont_18"
  top: "h_conted_17"
  eltwise_param {
    operation: SUM
    coeff_blob: true
  }
}
layer {
  name: "RGB_lstm1_transform_18"
  type: "InnerProduct"
  bottom: "h_conted_17"
  top: "W_hc_h_17"
  param {
    name: "W_hc"
  }
  inner_product_param {
    num_output: 400
    bias_term: false
    weight_filler {
      type: "uniform"
      min: -0.01
      max: 0.01
    }
    axis: 2
  }
}
layer {
  name: "RGB_lstm1_gate_input_18"
  type: "Eltwise"
  bottom: "W_hc_h_17"
  bottom: "W_xc_x_18"
  top: "gate_input_18"
  eltwise_param {
    operation: SUM
  }
}
layer {
  name: "RGB_lstm1_unit_18"
  type: "LSTMUnit"
  bottom: "c_17"
  bottom: "gate_input_18"
  bottom: "cont_18"
  top: "c_18"
  top: "h_18"
}
layer {
  name: "RGB_lstm1_h_conted_18"
  type: "Eltwise"
  bottom: "h_18"
  bottom: "cont_19"
  top: "h_conted_18"
  eltwise_param {
    operation: SUM
    coeff_blob: true
  }
}
layer {
  name: "RGB_lstm1_transform_19"
  type: "InnerProduct"
  bottom: "h_conted_18"
  top: "W_hc_h_18"
  param {
    name: "W_hc"
  }
  inner_product_param {
    num_output: 400
    bias_term: false
    weight_filler {
      type: "uniform"
      min: -0.01
      max: 0.01
    }
    axis: 2
  }
}
layer {
  name: "RGB_lstm1_gate_input_19"
  type: "Eltwise"
  bottom: "W_hc_h_18"
  bottom: "W_xc_x_19"
  top: "gate_input_19"
  eltwise_param {
    operation: SUM
  }
}
layer {
  name: "RGB_lstm1_unit_19"
  type: "LSTMUnit"
  bottom: "c_18"
  bottom: "gate_input_19"
  bottom: "cont_19"
  top: "c_19"
  top: "h_19"
}
layer {
  name: "RGB_lstm1_h_conted_19"
  type: "Eltwise"
  bottom: "h_19"
  bottom: "cont_20"
  top: "h_conted_19"
  eltwise_param {
    operation: SUM
    coeff_blob: true
  }
}
layer {
  name: "RGB_lstm1_transform_20"
  type: "InnerProduct"
  bottom: "h_conted_19"
  top: "W_hc_h_19"
  param {
    name: "W_hc"
  }
  inner_product_param {
    num_output: 400
    bias_term: false
    weight_filler {
      type: "uniform"
      min: -0.01
      max: 0.01
    }
    axis: 2
  }
}
layer {
  name: "RGB_lstm1_gate_input_20"
  type: "Eltwise"
  bottom: "W_hc_h_19"
  bottom: "W_xc_x_20"
  top: "gate_input_20"
  eltwise_param {
    operation: SUM
  }
}
layer {
  name: "RGB_lstm1_unit_20"
  type: "LSTMUnit"
  bottom: "c_19"
  bottom: "gate_input_20"
  bottom: "cont_20"
  top: "c_20"
  top: "h_20"
}
layer {
  name: "RGB_lstm1_h_conted_20"
  type: "Eltwise"
  bottom: "h_20"
  bottom: "cont_21"
  top: "h_conted_20"
  eltwise_param {
    operation: SUM
    coeff_blob: true
  }
}
layer {
  name: "RGB_lstm1_transform_21"
  type: "InnerProduct"
  bottom: "h_conted_20"
  top: "W_hc_h_20"
  param {
    name: "W_hc"
  }
  inner_product_param {
    num_output: 400
    bias_term: false
    weight_filler {
      type: "uniform"
      min: -0.01
      max: 0.01
    }
    axis: 2
  }
}
layer {
  name: "RGB_lstm1_gate_input_21"
  type: "Eltwise"
  bottom: "W_hc_h_20"
  bottom: "W_xc_x_21"
  top: "gate_input_21"
  eltwise_param {
    operation: SUM
  }
}
layer {
  name: "RGB_lstm1_unit_21"
  type: "LSTMUnit"
  bottom: "c_20"
  bottom: "gate_input_21"
  bottom: "cont_21"
  top: "c_21"
  top: "h_21"
}
layer {
  name: "RGB_lstm1_h_conted_21"
  type: "Eltwise"
  bottom: "h_21"
  bottom: "cont_22"
  top: "h_conted_21"
  eltwise_param {
    operation: SUM
    coeff_blob: true
  }
}
layer {
  name: "RGB_lstm1_transform_22"
  type: "InnerProduct"
  bottom: "h_conted_21"
  top: "W_hc_h_21"
  param {
    name: "W_hc"
  }
  inner_product_param {
    num_output: 400
    bias_term: false
    weight_filler {
      type: "uniform"
      min: -0.01
      max: 0.01
    }
    axis: 2
  }
}
layer {
  name: "RGB_lstm1_gate_input_22"
  type: "Eltwise"
  bottom: "W_hc_h_21"
  bottom: "W_xc_x_22"
  top: "gate_input_22"
  eltwise_param {
    operation: SUM
  }
}
layer {
  name: "RGB_lstm1_unit_22"
  type: "LSTMUnit"
  bottom: "c_21"
  bottom: "gate_input_22"
  bottom: "cont_22"
  top: "c_22"
  top: "h_22"
}
layer {
  name: "RGB_lstm1_h_conted_22"
  type: "Eltwise"
  bottom: "h_22"
  bottom: "cont_23"
  top: "h_conted_22"
  eltwise_param {
    operation: SUM
    coeff_blob: true
  }
}
layer {
  name: "RGB_lstm1_transform_23"
  type: "InnerProduct"
  bottom: "h_conted_22"
  top: "W_hc_h_22"
  param {
    name: "W_hc"
  }
  inner_product_param {
    num_output: 400
    bias_term: false
    weight_filler {
      type: "uniform"
      min: -0.01
      max: 0.01
    }
    axis: 2
  }
}
layer {
  name: "RGB_lstm1_gate_input_23"
  type: "Eltwise"
  bottom: "W_hc_h_22"
  bottom: "W_xc_x_23"
  top: "gate_input_23"
  eltwise_param {
    operation: SUM
  }
}
layer {
  name: "RGB_lstm1_unit_23"
  type: "LSTMUnit"
  bottom: "c_22"
  bottom: "gate_input_23"
  bottom: "cont_23"
  top: "c_23"
  top: "h_23"
}
layer {
  name: "RGB_lstm1_h_conted_23"
  type: "Eltwise"
  bottom: "h_23"
  bottom: "cont_24"
  top: "h_conted_23"
  eltwise_param {
    operation: SUM
    coeff_blob: true
  }
}
layer {
  name: "RGB_lstm1_transform_24"
  type: "InnerProduct"
  bottom: "h_conted_23"
  top: "W_hc_h_23"
  param {
    name: "W_hc"
  }
  inner_product_param {
    num_output: 400
    bias_term: false
    weight_filler {
      type: "uniform"
      min: -0.01
      max: 0.01
    }
    axis: 2
  }
}
layer {
  name: "RGB_lstm1_gate_input_24"
  type: "Eltwise"
  bottom: "W_hc_h_23"
  bottom: "W_xc_x_24"
  top: "gate_input_24"
  eltwise_param {
    operation: SUM
  }
}
layer {
  name: "RGB_lstm1_unit_24"
  type: "LSTMUnit"
  bottom: "c_23"
  bottom: "gate_input_24"
  bottom: "cont_24"
  top: "c_24"
  top: "h_24"
}
layer {
  name: "RGB_lstm1_h_conted_24"
  type: "Eltwise"
  bottom: "h_24"
  bottom: "cont_25"
  top: "h_conted_24"
  eltwise_param {
    operation: SUM
    coeff_blob: true
  }
}
layer {
  name: "RGB_lstm1_transform_25"
  type: "InnerProduct"
  bottom: "h_conted_24"
  top: "W_hc_h_24"
  param {
    name: "W_hc"
  }
  inner_product_param {
    num_output: 400
    bias_term: false
    weight_filler {
      type: "uniform"
      min: -0.01
      max: 0.01
    }
    axis: 2
  }
}
layer {
  name: "RGB_lstm1_gate_input_25"
  type: "Eltwise"
  bottom: "W_hc_h_24"
  bottom: "W_xc_x_25"
  top: "gate_input_25"
  eltwise_param {
    operation: SUM
  }
}
layer {
  name: "RGB_lstm1_unit_25"
  type: "LSTMUnit"
  bottom: "c_24"
  bottom: "gate_input_25"
  bottom: "cont_25"
  top: "c_25"
  top: "h_25"
}
layer {
  name: "RGB_lstm1_h_conted_25"
  type: "Eltwise"
  bottom: "h_25"
  bottom: "cont_26"
  top: "h_conted_25"
  eltwise_param {
    operation: SUM
    coeff_blob: true
  }
}
layer {
  name: "RGB_lstm1_transform_26"
  type: "InnerProduct"
  bottom: "h_conted_25"
  top: "W_hc_h_25"
  param {
    name: "W_hc"
  }
  inner_product_param {
    num_output: 400
    bias_term: false
    weight_filler {
      type: "uniform"
      min: -0.01
      max: 0.01
    }
    axis: 2
  }
}
layer {
  name: "RGB_lstm1_gate_input_26"
  type: "Eltwise"
  bottom: "W_hc_h_25"
  bottom: "W_xc_x_26"
  top: "gate_input_26"
  eltwise_param {
    operation: SUM
  }
}
layer {
  name: "RGB_lstm1_unit_26"
  type: "LSTMUnit"
  bottom: "c_25"
  bottom: "gate_input_26"
  bottom: "cont_26"
  top: "c_26"
  top: "h_26"
}
layer {
  name: "RGB_lstm1_h_conted_26"
  type: "Eltwise"
  bottom: "h_26"
  bottom: "cont_27"
  top: "h_conted_26"
  eltwise_param {
    operation: SUM
    coeff_blob: true
  }
}
layer {
  name: "RGB_lstm1_transform_27"
  type: "InnerProduct"
  bottom: "h_conted_26"
  top: "W_hc_h_26"
  param {
    name: "W_hc"
  }
  inner_product_param {
    num_output: 400
    bias_term: false
    weight_filler {
      type: "uniform"
      min: -0.01
      max: 0.01
    }
    axis: 2
  }
}
layer {
  name: "RGB_lstm1_gate_input_27"
  type: "Eltwise"
  bottom: "W_hc_h_26"
  bottom: "W_xc_x_27"
  top: "gate_input_27"
  eltwise_param {
    operation: SUM
  }
}
layer {
  name: "RGB_lstm1_unit_27"
  type: "LSTMUnit"
  bottom: "c_26"
  bottom: "gate_input_27"
  bottom: "cont_27"
  top: "c_27"
  top: "h_27"
}
layer {
  name: "RGB_lstm1_h_conted_27"
  type: "Eltwise"
  bottom: "h_27"
  bottom: "cont_28"
  top: "h_conted_27"
  eltwise_param {
    operation: SUM
    coeff_blob: true
  }
}
layer {
  name: "RGB_lstm1_transform_28"
  type: "InnerProduct"
  bottom: "h_conted_27"
  top: "W_hc_h_27"
  param {
    name: "W_hc"
  }
  inner_product_param {
    num_output: 400
    bias_term: false
    weight_filler {
      type: "uniform"
      min: -0.01
      max: 0.01
    }
    axis: 2
  }
}
layer {
  name: "RGB_lstm1_gate_input_28"
  type: "Eltwise"
  bottom: "W_hc_h_27"
  bottom: "W_xc_x_28"
  top: "gate_input_28"
  eltwise_param {
    operation: SUM
  }
}
layer {
  name: "RGB_lstm1_unit_28"
  type: "LSTMUnit"
  bottom: "c_27"
  bottom: "gate_input_28"
  bottom: "cont_28"
  top: "c_28"
  top: "h_28"
}
layer {
  name: "RGB_lstm1_h_conted_28"
  type: "Eltwise"
  bottom: "h_28"
  bottom: "cont_29"
  top: "h_conted_28"
  eltwise_param {
    operation: SUM
    coeff_blob: true
  }
}
layer {
  name: "RGB_lstm1_transform_29"
  type: "InnerProduct"
  bottom: "h_conted_28"
  top: "W_hc_h_28"
  param {
    name: "W_hc"
  }
  inner_product_param {
    num_output: 400
    bias_term: false
    weight_filler {
      type: "uniform"
      min: -0.01
      max: 0.01
    }
    axis: 2
  }
}
layer {
  name: "RGB_lstm1_gate_input_29"
  type: "Eltwise"
  bottom: "W_hc_h_28"
  bottom: "W_xc_x_29"
  top: "gate_input_29"
  eltwise_param {
    operation: SUM
  }
}
layer {
  name: "RGB_lstm1_unit_29"
  type: "LSTMUnit"
  bottom: "c_28"
  bottom: "gate_input_29"
  bottom: "cont_29"
  top: "c_29"
  top: "h_29"
}
layer {
  name: "RGB_lstm1_h_conted_29"
  type: "Eltwise"
  bottom: "h_29"
  bottom: "cont_30"
  top: "h_conted_29"
  eltwise_param {
    operation: SUM
    coeff_blob: true
  }
}
layer {
  name: "RGB_lstm1_transform_30"
  type: "InnerProduct"
  bottom: "h_conted_29"
  top: "W_hc_h_29"
  param {
    name: "W_hc"
  }
  inner_product_param {
    num_output: 400
    bias_term: false
    weight_filler {
      type: "uniform"
      min: -0.01
      max: 0.01
    }
    axis: 2
  }
}
layer {
  name: "RGB_lstm1_gate_input_30"
  type: "Eltwise"
  bottom: "W_hc_h_29"
  bottom: "W_xc_x_30"
  top: "gate_input_30"
  eltwise_param {
    operation: SUM
  }
}
layer {
  name: "RGB_lstm1_unit_30"
  type: "LSTMUnit"
  bottom: "c_29"
  bottom: "gate_input_30"
  bottom: "cont_30"
  top: "c_30"
  top: "h_30"
}
layer {
  name: "RGB_lstm1_h_conted_30"
  type: "Eltwise"
  bottom: "h_30"
  bottom: "cont_31"
  top: "h_conted_30"
  eltwise_param {
    operation: SUM
    coeff_blob: true
  }
}
layer {
  name: "RGB_lstm1_transform_31"
  type: "InnerProduct"
  bottom: "h_conted_30"
  top: "W_hc_h_30"
  param {
    name: "W_hc"
  }
  inner_product_param {
    num_output: 400
    bias_term: false
    weight_filler {
      type: "uniform"
      min: -0.01
      max: 0.01
    }
    axis: 2
  }
}
layer {
  name: "RGB_lstm1_gate_input_31"
  type: "Eltwise"
  bottom: "W_hc_h_30"
  bottom: "W_xc_x_31"
  top: "gate_input_31"
  eltwise_param {
    operation: SUM
  }
}
layer {
  name: "RGB_lstm1_unit_31"
  type: "LSTMUnit"
  bottom: "c_30"
  bottom: "gate_input_31"
  bottom: "cont_31"
  top: "c_31"
  top: "h_31"
}
layer {
  name: "RGB_lstm1_h_conted_31"
  type: "Eltwise"
  bottom: "h_31"
  bottom: "cont_32"
  top: "h_conted_31"
  eltwise_param {
    operation: SUM
    coeff_blob: true
  }
}
layer {
  name: "RGB_lstm1_transform_32"
  type: "InnerProduct"
  bottom: "h_conted_31"
  top: "W_hc_h_31"
  param {
    name: "W_hc"
  }
  inner_product_param {
    num_output: 400
    bias_term: false
    weight_filler {
      type: "uniform"
      min: -0.01
      max: 0.01
    }
    axis: 2
  }
}
layer {
  name: "RGB_lstm1_gate_input_32"
  type: "Eltwise"
  bottom: "W_hc_h_31"
  bottom: "W_xc_x_32"
  top: "gate_input_32"
  eltwise_param {
    operation: SUM
  }
}
layer {
  name: "RGB_lstm1_unit_32"
  type: "LSTMUnit"
  bottom: "c_31"
  bottom: "gate_input_32"
  bottom: "cont_32"
  top: "c_32"
  top: "h_32"
}
layer {
  name: "RGB_lstm1_h_conted_32"
  type: "Eltwise"
  bottom: "h_32"
  bottom: "cont_33"
  top: "h_conted_32"
  eltwise_param {
    operation: SUM
    coeff_blob: true
  }
}
layer {
  name: "RGB_lstm1_transform_33"
  type: "InnerProduct"
  bottom: "h_conted_32"
  top: "W_hc_h_32"
  param {
    name: "W_hc"
  }
  inner_product_param {
    num_output: 400
    bias_term: false
    weight_filler {
      type: "uniform"
      min: -0.01
      max: 0.01
    }
    axis: 2
  }
}
layer {
  name: "RGB_lstm1_gate_input_33"
  type: "Eltwise"
  bottom: "W_hc_h_32"
  bottom: "W_xc_x_33"
  top: "gate_input_33"
  eltwise_param {
    operation: SUM
  }
}
layer {
  name: "RGB_lstm1_unit_33"
  type: "LSTMUnit"
  bottom: "c_32"
  bottom: "gate_input_33"
  bottom: "cont_33"
  top: "c_33"
  top: "h_33"
}
layer {
  name: "RGB_lstm1_h_conted_33"
  type: "Eltwise"
  bottom: "h_33"
  bottom: "cont_34"
  top: "h_conted_33"
  eltwise_param {
    operation: SUM
    coeff_blob: true
  }
}
layer {
  name: "RGB_lstm1_transform_34"
  type: "InnerProduct"
  bottom: "h_conted_33"
  top: "W_hc_h_33"
  param {
    name: "W_hc"
  }
  inner_product_param {
    num_output: 400
    bias_term: false
    weight_filler {
      type: "uniform"
      min: -0.01
      max: 0.01
    }
    axis: 2
  }
}
layer {
  name: "RGB_lstm1_gate_input_34"
  type: "Eltwise"
  bottom: "W_hc_h_33"
  bottom: "W_xc_x_34"
  top: "gate_input_34"
  eltwise_param {
    operation: SUM
  }
}
layer {
  name: "RGB_lstm1_unit_34"
  type: "LSTMUnit"
  bottom: "c_33"
  bottom: "gate_input_34"
  bottom: "cont_34"
  top: "c_34"
  top: "h_34"
}
layer {
  name: "RGB_lstm1_h_conted_34"
  type: "Eltwise"
  bottom: "h_34"
  bottom: "cont_35"
  top: "h_co
I0303 14:58:44.371664 29550 net.cpp:341] Input 0 -> x
I0303 14:58:44.371713 29550 net.cpp:341] Input 1 -> cont
I0303 14:58:44.371737 29550 net.cpp:341] Input 2 -> c_0
I0303 14:58:44.371752 29550 net.cpp:341] Input 3 -> h_0
I0303 14:58:44.371817 29550 layer_factory.hpp:74] Creating layer RGB_lstm1_cont_slice
I0303 14:58:44.371847 29550 net.cpp:84] Creating Layer RGB_lstm1_cont_slice
…
I0303 14:58:44.373148 29550 net.cpp:339] RGB_lstm1_cont_slice -> cont_48
I0303 14:58:44.373172 29550 net.cpp:339] RGB_lstm1_cont_slice -> cont_49
I0303 14:58:44.373209 29550 net.cpp:339] RGB_lstm1_cont_slice -> cont_50
I0303 14:58:44.373234 29550 net.cpp:339] RGB_lstm1_cont_slice -> cont_51
I0303 14:58:44.373255 29550 net.cpp:339] RGB_lstm1_cont_slice -> cont_52
I0303 14:58:44.373277 29550 net.cpp:339] RGB_lstm1_cont_slice -> cont_53
I0303 14:58:44.373299 29550 net.cpp:339] RGB_lstm1_cont_slice -> cont_54
I0303 14:58:44.373319 29550 net.cpp:113] Setting up RGB_lstm1_cont_slice
I0303 14:58:44.373379 29550 net.cpp:120] Top shape: 1 1 54 (54)
I0303 14:58:44.373399 29550 net.cpp:120] Top shape: 1 1 54 (54)
I0303 14:58:44.373411 29550 net.cpp:120] Top shape: 1 1 54 (54)
I0303 14:58:44.373432 29550 net.cpp:120] Top shape: 1 1 54 (54)
I0303 14:58:44.373447 29550 net.cpp:120] Top shape: 1 1 54 (54)
I0303 14:58:44.373461 29550 net.cpp:120] Top shape: 1 1 54 (54)
I0303 14:58:44.373481 29550 net.cpp:120] Top shape: 1 1 54 (54)
I0303 14:58:44.373497 29550 net.cpp:120] Top shape: 1 1 54 (54)
I0303 14:58:44.373510 29550 net.cpp:120] Top shape: 1 1 54 (54)
I0303 14:58:44.373525 29550 net.cpp:120] Top shape: 1 1 54 (54)
I0303 14:58:44.373540 29550 net.cpp:120] Top shape: 1 1 54 (54)
I0303 14:58:44.373554 29550 net.cpp:120] Top shape: 1 1 54 (54)
I0303 14:58:44.373567 29550 net.cpp:120] Top shape: 1 1 54 (54)
I0303 14:58:44.373581 29550 net.cpp:120] Top shape: 1 1 54 (54)
I0303 14:58:44.373605 29550 net.cpp:120] Top shape: 1 1 54 (54)
I0303 14:58:44.373620 29550 net.cpp:120] Top shape: 1 1 54 (54)
I0303 14:58:44.373634 29550 net.cpp:120] Top shape: 1 1 54 (54)
I0303 14:58:44.373648 29550 net.cpp:120] Top shape: 1 1 54 (54)
I0303 14:58:44.373662 29550 net.cpp:120] Top shape: 1 1 54 (54)
I0303 14:58:44.373677 29550 net.cpp:120] Top shape: 1 1 54 (54)
I0303 14:58:44.373692 29550 net.cpp:120] Top shape: 1 1 54 (54)
I0303 14:58:44.373704 29550 net.cpp:120] Top shape: 1 1 54 (54)
I0303 14:58:44.373718 29550 net.cpp:120] Top shape: 1 1 54 (54)
I0303 14:58:44.373733 29550 net.cpp:120] Top shape: 1 1 54 (54)
I0303 14:58:44.373746 29550 net.cpp:120] Top shape: 1 1 54 (54)
I0303 14:58:44.373760 29550 net.cpp:120] Top shape: 1 1 54 (54)
I0303 14:58:44.373774 29550 net.cpp:120] Top shape: 1 1 54 (54)
I0303 14:58:44.373787 29550 net.cpp:120] Top shape: 1 1 54 (54)
I0303 14:58:44.373801 29550 net.cpp:120] Top shape: 1 1 54 (54)
I0303 14:58:44.373814 29550 net.cpp:120] Top shape: 1 1 54 (54)
I0303 14:58:44.373828 29550 net.cpp:120] Top shape: 1 1 54 (54)
I0303 14:58:44.373842 29550 net.cpp:120] Top shape: 1 1 54 (54)
I0303 14:58:44.373855 29550 net.cpp:120] Top shape: 1 1 54 (54)
I0303 14:58:44.373898 29550 net.cpp:120] Top shape: 1 1 54 (54)
I0303 14:58:44.373924 29550 net.cpp:120] Top shape: 1 1 54 (54)
I0303 14:58:44.373939 29550 net.cpp:120] Top shape: 1 1 54 (54)
I0303 14:58:44.373955 29550 net.cpp:120] Top shape: 1 1 54 (54)
I0303 14:58:44.373968 29550 net.cpp:120] Top shape: 1 1 54 (54)
I0303 14:58:44.373982 29550 net.cpp:120] Top shape: 1 1 54 (54)
I0303 14:58:44.373996 29550 net.cpp:120] Top shape: 1 1 54 (54)
I0303 14:58:44.374009 29550 net.cpp:120] Top shape: 1 1 54 (54)
I0303 14:58:44.374023 29550 net.cpp:120] Top shape: 1 1 54 (54)
I0303 14:58:44.374037 29550 net.cpp:120] Top shape: 1 1 54 (54)
I0303 14:58:44.374050 29550 net.cpp:120] Top shape: 1 1 54 (54)
I0303 14:58:44.374064 29550 net.cpp:120] Top shape: 1 1 54 (54)
I0303 14:58:44.374078 29550 net.cpp:120] Top shape: 1 1 54 (54)
I0303 14:58:44.374092 29550 net.cpp:120] Top shape: 1 1 54 (54)
I0303 14:58:44.374105 29550 net.cpp:120] Top shape: 1 1 54 (54)
I0303 14:58:44.374119 29550 net.cpp:120] Top shape: 1 1 54 (54)
I0303 14:58:44.374132 29550 net.cpp:120] Top shape: 1 1 54 (54)
I0303 14:58:44.374146 29550 net.cpp:120] Top shape: 1 1 54 (54)
I0303 14:58:44.374160 29550 net.cpp:120] Top shape: 1 1 54 (54)
I0303 14:58:44.374173 29550 net.cpp:120] Top shape: 1 1 54 (54)
I0303 14:58:44.374191 29550 net.cpp:120] Top shape: 1 1 54 (54)
I0303 14:58:44.374219 29550 layer_factory.hpp:74] Creating layer cont_1_RGB_lstm1_cont_slice_0_split
I0303 14:58:44.374238 29550 net.cpp:84] Creating Layer cont_1_RGB_lstm1_cont_slice_0_split
I0303 14:58:44.374261 29550 net.cpp:381] cont_1_RGB_lstm1_cont_slice_0_split <- cont_1
I0303 14:58:44.374277 29550 net.cpp:339] cont_1_RGB_lstm1_cont_slice_0_split -> cont_1_RGB_lstm1_cont_slice_0_split_0
I0303 14:58:44.374295 29550 net.cpp:339] cont_1_RGB_lstm1_cont_slice_0_split -> cont_1_RGB_lstm1_cont_slice_0_split_1
I0303 14:58:44.374313 29550 net.cpp:113] Setting up cont_1_RGB_lstm1_cont_slice_0_split
I0303 14:58:44.374332 29550 net.cpp:120] Top shape: 1 1 54 (54)
I0303 14:58:44.374346 29550 net.cpp:120] Top shape: 1 1 54 (54)
I0303 14:58:44.374358 29550 layer_factory.hpp:74] Creating layer cont_2_RGB_lstm1_cont_slice_1_split
I0303 14:58:44.374373 29550 net.cpp:84] Creating Layer cont_2_RGB_lstm1_cont_slice_1_split
I0303 14:58:44.374387 29550 net.cpp:381] cont_2_RGB_lstm1_cont_slice_1_split <- cont_2
I0303 14:58:44.374402 29550 net.cpp:339] cont_2_RGB_lstm1_cont_slice_1_split -> cont_2_RGB_lstm1_cont_slice_1_split_0
I0303 14:58:44.374418 29550 net.cpp:339] cont_2_RGB_lstm1_cont_slice_1_split -> cont_2_RGB_lstm1_cont_slice_1_split_1
I0303 14:58:44.374435 29550 net.cpp:113] Setting up cont_2_RGB_lstm1_cont_slice_1_split
I0303 14:58:44.374452 29550 net.cpp:120] Top shape: 1 1 54 (54)
I0303 14:58:44.374467 29550 net.cpp:120] Top shape: 1 1 54 (54)
I0303 14:58:44.374481 29550 layer_factory.hpp:74] Creating layer cont_3_RGB_lstm1_cont_slice_2_split
I0303 14:58:44.374495 29550 net.cpp:84] Creating Layer cont_3_RGB_lstm1_cont_slice_2_split
I0303 14:58:44.374508 29550 net.cpp:381] cont_3_RGB_lstm1_cont_slice_2_split <- cont_3
I0303 14:58:44.374523 29550 net.cpp:339] cont_3_RGB_lstm1_cont_slice_2_split -> cont_3_RGB_lstm1_cont_slice_2_split_0
I0303 14:58:44.374550 29550 net.cpp:339] cont_3_RGB_lstm1_cont_slice_2_split -> cont_3_RGB_lstm1_cont_slice_2_split_1
I0303 14:58:44.374567 29550 net.cpp:113] Setting up cont_3_RGB_lstm1_cont_slice_2_split
I0303 14:58:44.374583 29550 net.cpp:120] Top shape: 1 1 54 (54)
I0303 14:58:44.374596 29550 net.cpp:120] Top shape: 1 1 54 (54)
I0303 14:58:44.374608 29550 layer_factory.hpp:74] Creating layer cont_4_RGB_lstm1_cont_slice_3_split
I0303 14:58:44.374622 29550 net.cpp:84] Creating Layer cont_4_RGB_lstm1_cont_slice_3_split
I0303 14:58:44.374635 29550 net.cpp:381] cont_4_RGB_lstm1_cont_slice_3_split <- cont_4
I0303 14:58:44.374650 29550 net.cpp:339] cont_4_RGB_lstm1_cont_slice_3_split -> cont_4_RGB_lstm1_cont_slice_3_split_0
I0303 14:58:44.374670 29550 net.cpp:339] cont_4_RGB_lstm1_cont_slice_3_split -> cont_4_RGB_lstm1_cont_slice_3_split_1
I0303 14:58:44.374714 29550 net.cpp:113] Setting up cont_4_RGB_lstm1_cont_slice_3_split
I0303 14:58:44.374733 29550 net.cpp:120] Top shape: 1 1 54 (54)
I0303 14:58:44.374748 29550 net.cpp:120] Top shape: 1 1 54 (54)
I0303 14:58:44.374760 29550 layer_factory.hpp:74] Creating layer cont_5_RGB_lstm1_cont_slice_4_split
I0303 14:58:44.374775 29550 net.cpp:84] Creating Layer cont_5_RGB_lstm1_cont_slice_4_split
I0303 14:58:44.374791 29550 net.cpp:381] cont_5_RGB_lstm1_cont_slice_4_split <- cont_5
I0303 14:58:44.374809 29550 net.cpp:339] cont_5_RGB_lstm1_cont_slice_4_split -> cont_5_RGB_lstm1_cont_slice_4_split_0
I0303 14:58:44.374825 29550 net.cpp:339] cont_5_RGB_lstm1_cont_slice_4_split -> cont_5_RGB_lstm1_cont_slice_4_split_1
I0303 14:58:44.374841 29550 net.cpp:113] Setting up cont_5_RGB_lstm1_cont_slice_4_split
I0303 14:58:44.374860 29550 net.cpp:120] Top shape: 1 1 54 (54)
I0303 14:58:44.374873 29550 net.cpp:120] Top shape: 1 1 54 (54)
I0303 14:58:44.374886 29550 layer_factory.hpp:74] Creating layer cont_6_RGB_lstm1_cont_slice_5_split
I0303 14:58:44.374899 29550 net.cpp:84] Creating Layer cont_6_RGB_lstm1_cont_slice_5_split
I0303 14:58:44.374912 29550 net.cpp:381] cont_6_RGB_lstm1_cont_slice_5_split <- cont_6
I0303 14:58:44.374927 29550 net.cpp:339] cont_6_RGB_lstm1_cont_slice_5_split -> cont_6_RGB_lstm1_cont_slice_5_split_0
I0303 14:58:44.374943 29550 net.cpp:339] cont_6_RGB_lstm1_cont_slice_5_split -> cont_6_RGB_lstm1_cont_slice_5_split_1
I0303 14:58:44.374960 29550 net.cpp:113] Setting up cont_6_RGB_lstm1_cont_slice_5_split
I0303 14:58:44.374977 29550 net.cpp:120] Top shape: 1 1 54 (54)
I0303 14:58:44.374992 29550 net.cpp:120] Top shape: 1 1 54 (54)
I0303 14:58:44.375005 29550 layer_factory.hpp:74] Creating layer cont_7_RGB_lstm1_cont_slice_6_split
I0303 14:58:44.375018 29550 net.cpp:84] Creating Layer cont_7_RGB_lstm1_cont_slice_6_split
I0303 14:58:44.375031 29550 net.cpp:381] cont_7_RGB_lstm1_cont_slice_6_split <- cont_7
I0303 14:58:44.375046 29550 net.cpp:339] cont_7_RGB_lstm1_cont_slice_6_split -> cont_7_RGB_lstm1_cont_slice_6_split_0
I0303 14:58:44.375063 29550 net.cpp:339] cont_7_RGB_lstm1_cont_slice_6_split -> cont_7_RGB_lstm1_cont_slice_6_split_1
I0303 14:58:44.375079 29550 net.cpp:113] Setting up cont_7_RGB_lstm1_cont_slice_6_split
I0303 14:58:44.375097 29550 net.cpp:120] Top shape: 1 1 54 (54)
I0303 14:58:44.375120 29550 net.cpp:120] Top shape: 1 1 54 (54)
I0303 14:58:44.375133 29550 layer_factory.hpp:74] Creating layer cont_8_RGB_lstm1_cont_slice_7_split
I0303 14:58:44.375147 29550 net.cpp:84] Creating Layer cont_8_RGB_lstm1_cont_slice_7_split
I0303 14:58:44.375160 29550 net.cpp:381] cont_8_RGB_lstm1_cont_slice_7_split <- cont_8
I0303 14:58:44.375174 29550 net.cpp:339] cont_8_RGB_lstm1_cont_slice_7_split -> cont_8_RGB_lstm1_cont_slice_7_split_0
I0303 14:58:44.375205 29550 net.cpp:339] cont_8_RGB_lstm1_cont_slice_7_split -> cont_8_RGB_lstm1_cont_slice_7_split_1
I0303 14:58:44.375222 29550 net.cpp:113] Setting up cont_8_RGB_lstm1_cont_slice_7_split
I0303 14:58:44.375239 29550 net.cpp:120] Top shape: 1 1 54 (54)
I0303 14:58:44.375259 29550 net.cpp:120] Top shape: 1 1 54 (54)
I0303 14:58:44.375273 29550 layer_factory.hpp:74] Creating layer cont_9_RGB_lstm1_cont_slice_8_split
I0303 14:58:44.375291 29550 net.cpp:84] Creating Layer cont_9_RGB_lstm1_cont_slice_8_split
I0303 14:58:44.375306 29550 net.cpp:381] cont_9_RGB_lstm1_cont_slice_8_split <- cont_9
I0303 14:58:44.375321 29550 net.cpp:339] cont_9_RGB_lstm1_cont_slice_8_split -> cont_9_RGB_lstm1_cont_slice_8_split_0
I0303 14:58:44.375340 29550 net.cpp:339] cont_9_RGB_lstm1_cont_slice_8_split -> cont_9_RGB_lstm1_cont_slice_8_split_1
I0303 14:58:44.375357 29550 net.cpp:113] Setting up cont_9_RGB_lstm1_cont_slice_8_split
I0303 14:58:44.375375 29550 net.cpp:120] Top shape: 1 1 54 (54)
I0303 14:58:44.375388 29550 net.cpp:120] Top shape: 1 1 54 (54)
I0303 14:58:44.375401 29550 layer_factory.hpp:74] Creating layer cont_10_RGB_lstm1_cont_slice_9_split
I0303 14:58:44.375414 29550 net.cpp:84] Creating Layer cont_10_RGB_lstm1_cont_slice_9_split
I0303 14:58:44.375427 29550 net.cpp:381] cont_10_RGB_lstm1_cont_slice_9_split <- cont_10
I0303 14:58:44.375470 29550 net.cpp:339] cont_10_RGB_lstm1_cont_slice_9_split -> cont_10_RGB_lstm1_cont_slice_9_split_0
I0303 14:58:44.375488 29550 net.cpp:339] cont_10_RGB_lstm1_cont_slice_9_split -> cont_10_RGB_lstm1_cont_slice_9_split_1
I0303 14:58:44.375505 29550 net.cpp:113] Setting up cont_10_RGB_lstm1_cont_slice_9_split
I0303 14:58:44.375536 29550 net.cpp:120] Top shape: 1 1 54 (54)
I0303 14:58:44.375553 29550 net.cpp:120] Top shape: 1 1 54 (54)
I0303 14:58:44.375572 29550 layer_factory.hpp:74] Creating layer cont_11_RGB_lstm1_cont_slice_10_split
I0303 14:58:44.375591 29550 net.cpp:84] Creating Layer cont_11_RGB_lstm1_cont_slice_10_split
I0303 14:58:44.375607 29550 net.cpp:381] cont_11_RGB_lstm1_cont_slice_10_split <- cont_11
I0303 14:58:44.375622 29550 net.cpp:339] cont_11_RGB_lstm1_cont_slice_10_split -> cont_11_RGB_lstm1_cont_slice_10_split_0
I0303 14:58:44.375639 29550 net.cpp:339] cont_11_RGB_lstm1_cont_slice_10_split -> cont_11_RGB_lstm1_cont_slice_10_split_1
I0303 14:58:44.375658 29550 net.cpp:113] Setting up cont_11_RGB_lstm1_cont_slice_10_split
I0303 14:58:44.375679 29550 net.cpp:120] Top shape: 1 1 54 (54)
I0303 14:58:44.375697 29550 net.cpp:120] Top shape: 1 1 54 (54)
I0303 14:58:44.375710 29550 layer_factory.hpp:74] Creating layer cont_12_RGB_lstm1_cont_slice_11_split
I0303 14:58:44.375725 29550 net.cpp:84] Creating Layer cont_12_RGB_lstm1_cont_slice_11_split
I0303 14:58:44.375740 29550 net.cpp:381] cont_12_RGB_lstm1_cont_slice_11_split <- cont_12
I0303 14:58:44.375754 29550 net.cpp:339] cont_12_RGB_lstm1_cont_slice_11_split -> cont_12_RGB_lstm1_cont_slice_11_split_0
I0303 14:58:44.375771 29550 net.cpp:339] cont_12_RGB_lstm1_cont_slice_11_split -> cont_12_RGB_lstm1_cont_slice_11_split_1
I0303 14:58:44.375789 29550 net.cpp:113] Setting up cont_12_RGB_lstm1_cont_slice_11_split
I0303 14:58:44.375819 29550 net.cpp:120] Top shape: 1 1 54 (54)
I0303 14:58:44.375838 29550 net.cpp:120] Top shape: 1 1 54 (54)
I0303 14:58:44.375850 29550 layer_factory.hpp:74] Creating layer cont_13_RGB_lstm1_cont_slice_12_split
I0303 14:58:44.375867 29550 net.cpp:84] Creating Layer cont_13_RGB_lstm1_cont_slice_12_split
I0303 14:58:44.375882 29550 net.cpp:381] cont_13_RGB_lstm1_cont_slice_12_split <- cont_13
I0303 14:58:44.375897 29550 net.cpp:339] cont_13_RGB_lstm1_cont_slice_12_split -> cont_13_RGB_lstm1_cont_slice_12_split_0
I0303 14:58:44.375916 29550 net.cpp:339] cont_13_RGB_lstm1_cont_slice_12_split -> cont_13_RGB_lstm1_cont_slice_12_split_1
I0303 14:58:44.375934 29550 net.cpp:113] Setting up cont_13_RGB_lstm1_cont_slice_12_split
I0303 14:58:44.375955 29550 net.cpp:120] Top shape: 1 1 54 (54)
I0303 14:58:44.375970 29550 net.cpp:120] Top shape: 1 1 54 (54)
I0303 14:58:44.375983 29550 layer_factory.hpp:74] Creating layer cont_14_RGB_lstm1_cont_slice_13_split
I0303 14:58:44.375998 29550 net.cpp:84] Creating Layer cont_14_RGB_lstm1_cont_slice_13_split
I0303 14:58:44.376009 29550 net.cpp:381] cont_14_RGB_lstm1_cont_slice_13_split <- cont_14
I0303 14:58:44.376026 29550 net.cpp:339] cont_14_RGB_lstm1_cont_slice_13_split -> cont_14_RGB_lstm1_cont_slice_13_split_0
I0303 14:58:44.376044 29550 net.cpp:339] cont_14_RGB_lstm1_cont_slice_13_split -> cont_14_RGB_lstm1_cont_slice_13_split_1
I0303 14:58:44.376060 29550 net.cpp:113] Setting up cont_14_RGB_lstm1_cont_slice_13_split
I0303 14:58:44.376077 29550 net.cpp:120] Top shape: 1 1 54 (54)
I0303 14:58:44.376091 29550 net.cpp:120] Top shape: 1 1 54 (54)
I0303 14:58:44.376103 29550 layer_factory.hpp:74] Creating layer cont_15_RGB_lstm1_cont_slice_14_split
I0303 14:58:44.376117 29550 net.cpp:84] Creating Layer cont_15_RGB_lstm1_cont_slice_14_split
I0303 14:58:44.376129 29550 net.cpp:381] cont_15_RGB_lstm1_cont_slice_14_split <- cont_15
I0303 14:58:44.376145 29550 net.cpp:339] cont_15_RGB_lstm1_cont_slice_14_split -> cont_15_RGB_lstm1_cont_slice_14_split_0
I0303 14:58:44.376159 29550 net.cpp:339] cont_15_RGB_lstm1_cont_slice_14_split -> cont_15_RGB_lstm1_cont_slice_14_split_1
I0303 14:58:44.376173 29550 net.cpp:113] Setting up cont_15_RGB_lstm1_cont_slice_14_split
I0303 14:58:44.376219 29550 net.cpp:120] Top shape: 1 1 54 (54)
I0303 14:58:44.376233 29550 net.cpp:120] Top shape: 1 1 54 (54)
I0303 14:58:44.376245 29550 layer_factory.hpp:74] Creating layer cont_16_RGB_lstm1_cont_slice_15_split
I0303 14:58:44.376262 29550 net.cpp:84] Creating Layer cont_16_RGB_lstm1_cont_slice_15_split
I0303 14:58:44.376278 29550 net.cpp:381] cont_16_RGB_lstm1_cont_slice_15_split <- cont_16
I0303 14:58:44.376297 29550 net.cpp:339] cont_16_RGB_lstm1_cont_slice_15_split -> cont_16_RGB_lstm1_cont_slice_15_split_0
I0303 14:58:44.376315 29550 net.cpp:339] cont_16_RGB_lstm1_cont_slice_15_split -> cont_16_RGB_lstm1_cont_slice_15_split_1
I0303 14:58:44.376332 29550 net.cpp:113] Setting up cont_16_RGB_lstm1_cont_slice_15_split
I0303 14:58:44.376351 29550 net.cpp:120] Top shape: 1 1 54 (54)
I0303 14:58:44.376371 29550 net.cpp:120] Top shape: 1 1 54 (54)
I0303 14:58:44.376384 29550 layer_factory.hpp:74] Creating layer cont_17_RGB_lstm1_cont_slice_16_split
I0303 14:58:44.376399 29550 net.cpp:84] Creating Layer cont_17_RGB_lstm1_cont_slice_16_split
I0303 14:58:44.376411 29550 net.cpp:381] cont_17_RGB_lstm1_cont_slice_16_split <- cont_17
I0303 14:58:44.376430 29550 net.cpp:339] cont_17_RGB_lstm1_cont_slice_16_split -> cont_17_RGB_lstm1_cont_slice_16_split_0
I0303 14:58:44.376446 29550 net.cpp:339] cont_17_RGB_lstm1_cont_slice_16_split -> cont_17_RGB_lstm1_cont_slice_16_split_1
I0303 14:58:44.376463 29550 net.cpp:113] Setting up cont_17_RGB_lstm1_cont_slice_16_split
I0303 14:58:44.376483 29550 net.cpp:120] Top shape: 1 1 54 (54)
I0303 14:58:44.376499 29550 net.cpp:120] Top shape: 1 1 54 (54)
I0303 14:58:44.376512 29550 layer_factory.hpp:74] Creating layer cont_18_RGB_lstm1_cont_slice_17_split
I0303 14:58:44.376525 29550 net.cpp:84] Creating Layer cont_18_RGB_lstm1_cont_slice_17_split
I0303 14:58:44.376540 29550 net.cpp:381] cont_18_RGB_lstm1_cont_slice_17_split <- cont_18
I0303 14:58:44.376555 29550 net.cpp:339] cont_18_RGB_lstm1_cont_slice_17_split -> cont_18_RGB_lstm1_cont_slice_17_split_0
I0303 14:58:44.376571 29550 net.cpp:339] cont_18_RGB_lstm1_cont_slice_17_split -> cont_18_RGB_lstm1_cont_slice_17_split_1
I0303 14:58:44.376600 29550 net.cpp:113] Setting up cont_18_RGB_lstm1_cont_slice_17_split
I0303 14:58:44.376617 29550 net.cpp:120] Top shape: 1 1 54 (54)
I0303 14:58:44.376631 29550 net.cpp:120] Top shape: 1 1 54 (54)
I0303 14:58:44.376643 29550 layer_factory.hpp:74] Creating layer cont_19_RGB_lstm1_cont_slice_18_split
I0303 14:58:44.376657 29550 net.cpp:84] Creating Layer cont_19_RGB_lstm1_cont_slice_18_split
I0303 14:58:44.376668 29550 net.cpp:381] cont_19_RGB_lstm1_cont_slice_18_split <- cont_19
I0303 14:58:44.376685 29550 net.cpp:339] cont_19_RGB_lstm1_cont_slice_18_split -> cont_19_RGB_lstm1_cont_slice_18_split_0
I0303 14:58:44.376703 29550 net.cpp:339] cont_19_RGB_lstm1_cont_slice_18_split -> cont_19_RGB_lstm1_cont_slice_18_split_1
I0303 14:58:44.376719 29550 net.cpp:113] Setting up cont_19_RGB_lstm1_cont_slice_18_split
I0303 14:58:44.376735 29550 net.cpp:120] Top shape: 1 1 54 (54)
I0303 14:58:44.376749 29550 net.cpp:120] Top shape: 1 1 54 (54)
I0303 14:58:44.376760 29550 layer_factory.hpp:74] Creating layer cont_20_RGB_lstm1_cont_slice_19_split
I0303 14:58:44.376775 29550 net.cpp:84] Creating Layer cont_20_RGB_lstm1_cont_slice_19_split
I0303 14:58:44.376786 29550 net.cpp:381] cont_20_RGB_lstm1_cont_slice_19_split <- cont_20
I0303 14:58:44.376803 29550 net.cpp:339] cont_20_RGB_lstm1_cont_slice_19_split -> cont_20_RGB_lstm1_cont_slice_19_split_0
I0303 14:58:44.376821 29550 net.cpp:339] cont_20_RGB_lstm1_cont_slice_19_split -> cont_20_RGB_lstm1_cont_slice_19_split_1
I0303 14:58:44.376837 29550 net.cpp:113] Setting up cont_20_RGB_lstm1_cont_slice_19_split
I0303 14:58:44.376854 29550 net.cpp:120] Top shape: 1 1 54 (54)
I0303 14:58:44.376869 29550 net.cpp:120] Top shape: 1 1 54 (54)
I0303 14:58:44.376884 29550 layer_factory.hpp:74] Creating layer cont_21_RGB_lstm1_cont_slice_20_split
I0303 14:58:44.376898 29550 net.cpp:84] Creating Layer cont_21_RGB_lstm1_cont_slice_20_split
I0303 14:58:44.376936 29550 net.cpp:381] cont_21_RGB_lstm1_cont_slice_20_split <- cont_21
I0303 14:58:44.376958 29550 net.cpp:339] cont_21_RGB_lstm1_cont_slice_20_split -> cont_21_RGB_lstm1_cont_slice_20_split_0
I0303 14:58:44.376977 29550 net.cpp:339] cont_21_RGB_lstm1_cont_slice_20_split -> cont_21_RGB_lstm1_cont_slice_20_split_1
I0303 14:58:44.376993 29550 net.cpp:113] Setting up cont_21_RGB_lstm1_cont_slice_20_split
I0303 14:58:44.377008 29550 net.cpp:120] Top shape: 1 1 54 (54)
I0303 14:58:44.377023 29550 net.cpp:120] Top shape: 1 1 54 (54)
I0303 14:58:44.377035 29550 layer_factory.hpp:74] Creating layer cont_22_RGB_lstm1_cont_slice_21_split
I0303 14:58:44.377049 29550 net.cpp:84] Creating Layer cont_22_RGB_lstm1_cont_slice_21_split
I0303 14:58:44.377063 29550 net.cpp:381] cont_22_RGB_lstm1_cont_slice_21_split <- cont_22
I0303 14:58:44.377076 29550 net.cpp:339] cont_22_RGB_lstm1_cont_slice_21_split -> cont_22_RGB_lstm1_cont_slice_21_split_0
I0303 14:58:44.377092 29550 net.cpp:339] cont_22_RGB_lstm1_cont_slice_21_split -> cont_22_RGB_lstm1_cont_slice_21_split_1
I0303 14:58:44.377109 29550 net.cpp:113] Setting up cont_22_RGB_lstm1_cont_slice_21_split
I0303 14:58:44.377127 29550 net.cpp:120] Top shape: 1 1 54 (54)
I0303 14:58:44.377142 29550 net.cpp:120] Top shape: 1 1 54 (54)
I0303 14:58:44.377156 29550 layer_factory.hpp:74] Creating layer cont_23_RGB_lstm1_cont_slice_22_split
I0303 14:58:44.377169 29550 net.cpp:84] Creating Layer cont_23_RGB_lstm1_cont_slice_22_split
I0303 14:58:44.377182 29550 net.cpp:381] cont_23_RGB_lstm1_cont_slice_22_split <- cont_23
I0303 14:58:44.377214 29550 net.cpp:339] cont_23_RGB_lstm1_cont_slice_22_split -> cont_23_RGB_lstm1_cont_slice_22_split_0
I0303 14:58:44.377236 29550 net.cpp:339] cont_23_RGB_lstm1_cont_slice_22_split -> cont_23_RGB_lstm1_cont_slice_22_split_1
I0303 14:58:44.377254 29550 net.cpp:113] Setting up cont_23_RGB_lstm1_cont_slice_22_split
I0303 14:58:44.377281 29550 net.cpp:120] Top shape: 1 1 54 (54)
I0303 14:58:44.377296 29550 net.cpp:120] Top shape: 1 1 54 (54)
I0303 14:58:44.377308 29550 layer_factory.hpp:74] Creating layer cont_24_RGB_lstm1_cont_slice_23_split
I0303 14:58:44.377322 29550 net.cpp:84] Creating Layer cont_24_RGB_lstm1_cont_slice_23_split
I0303 14:58:44.377336 29550 net.cpp:381] cont_24_RGB_lstm1_cont_slice_23_split <- cont_24
I0303 14:58:44.377352 29550 net.cpp:339] cont_24_RGB_lstm1_cont_slice_23_split -> cont_24_RGB_lstm1_cont_slice_23_split_0
I0303 14:58:44.377370 29550 net.cpp:339] cont_24_RGB_lstm1_cont_slice_23_split -> cont_24_RGB_lstm1_cont_slice_23_split_1
I0303 14:58:44.377388 29550 net.cpp:113] Setting up cont_24_RGB_lstm1_cont_slice_23_split
I0303 14:58:44.377408 29550 net.cpp:120] Top shape: 1 1 54 (54)
I0303 14:58:44.377424 29550 net.cpp:120] Top shape: 1 1 54 (54)
I0303 14:58:44.377435 29550 layer_factory.hpp:74] Creating layer cont_25_RGB_lstm1_cont_slice_24_split
I0303 14:58:44.377449 29550 net.cpp:84] Creating Layer cont_25_RGB_lstm1_cont_slice_24_split
I0303 14:58:44.377465 29550 net.cpp:381] cont_25_RGB_lstm1_cont_slice_24_split <- cont_25
I0303 14:58:44.377480 29550 net.cpp:339] cont_25_RGB_lstm1_cont_slice_24_split -> cont_25_RGB_lstm1_cont_slice_24_split_0
I0303 14:58:44.377496 29550 net.cpp:339] cont_25_RGB_lstm1_cont_slice_24_split -> cont_25_RGB_lstm1_cont_slice_24_split_1
I0303 14:58:44.377521 29550 net.cpp:113] Setting up cont_25_RGB_lstm1_cont_slice_24_split
I0303 14:58:44.377537 29550 net.cpp:120] Top shape: 1 1 54 (54)
I0303 14:58:44.377550 29550 net.cpp:120] Top shape: 1 1 54 (54)
I0303 14:58:44.377562 29550 layer_factory.hpp:74] Creating layer cont_26_RGB_lstm1_cont_slice_25_split
I0303 14:58:44.377578 29550 net.cpp:84] Creating Layer cont_26_RGB_lstm1_cont_slice_25_split
I0303 14:58:44.377590 29550 net.cpp:381] cont_26_RGB_lstm1_cont_slice_25_split <- cont_26
I0303 14:58:44.377605 29550 net.cpp:339] cont_26_RGB_lstm1_cont_slice_25_split -> cont_26_RGB_lstm1_cont_slice_25_split_0
I0303 14:58:44.377621 29550 net.cpp:339] cont_26_RGB_lstm1_cont_slice_25_split -> cont_26_RGB_lstm1_cont_slice_25_split_1
I0303 14:58:44.377638 29550 net.cpp:113] Setting up cont_26_RGB_lstm1_cont_slice_25_split
I0303 14:58:44.377682 29550 net.cpp:120] Top shape: 1 1 54 (54)
I0303 14:58:44.377699 29550 net.cpp:120] Top shape: 1 1 54 (54)
I0303 14:58:44.377712 29550 layer_factory.hpp:74] Creating layer cont_27_RGB_lstm1_cont_slice_26_split
I0303 14:58:44.377725 29550 net.cpp:84] Creating Layer cont_27_RGB_lstm1_cont_slice_26_split
I0303 14:58:44.377739 29550 net.cpp:381] cont_27_RGB_lstm1_cont_slice_26_split <- cont_27
I0303 14:58:44.377754 29550 net.cpp:339] cont_27_RGB_lstm1_cont_slice_26_split -> cont_27_RGB_lstm1_cont_slice_26_split_0
I0303 14:58:44.377770 29550 net.cpp:339] cont_27_RGB_lstm1_cont_slice_26_split -> cont_27_RGB_lstm1_cont_slice_26_split_1
I0303 14:58:44.377787 29550 net.cpp:113] Setting up cont_27_RGB_lstm1_cont_slice_26_split
I0303 14:58:44.377804 29550 net.cpp:120] Top shape: 1 1 54 (54)
I0303 14:58:44.377818 29550 net.cpp:120] Top shape: 1 1 54 (54)
I0303 14:58:44.377832 29550 layer_factory.hpp:74] Creating layer cont_28_RGB_lstm1_cont_slice_27_split
I0303 14:58:44.377851 29550 net.cpp:84] Creating Layer cont_28_RGB_lstm1_cont_slice_27_split
I0303 14:58:44.377864 29550 net.cpp:381] cont_28_RGB_lstm1_cont_slice_27_split <- cont_28
I0303 14:58:44.377881 29550 net.cpp:339] cont_28_RGB_lstm1_cont_slice_27_split -> cont_28_RGB_lstm1_cont_slice_27_split_0
I0303 14:58:44.377897 29550 net.cpp:339] cont_28_RGB_lstm1_cont_slice_27_split -> cont_28_RGB_lstm1_cont_slice_27_split_1
I0303 14:58:44.377914 29550 net.cpp:113] Setting up cont_28_RGB_lstm1_cont_slice_27_split
I0303 14:58:44.377931 29550 net.cpp:120] Top shape: 1 1 54 (54)
I0303 14:58:44.377948 29550 net.cpp:120] Top shape: 1 1 54 (54)
I0303 14:58:44.377960 29550 layer_factory.hpp:74] Creating layer cont_29_RGB_lstm1_cont_slice_28_split
I0303 14:58:44.377974 29550 net.cpp:84] Creating Layer cont_29_RGB_lstm1_cont_slice_28_split
I0303 14:58:44.377986 29550 net.cpp:381] cont_29_RGB_lstm1_cont_slice_28_split <- cont_29
I0303 14:58:44.378001 29550 net.cpp:339] cont_29_RGB_lstm1_cont_slice_28_split -> cont_29_RGB_lstm1_cont_slice_28_split_0
I0303 14:58:44.378027 29550 net.cpp:339] cont_29_RGB_lstm1_cont_slice_28_split -> cont_29_RGB_lstm1_cont_slice_28_split_1
I0303 14:58:44.378043 29550 net.cpp:113] Setting up cont_29_RGB_lstm1_cont_slice_28_split
I0303 14:58:44.378058 29550 net.cpp:120] Top shape: 1 1 54 (54)
I0303 14:58:44.378072 29550 net.cpp:120] Top shape: 1 1 54 (54)
I0303 14:58:44.378083 29550 layer_factory.hpp:74] Creating layer cont_30_RGB_lstm1_cont_slice_29_split
I0303 14:58:44.378098 29550 net.cpp:84] Creating Layer cont_30_RGB_lstm1_cont_slice_29_split
I0303 14:58:44.378111 29550 net.cpp:381] cont_30_RGB_lstm1_cont_slice_29_split <- cont_30
I0303 14:58:44.378129 29550 net.cpp:339] cont_30_RGB_lstm1_cont_slice_29_split -> cont_30_RGB_lstm1_cont_slice_29_split_0
I0303 14:58:44.378146 29550 net.cpp:339] cont_30_RGB_lstm1_cont_slice_29_split -> cont_30_RGB_lstm1_cont_slice_29_split_1
I0303 14:58:44.378161 29550 net.cpp:113] Setting up cont_30_RGB_lstm1_cont_slice_29_split
I0303 14:58:44.378177 29550 net.cpp:120] Top shape: 1 1 54 (54)
I0303 14:58:44.378208 29550 net.cpp:120] Top shape: 1 1 54 (54)
I0303 14:58:44.378237 29550 layer_factory.hpp:74] Creating layer cont_31_RGB_lstm1_cont_slice_30_split
I0303 14:58:44.378253 29550 net.cpp:84] Creating Layer cont_31_RGB_lstm1_cont_slice_30_split
I0303 14:58:44.378268 29550 net.cpp:381] cont_31_RGB_lstm1_cont_slice_30_split <- cont_31
I0303 14:58:44.378283 29550 net.cpp:339] cont_31_RGB_lstm1_cont_slice_30_split -> cont_31_RGB_lstm1_cont_slice_30_split_0
I0303 14:58:44.378299 29550 net.cpp:339] cont_31_RGB_lstm1_cont_slice_30_split -> cont_31_RGB_lstm1_cont_slice_30_split_1
I0303 14:58:44.378316 29550 net.cpp:113] Setting up cont_31_RGB_lstm1_cont_slice_30_split
I0303 14:58:44.378335 29550 net.cpp:120] Top shape: 1 1 54 (54)
I0303 14:58:44.378350 29550 net.cpp:120] Top shape: 1 1 54 (54)
I0303 14:58:44.378362 29550 layer_factory.hpp:74] Creating layer cont_32_RGB_lstm1_cont_slice_31_split
I0303 14:58:44.378382 29550 net.cpp:84] Creating Layer cont_32_RGB_lstm1_cont_slice_31_split
I0303 14:58:44.378422 29550 net.cpp:381] cont_32_RGB_lstm1_cont_slice_31_split <- cont_32
I0303 14:58:44.378439 29550 net.cpp:339] cont_32_RGB_lstm1_cont_slice_31_split -> cont_32_RGB_lstm1_cont_slice_31_split_0
I0303 14:58:44.378458 29550 net.cpp:339] cont_32_RGB_lstm1_cont_slice_31_split -> cont_32_RGB_lstm1_cont_slice_31_split_1
I0303 14:58:44.378475 29550 net.cpp:113] Setting up cont_32_RGB_lstm1_cont_slice_31_split
I0303 14:58:44.378494 29550 net.cpp:120] Top shape: 1 1 54 (54)
I0303 14:58:44.378522 29550 net.cpp:120] Top shape: 1 1 54 (54)
I0303 14:58:44.378536 29550 layer_factory.hpp:74] Creating layer cont_33_RGB_lstm1_cont_slice_32_split
I0303 14:58:44.378551 29550 net.cpp:84] Creating Layer cont_33_RGB_lstm1_cont_slice_32_split
I0303 14:58:44.378577 29550 net.cpp:381] cont_33_RGB_lstm1_cont_slice_32_split <- cont_33
I0303 14:58:44.378594 29550 net.cpp:339] cont_33_RGB_lstm1_cont_slice_32_split -> cont_33_RGB_lstm1_cont_slice_32_split_0
I0303 14:58:44.378612 29550 net.cpp:339] cont_33_RGB_lstm1_cont_slice_32_split -> cont_33_RGB_lstm1_cont_slice_32_split_1
I0303 14:58:44.378628 29550 net.cpp:113] Setting up cont_33_RGB_lstm1_cont_slice_32_split
I0303 14:58:44.378644 29550 net.cpp:120] Top shape: 1 1 54 (54)
I0303 14:58:44.378659 29550 net.cpp:120] Top shape: 1 1 54 (54)
I0303 14:58:44.378670 29550 layer_factory.hpp:74] Creating layer cont_34_RGB_lstm1_cont_slice_33_split
I0303 14:58:44.378684 29550 net.cpp:84] Creating Layer cont_34_RGB_lstm1_cont_slice_33_split
I0303 14:58:44.378697 29550 net.cpp:381] cont_34_RGB_lstm1_cont_slice_33_split <- cont_34
I0303 14:58:44.378715 29550 net.cpp:339] cont_34_RGB_lstm1_cont_slice_33_split -> cont_34_RGB_lstm1_cont_slice_33_split_0
I0303 14:58:44.378732 29550 net.cpp:339] cont_34_RGB_lstm1_cont_slice_33_split -> cont_34_RGB_lstm1_cont_slice_33_split_1
I0303 14:58:44.378758 29550 net.cpp:113] Setting up cont_34_RGB_lstm1_cont_slice_33_split
I0303 14:58:44.378774 29550 net.cpp:120] Top shape: 1 1 54 (54)
I0303 14:58:44.378788 29550 net.cpp:120] Top shape: 1 1 54 (54)
I0303 14:58:44.378801 29550 layer_factory.hpp:74] Creating layer cont_35_RGB_lstm1_cont_slice_34_split
I0303 14:58:44.378816 29550 net.cpp:84] Creating Layer cont_35_RGB_lstm1_cont_slice_34_split
I0303 14:58:44.378829 29550 net.cpp:381] cont_35_RGB_lstm1_cont_slice_34_split <- cont_35
I0303 14:58:44.378842 29550 net.cpp:339] cont_35_RGB_lstm1_cont_slice_34_split -> cont_35_RGB_lstm1_cont_slice_34_split_0
I0303 14:58:44.378859 29550 net.cpp:339] cont_35_RGB_lstm1_cont_slice_34_split -> cont_35_RGB_lstm1_cont_slice_34_split_1
I0303 14:58:44.378873 29550 net.cpp:113] Setting up cont_35_RGB_lstm1_cont_slice_34_split
I0303 14:58:44.378890 29550 net.cpp:120] Top shape: 1 1 54 (54)
I0303 14:58:44.378903 29550 net.cpp:120] Top shape: 1 1 54 (54)
I0303 14:58:44.378916 29550 layer_factory.hpp:74] Creating layer cont_36_RGB_lstm1_cont_slice_35_split
I0303 14:58:44.378928 29550 net.cpp:84] Creating Layer cont_36_RGB_lstm1_cont_slice_35_split
I0303 14:58:44.378940 29550 net.cpp:381] cont_36_RGB_lstm1_cont_slice_35_split <- cont_36
I0303 14:58:44.378957 29550 net.cpp:339] cont_36_RGB_lstm1_cont_slice_35_split -> cont_36_RGB_lstm1_cont_slice_35_split_0
I0303 14:58:44.378981 29550 net.cpp:339] cont_36_RGB_lstm1_cont_slice_35_split -> cont_36_RGB_lstm1_cont_slice_35_split_1
I0303 14:58:44.378999 29550 net.cpp:113] Setting up cont_36_RGB_lstm1_cont_slice_35_split
I0303 14:58:44.379015 29550 net.cpp:120] Top shape: 1 1 54 (54)
I0303 14:58:44.379029 29550 net.cpp:120] Top shape: 1 1 54 (54)
I0303 14:58:44.379045 29550 layer_factory.hpp:74] Creating layer cont_37_RGB_lstm1_cont_slice_36_split
I0303 14:58:44.379061 29550 net.cpp:84] Creating Layer cont_37_RGB_lstm1_cont_slice_36_split
I0303 14:58:44.379076 29550 net.cpp:381] cont_37_RGB_lstm1_cont_slice_36_split <- cont_37
I0303 14:58:44.379091 29550 net.cpp:339] cont_37_RGB_lstm1_cont_slice_36_split -> cont_37_RGB_lstm1_cont_slice_36_split_0
I0303 14:58:44.379106 29550 net.cpp:339] cont_37_RGB_lstm1_cont_slice_36_split -> cont_37_RGB_lstm1_cont_slice_36_split_1
I0303 14:58:44.379147 29550 net.cpp:113] Setting up cont_37_RGB_lstm1_cont_slice_36_split
I0303 14:58:44.379164 29550 net.cpp:120] Top shape: 1 1 54 (54)
I0303 14:58:44.379179 29550 net.cpp:120] Top shape: 1 1 54 (54)
I0303 14:58:44.379197 29550 layer_factory.hpp:74] Creating layer cont_38_RGB_lstm1_cont_slice_37_split
I0303 14:58:44.379214 29550 net.cpp:84] Creating Layer cont_38_RGB_lstm1_cont_slice_37_split
I0303 14:58:44.379227 29550 net.cpp:381] cont_38_RGB_lstm1_cont_slice_37_split <- cont_38
I0303 14:58:44.379242 29550 net.cpp:339] cont_38_RGB_lstm1_cont_slice_37_split -> cont_38_RGB_lstm1_cont_slice_37_split_0
I0303 14:58:44.379259 29550 net.cpp:339] cont_38_RGB_lstm1_cont_slice_37_split -> cont_38_RGB_lstm1_cont_slice_37_split_1
I0303 14:58:44.379276 29550 net.cpp:113] Setting up cont_38_RGB_lstm1_cont_slice_37_split
I0303 14:58:44.379293 29550 net.cpp:120] Top shape: 1 1 54 (54)
I0303 14:58:44.379307 29550 net.cpp:120] Top shape: 1 1 54 (54)
I0303 14:58:44.379322 29550 layer_factory.hpp:74] Creating layer cont_39_RGB_lstm1_cont_slice_38_split
I0303 14:58:44.379338 29550 net.cpp:84] Creating Layer cont_39_RGB_lstm1_cont_slice_38_split
I0303 14:58:44.379353 29550 net.cpp:381] cont_39_RGB_lstm1_cont_slice_38_split <- cont_39
I0303 14:58:44.379367 29550 net.cpp:339] cont_39_RGB_lstm1_cont_slice_38_split -> cont_39_RGB_lstm1_cont_slice_38_split_0
I0303 14:58:44.379384 29550 net.cpp:339] cont_39_RGB_lstm1_cont_slice_38_split -> cont_39_RGB_lstm1_cont_slice_38_split_1
I0303 14:58:44.379400 29550 net.cpp:113] Setting up cont_39_RGB_lstm1_cont_slice_38_split
I0303 14:58:44.379420 29550 net.cpp:120] Top shape: 1 1 54 (54)
I0303 14:58:44.379433 29550 net.cpp:120] Top shape: 1 1 54 (54)
I0303 14:58:44.379446 29550 layer_factory.hpp:74] Creating layer cont_40_RGB_lstm1_cont_slice_39_split
I0303 14:58:44.379459 29550 net.cpp:84] Creating Layer cont_40_RGB_lstm1_cont_slice_39_split
I0303 14:58:44.379472 29550 net.cpp:381] cont_40_RGB_lstm1_cont_slice_39_split <- cont_40
I0303 14:58:44.379487 29550 net.cpp:339] cont_40_RGB_lstm1_cont_slice_39_split -> cont_40_RGB_lstm1_cont_slice_39_split_0
I0303 14:58:44.379503 29550 net.cpp:339] cont_40_RGB_lstm1_cont_slice_39_split -> cont_40_RGB_lstm1_cont_slice_39_split_1
I0303 14:58:44.379528 29550 net.cpp:113] Setting up cont_40_RGB_lstm1_cont_slice_39_split
I0303 14:58:44.379544 29550 net.cpp:120] Top shape: 1 1 54 (54)
I0303 14:58:44.379556 29550 net.cpp:120] Top shape: 1 1 54 (54)
I0303 14:58:44.379568 29550 layer_factory.hpp:74] Creating layer cont_41_RGB_lstm1_cont_slice_40_split
I0303 14:58:44.379583 29550 net.cpp:84] Creating Layer cont_41_RGB_lstm1_cont_slice_40_split
I0303 14:58:44.379596 29550 net.cpp:381] cont_41_RGB_lstm1_cont_slice_40_split <- cont_41
I0303 14:58:44.379612 29550 net.cpp:339] cont_41_RGB_lstm1_cont_slice_40_split -> cont_41_RGB_lstm1_cont_slice_40_split_0
I0303 14:58:44.379629 29550 net.cpp:339] cont_41_RGB_lstm1_cont_slice_40_split -> cont_41_RGB_lstm1_cont_slice_40_split_1
I0303 14:58:44.379647 29550 net.cpp:113] Setting up cont_41_RGB_lstm1_cont_slice_40_split
I0303 14:58:44.379662 29550 net.cpp:120] Top shape: 1 1 54 (54)
I0303 14:58:44.379676 29550 net.cpp:120] Top shape: 1 1 54 (54)
I0303 14:58:44.379690 29550 layer_factory.hpp:74] Creating layer cont_42_RGB_lstm1_cont_slice_41_split
I0303 14:58:44.379704 29550 net.cpp:84] Creating Layer cont_42_RGB_lstm1_cont_slice_41_split
I0303 14:58:44.379717 29550 net.cpp:381] cont_42_RGB_lstm1_cont_slice_41_split <- cont_42
I0303 14:58:44.379730 29550 net.cpp:339] cont_42_RGB_lstm1_cont_slice_41_split -> cont_42_RGB_lstm1_cont_slice_41_split_0
I0303 14:58:44.379745 29550 net.cpp:339] cont_42_RGB_lstm1_cont_slice_41_split -> cont_42_RGB_lstm1_cont_slice_41_split_1
I0303 14:58:44.379758 29550 net.cpp:113] Setting up cont_42_RGB_lstm1_cont_slice_41_split
I0303 14:58:44.379776 29550 net.cpp:120] Top shape: 1 1 54 (54)
I0303 14:58:44.379789 29550 net.cpp:120] Top shape: 1 1 54 (54)
I0303 14:58:44.379801 29550 layer_factory.hpp:74] Creating layer cont_43_RGB_lstm1_cont_slice_42_split
I0303 14:58:44.379814 29550 net.cpp:84] Creating Layer cont_43_RGB_lstm1_cont_slice_42_split
I0303 14:58:44.379853 29550 net.cpp:381] cont_43_RGB_lstm1_cont_slice_42_split <- cont_43
I0303 14:58:44.379873 29550 net.cpp:339] cont_43_RGB_lstm1_cont_slice_42_split -> cont_43_RGB_lstm1_cont_slice_42_split_0
I0303 14:58:44.379892 29550 net.cpp:339] cont_43_RGB_lstm1_cont_slice_42_split -> cont_43_RGB_lstm1_cont_slice_42_split_1
I0303 14:58:44.379910 29550 net.cpp:113] Setting up cont_43_RGB_lstm1_cont_slice_42_split
I0303 14:58:44.379927 29550 net.cpp:120] Top shape: 1 1 54 (54)
I0303 14:58:44.379941 29550 net.cpp:120] Top shape: 1 1 54 (54)
I0303 14:58:44.379954 29550 layer_factory.hpp:74] Creating layer cont_44_RGB_lstm1_cont_slice_43_split
I0303 14:58:44.379968 29550 net.cpp:84] Creating Layer cont_44_RGB_lstm1_cont_slice_43_split
I0303 14:58:44.379981 29550 net.cpp:381] cont_44_RGB_lstm1_cont_slice_43_split <- cont_44
I0303 14:58:44.379994 29550 net.cpp:339] cont_44_RGB_lstm1_cont_slice_43_split -> cont_44_RGB_lstm1_cont_slice_43_split_0
I0303 14:58:44.380010 29550 net.cpp:339] cont_44_RGB_lstm1_cont_slice_43_split -> cont_44_RGB_lstm1_cont_slice_43_split_1
I0303 14:58:44.380026 29550 net.cpp:113] Setting up cont_44_RGB_lstm1_cont_slice_43_split
I0303 14:58:44.380043 29550 net.cpp:120] Top shape: 1 1 54 (54)
I0303 14:58:44.380056 29550 net.cpp:120] Top shape: 1 1 54 (54)
I0303 14:58:44.380069 29550 layer_factory.hpp:74] Creating layer cont_45_RGB_lstm1_cont_slice_44_split
I0303 14:58:44.380082 29550 net.cpp:84] Creating Layer cont_45_RGB_lstm1_cont_slice_44_split
I0303 14:58:44.380095 29550 net.cpp:381] cont_45_RGB_lstm1_cont_slice_44_split <- cont_45
I0303 14:58:44.380111 29550 net.cpp:339] cont_45_RGB_lstm1_cont_slice_44_split -> cont_45_RGB_lstm1_cont_slice_44_split_0
I0303 14:58:44.380131 29550 net.cpp:339] cont_45_RGB_lstm1_cont_slice_44_split -> cont_45_RGB_lstm1_cont_slice_44_split_1
I0303 14:58:44.380157 29550 net.cpp:113] Setting up cont_45_RGB_lstm1_cont_slice_44_split
I0303 14:58:44.380173 29550 net.cpp:120] Top shape: 1 1 54 (54)
I0303 14:58:44.380192 29550 net.cpp:120] Top shape: 1 1 54 (54)
I0303 14:58:44.380205 29550 layer_factory.hpp:74] Creating layer cont_46_RGB_lstm1_cont_slice_45_split
I0303 14:58:44.380219 29550 net.cpp:84] Creating Layer cont_46_RGB_lstm1_cont_slice_45_split
I0303 14:58:44.380234 29550 net.cpp:381] cont_46_RGB_lstm1_cont_slice_45_split <- cont_46
I0303 14:58:44.380247 29550 net.cpp:339] cont_46_RGB_lstm1_cont_slice_45_split -> cont_46_RGB_lstm1_cont_slice_45_split_0
I0303 14:58:44.380262 29550 net.cpp:339] cont_46_RGB_lstm1_cont_slice_45_split -> cont_46_RGB_lstm1_cont_slice_45_split_1
I0303 14:58:44.380278 29550 net.cpp:113] Setting up cont_46_RGB_lstm1_cont_slice_45_split
I0303 14:58:44.380295 29550 net.cpp:120] Top shape: 1 1 54 (54)
I0303 14:58:44.380307 29550 net.cpp:120] Top shape: 1 1 54 (54)
I0303 14:58:44.380319 29550 layer_factory.hpp:74] Creating layer cont_47_RGB_lstm1_cont_slice_46_split
I0303 14:58:44.380332 29550 net.cpp:84] Creating Layer cont_47_RGB_lstm1_cont_slice_46_split
I0303 14:58:44.380344 29550 net.cpp:381] cont_47_RGB_lstm1_cont_slice_46_split <- cont_47
I0303 14:58:44.380359 29550 net.cpp:339] cont_47_RGB_lstm1_cont_slice_46_split -> cont_47_RGB_lstm1_cont_slice_46_split_0
I0303 14:58:44.380376 29550 net.cpp:339] cont_47_RGB_lstm1_cont_slice_46_split -> cont_47_RGB_lstm1_cont_slice_46_split_1
I0303 14:58:44.380391 29550 net.cpp:113] Setting up cont_47_RGB_lstm1_cont_slice_46_split
I0303 14:58:44.380409 29550 net.cpp:120] Top shape: 1 1 54 (54)
I0303 14:58:44.380421 29550 net.cpp:120] Top shape: 1 1 54 (54)
I0303 14:58:44.380434 29550 layer_factory.hpp:74] Creating layer cont_48_RGB_lstm1_cont_slice_47_split
I0303 14:58:44.380450 29550 net.cpp:84] Creating Layer cont_48_RGB_lstm1_cont_slice_47_split
I0303 14:58:44.380462 29550 net.cpp:381] cont_48_RGB_lstm1_cont_slice_47_split <- cont_48
I0303 14:58:44.380476 29550 net.cpp:339] cont_48_RGB_lstm1_cont_slice_47_split -> cont_48_RGB_lstm1_cont_slice_47_split_0
I0303 14:58:44.380492 29550 net.cpp:339] cont_48_RGB_lstm1_cont_slice_47_split -> cont_48_RGB_lstm1_cont_slice_47_split_1
I0303 14:58:44.380530 29550 net.cpp:113] Setting up cont_48_RGB_lstm1_cont_slice_47_split
I0303 14:58:44.380548 29550 net.cpp:120] Top shape: 1 1 54 (54)
I0303 14:58:44.380563 29550 net.cpp:120] Top shape: 1 1 54 (54)
I0303 14:58:44.380575 29550 layer_factory.hpp:74] Creating layer cont_49_RGB_lstm1_cont_slice_48_split
I0303 14:58:44.380590 29550 net.cpp:84] Creating Layer cont_49_RGB_lstm1_cont_slice_48_split
I0303 14:58:44.380605 29550 net.cpp:381] cont_49_RGB_lstm1_cont_slice_48_split <- cont_49
I0303 14:58:44.380620 29550 net.cpp:339] cont_49_RGB_lstm1_cont_slice_48_split -> cont_49_RGB_lstm1_cont_slice_48_split_0
I0303 14:58:44.380638 29550 net.cpp:339] cont_49_RGB_lstm1_cont_slice_48_split -> cont_49_RGB_lstm1_cont_slice_48_split_1
I0303 14:58:44.380655 29550 net.cpp:113] Setting up cont_49_RGB_lstm1_cont_slice_48_split
I0303 14:58:44.380671 29550 net.cpp:120] Top shape: 1 1 54 (54)
I0303 14:58:44.380684 29550 net.cpp:120] Top shape: 1 1 54 (54)
I0303 14:58:44.380697 29550 layer_factory.hpp:74] Creating layer cont_50_RGB_lstm1_cont_slice_49_split
I0303 14:58:44.380713 29550 net.cpp:84] Creating Layer cont_50_RGB_lstm1_cont_slice_49_split
I0303 14:58:44.380728 29550 net.cpp:381] cont_50_RGB_lstm1_cont_slice_49_split <- cont_50
I0303 14:58:44.380741 29550 net.cpp:339] cont_50_RGB_lstm1_cont_slice_49_split -> cont_50_RGB_lstm1_cont_slice_49_split_0
I0303 14:58:44.380758 29550 net.cpp:339] cont_50_RGB_lstm1_cont_slice_49_split -> cont_50_RGB_lstm1_cont_slice_49_split_1
I0303 14:58:44.380774 29550 net.cpp:113] Setting up cont_50_RGB_lstm1_cont_slice_49_split
I0303 14:58:44.380789 29550 net.cpp:120] Top shape: 1 1 54 (54)
I0303 14:58:44.380805 29550 net.cpp:120] Top shape: 1 1 54 (54)
I0303 14:58:44.380816 29550 layer_factory.hpp:74] Creating layer cont_51_RGB_lstm1_cont_slice_50_split
I0303 14:58:44.380841 29550 net.cpp:84] Creating Layer cont_51_RGB_lstm1_cont_slice_50_split
I0303 14:58:44.380854 29550 net.cpp:381] cont_51_RGB_lstm1_cont_slice_50_split <- cont_51
I0303 14:58:44.380868 29550 net.cpp:339] cont_51_RGB_lstm1_cont_slice_50_split -> cont_51_RGB_lstm1_cont_slice_50_split_0
I0303 14:58:44.380885 29550 net.cpp:339] cont_51_RGB_lstm1_cont_slice_50_split -> cont_51_RGB_lstm1_cont_slice_50_split_1
I0303 14:58:44.380903 29550 net.cpp:113] Setting up cont_51_RGB_lstm1_cont_slice_50_split
I0303 14:58:44.380919 29550 net.cpp:120] Top shape: 1 1 54 (54)
I0303 14:58:44.380934 29550 net.cpp:120] Top shape: 1 1 54 (54)
I0303 14:58:44.380945 29550 layer_factory.hpp:74] Creating layer cont_52_RGB_lstm1_cont_slice_51_split
I0303 14:58:44.380959 29550 net.cpp:84] Creating Layer cont_52_RGB_lstm1_cont_slice_51_split
I0303 14:58:44.380971 29550 net.cpp:381] cont_52_RGB_lstm1_cont_slice_51_split <- cont_52
I0303 14:58:44.380987 29550 net.cpp:339] cont_52_RGB_lstm1_cont_slice_51_split -> cont_52_RGB_lstm1_cont_slice_51_split_0
I0303 14:58:44.381005 29550 net.cpp:339] cont_52_RGB_lstm1_cont_slice_51_split -> cont_52_RGB_lstm1_cont_slice_51_split_1
I0303 14:58:44.381021 29550 net.cpp:113] Setting up cont_52_RGB_lstm1_cont_slice_51_split
I0303 14:58:44.381036 29550 net.cpp:120] Top shape: 1 1 54 (54)
I0303 14:58:44.381050 29550 net.cpp:120] Top shape: 1 1 54 (54)
I0303 14:58:44.381062 29550 layer_factory.hpp:74] Creating layer cont_53_RGB_lstm1_cont_slice_52_split
I0303 14:58:44.381077 29550 net.cpp:84] Creating Layer cont_53_RGB_lstm1_cont_slice_52_split
I0303 14:58:44.381088 29550 net.cpp:381] cont_53_RGB_lstm1_cont_slice_52_split <- cont_53
I0303 14:58:44.381103 29550 net.cpp:339] cont_53_RGB_lstm1_cont_slice_52_split -> cont_53_RGB_lstm1_cont_slice_52_split_0
I0303 14:58:44.381117 29550 net.cpp:339] cont_53_RGB_lstm1_cont_slice_52_split -> cont_53_RGB_lstm1_cont_slice_52_split_1
I0303 14:58:44.381134 29550 net.cpp:113] Setting up cont_53_RGB_lstm1_cont_slice_52_split
I0303 14:58:44.381151 29550 net.cpp:120] Top shape: 1 1 54 (54)
I0303 14:58:44.381166 29550 net.cpp:120] Top shape: 1 1 54 (54)
I0303 14:58:44.381178 29550 layer_factory.hpp:74] Creating layer cont_54_RGB_lstm1_cont_slice_53_split
I0303 14:58:44.381235 29550 net.cpp:84] Creating Layer cont_54_RGB_lstm1_cont_slice_53_split
I0303 14:58:44.381263 29550 net.cpp:381] cont_54_RGB_lstm1_cont_slice_53_split <- cont_54
I0303 14:58:44.381280 29550 net.cpp:339] cont_54_RGB_lstm1_cont_slice_53_split -> cont_54_RGB_lstm1_cont_slice_53_split_0
I0303 14:58:44.381299 29550 net.cpp:339] cont_54_RGB_lstm1_cont_slice_53_split -> cont_54_RGB_lstm1_cont_slice_53_split_1
I0303 14:58:44.381315 29550 net.cpp:113] Setting up cont_54_RGB_lstm1_cont_slice_53_split
I0303 14:58:44.381335 29550 net.cpp:120] Top shape: 1 1 54 (54)
I0303 14:58:44.381350 29550 net.cpp:120] Top shape: 1 1 54 (54)
I0303 14:58:44.381361 29550 layer_factory.hpp:74] Creating layer RGB_lstm1_x_transform
I0303 14:58:44.381381 29550 net.cpp:84] Creating Layer RGB_lstm1_x_transform
I0303 14:58:44.381393 29550 net.cpp:381] RGB_lstm1_x_transform <- x
I0303 14:58:44.381408 29550 net.cpp:339] RGB_lstm1_x_transform -> W_xc_x
I0303 14:58:44.381425 29550 net.cpp:113] Setting up RGB_lstm1_x_transform
I0303 14:58:44.381703 29550 net.cpp:120] Top shape: 54 54 400 (1166400)
I0303 14:58:44.381732 29550 layer_factory.hpp:74] Creating layer RGB_lstm1_W_xc_x_slice
I0303 14:58:44.381760 29550 net.cpp:84] Creating Layer RGB_lstm1_W_xc_x_slice
I0303 14:58:44.381778 29550 net.cpp:381] RGB_lstm1_W_xc_x_slice <- W_xc_x
I0303 14:58:44.381808 29550 net.cpp:339] RGB_lstm1_W_xc_x_slice -> W_xc_x_1
I0303 14:58:44.381834 29550 net.cpp:339] RGB_lstm1_W_xc_x_slice -> W_xc_x_2
…
I0303 14:58:44.383075 29550 net.cpp:339] RGB_lstm1_W_xc_x_slice -> W_xc_x_48
I0303 14:58:44.383101 29550 net.cpp:339] RGB_lstm1_W_xc_x_slice -> W_xc_x_49
I0303 14:58:44.383124 29550 net.cpp:339] RGB_lstm1_W_xc_x_slice -> W_xc_x_50
I0303 14:58:44.383147 29550 net.cpp:339] RGB_lstm1_W_xc_x_slice -> W_xc_x_51
I0303 14:58:44.383183 29550 net.cpp:339] RGB_lstm1_W_xc_x_slice -> W_xc_x_52
I0303 14:58:44.383215 29550 net.cpp:339] RGB_lstm1_W_xc_x_slice -> W_xc_x_53
I0303 14:58:44.383242 29550 net.cpp:339] RGB_lstm1_W_xc_x_slice -> W_xc_x_54
I0303 14:58:44.383265 29550 net.cpp:113] Setting up RGB_lstm1_W_xc_x_slice
I0303 14:58:44.383311 29550 net.cpp:120] Top shape: 1 54 400 (21600)
I0303 14:58:44.383334 29550 net.cpp:120] Top shape: 1 54 400 (21600)
I0303 14:58:44.383350 29550 net.cpp:120] Top shape: 1 54 400 (21600)
I0303 14:58:44.383383 29550 net.cpp:120] Top shape: 1 54 400 (21600)
I0303 14:58:44.383401 29550 net.cpp:120] Top shape: 1 54 400 (21600)
I0303 14:58:44.383420 29550 net.cpp:120] Top shape: 1 54 400 (21600)
I0303 14:58:44.383436 29550 net.cpp:120] Top shape: 1 54 400 (21600)
I0303 14:58:44.383452 29550 net.cpp:120] Top shape: 1 54 400 (21600)
I0303 14:58:44.383471 29550 net.cpp:120] Top shape: 1 54 400 (21600)
I0303 14:58:44.383486 29550 net.cpp:120] Top shape: 1 54 400 (21600)
I0303 14:58:44.383502 29550 net.cpp:120] Top shape: 1 54 400 (21600)
I0303 14:58:44.383517 29550 net.cpp:120] Top shape: 1 54 400 (21600)
I0303 14:58:44.383533 29550 net.cpp:120] Top shape: 1 54 400 (21600)
I0303 14:58:44.383545 29550 net.cpp:120] Top shape: 1 54 400 (21600)
I0303 14:58:44.383558 29550 net.cpp:120] Top shape: 1 54 400 (21600)
I0303 14:58:44.383572 29550 net.cpp:120] Top shape: 1 54 400 (21600)
I0303 14:58:44.383585 29550 net.cpp:120] Top shape: 1 54 400 (21600)
I0303 14:58:44.383599 29550 net.cpp:120] Top shape: 1 54 400 (21600)
I0303 14:58:44.383611 29550 net.cpp:120] Top shape: 1 54 400 (21600)
I0303 14:58:44.383625 29550 net.cpp:120] Top shape: 1 54 400 (21600)
I0303 14:58:44.383638 29550 net.cpp:120] Top shape: 1 54 400 (21600)
I0303 14:58:44.383653 29550 net.cpp:120] Top shape: 1 54 400 (21600)
I0303 14:58:44.383667 29550 net.cpp:120] Top shape: 1 54 400 (21600)
I0303 14:58:44.383679 29550 net.cpp:120] Top shape: 1 54 400 (21600)
I0303 14:58:44.383693 29550 net.cpp:120] Top shape: 1 54 400 (21600)
I0303 14:58:44.383708 29550 net.cpp:120] Top shape: 1 54 400 (21600)
I0303 14:58:44.383724 29550 net.cpp:120] Top shape: 1 54 400 (21600)
I0303 14:58:44.383740 29550 net.cpp:120] Top shape: 1 54 400 (21600)
I0303 14:58:44.383755 29550 net.cpp:120] Top shape: 1 54 400 (21600)
I0303 14:58:44.383770 29550 net.cpp:120] Top shape: 1 54 400 (21600)
I0303 14:58:44.383786 29550 net.cpp:120] Top shape: 1 54 400 (21600)
I0303 14:58:44.383801 29550 net.cpp:120] Top shape: 1 54 400 (21600)
I0303 14:58:44.383817 29550 net.cpp:120] Top shape: 1 54 400 (21600)
I0303 14:58:44.383832 29550 net.cpp:120] Top shape: 1 54 400 (21600)
I0303 14:58:44.383849 29550 net.cpp:120] Top shape: 1 54 400 (21600)
I0303 14:58:44.383864 29550 net.cpp:120] Top shape: 1 54 400 (21600)
I0303 14:58:44.383882 29550 net.cpp:120] Top shape: 1 54 400 (21600)
I0303 14:58:44.383896 29550 net.cpp:120] Top shape: 1 54 400 (21600)
I0303 14:58:44.383944 29550 net.cpp:120] Top shape: 1 54 400 (21600)
I0303 14:58:44.383961 29550 net.cpp:120] Top shape: 1 54 400 (21600)
I0303 14:58:44.383977 29550 net.cpp:120] Top shape: 1 54 400 (21600)
I0303 14:58:44.383994 29550 net.cpp:120] Top shape: 1 54 400 (21600)
I0303 14:58:44.384011 29550 net.cpp:120] Top shape: 1 54 400 (21600)
I0303 14:58:44.384028 29550 net.cpp:120] Top shape: 1 54 400 (21600)
I0303 14:58:44.384047 29550 net.cpp:120] Top shape: 1 54 400 (21600)
I0303 14:58:44.384063 29550 net.cpp:120] Top shape: 1 54 400 (21600)
I0303 14:58:44.384076 29550 net.cpp:120] Top shape: 1 54 400 (21600)
I0303 14:58:44.384091 29550 net.cpp:120] Top shape: 1 54 400 (21600)
I0303 14:58:44.384104 29550 net.cpp:120] Top shape: 1 54 400 (21600)
I0303 14:58:44.384119 29550 net.cpp:120] Top shape: 1 54 400 (21600)
I0303 14:58:44.384131 29550 net.cpp:120] Top shape: 1 54 400 (21600)
I0303 14:58:44.384145 29550 net.cpp:120] Top shape: 1 54 400 (21600)
I0303 14:58:44.384160 29550 net.cpp:120] Top shape: 1 54 400 (21600)
I0303 14:58:44.384172 29550 net.cpp:120] Top shape: 1 54 400 (21600)
I0303 14:58:44.384191 29550 layer_factory.hpp:74] Creating layer RGB_lstm1_h_conted_0
I0303 14:58:44.384225 29550 net.cpp:84] Creating Layer RGB_lstm1_h_conted_0
I0303 14:58:44.384240 29550 net.cpp:381] RGB_lstm1_h_conted_0 <- h_0
I0303 14:58:44.384256 29550 net.cpp:381] RGB_lstm1_h_conted_0 <- cont_1_RGB_lstm1_cont_slice_0_split_0
I0303 14:58:44.384281 29550 net.cpp:339] RGB_lstm1_h_conted_0 -> h_conted_0
I0303 14:58:44.384315 29550 net.cpp:113] Setting up RGB_lstm1_h_conted_0
I0303 14:58:44.384340 29550 net.cpp:120] Top shape: 1 54 100 (5400)
I0303 14:58:44.384356 29550 layer_factory.hpp:74] Creating layer RGB_lstm1_transform_1
I0303 14:58:44.384377 29550 net.cpp:84] Creating Layer RGB_lstm1_transform_1
I0303 14:58:44.384394 29550 net.cpp:381] RGB_lstm1_transform_1 <- h_conted_0
I0303 14:58:44.384413 29550 net.cpp:339] RGB_lstm1_transform_1 -> W_hc_h_0
I0303 14:58:44.384435 29550 net.cpp:113] Setting up RGB_lstm1_transform_1
I0303 14:58:44.384907 29550 net.cpp:120] Top shape: 1 54 400 (21600)
I0303 14:58:44.384930 29550 layer_factory.hpp:74] Creating layer RGB_lstm1_gate_input_1
I0303 14:58:44.384948 29550 net.cpp:84] Creating Layer RGB_lstm1_gate_input_1
I0303 14:58:44.384960 29550 net.cpp:381] RGB_lstm1_gate_input_1 <- W_hc_h_0
I0303 14:58:44.384974 29550 net.cpp:381] RGB_lstm1_gate_input_1 <- W_xc_x_1
I0303 14:58:44.384990 29550 net.cpp:339] RGB_lstm1_gate_input_1 -> gate_input_1
I0303 14:58:44.385009 29550 net.cpp:113] Setting up RGB_lstm1_gate_input_1
I0303 14:58:44.385025 29550 net.cpp:120] Top shape: 1 54 400 (21600)
I0303 14:58:44.385038 29550 layer_factory.hpp:74] Creating layer RGB_lstm1_unit_1
I0303 14:58:44.385057 29550 net.cpp:84] Creating Layer RGB_lstm1_unit_1
I0303 14:58:44.385073 29550 net.cpp:381] RGB_lstm1_unit_1 <- c_0
I0303 14:58:44.385092 29550 net.cpp:381] RGB_lstm1_unit_1 <- gate_input_1
I0303 14:58:44.385110 29550 net.cpp:381] RGB_lstm1_unit_1 <- cont_1_RGB_lstm1_cont_slice_0_split_1
I0303 14:58:44.385133 29550 net.cpp:339] RGB_lstm1_unit_1 -> c_1
I0303 14:58:44.385156 29550 net.cpp:339] RGB_lstm1_unit_1 -> h_1
I0303 14:58:44.385177 29550 net.cpp:113] Setting up RGB_lstm1_unit_1
I0303 14:58:44.385212 29550 net.cpp:120] Top shape: 1 54 100 (5400)
I0303 14:58:44.385228 29550 net.cpp:120] Top shape: 1 54 100 (5400)
I0303 14:58:44.385241 29550 layer_factory.hpp:74] Creating layer h_1_RGB_lstm1_unit_1_1_split
I0303 14:58:44.385257 29550 net.cpp:84] Creating Layer h_1_RGB_lstm1_unit_1_1_split
I0303 14:58:44.385272 29550 net.cpp:381] h_1_RGB_lstm1_unit_1_1_split <- h_1
I0303 14:58:44.385288 29550 net.cpp:339] h_1_RGB_lstm1_unit_1_1_split -> h_1_RGB_lstm1_unit_1_1_split_0
I0303 14:58:44.385308 29550 net.cpp:339] h_1_RGB_lstm1_unit_1_1_split -> h_1_RGB_lstm1_unit_1_1_split_1
I0303 14:58:44.385326 29550 net.cpp:113] Setting up h_1_RGB_lstm1_unit_1_1_split
I0303 14:58:44.385344 29550 net.cpp:120] Top shape: 1 54 100 (5400)
I0303 14:58:44.385359 29550 net.cpp:120] Top shape: 1 54 100 (5400)
I0303 14:58:44.385373 29550 layer_factory.hpp:74] Creating layer RGB_lstm1_h_conted_1
I0303 14:58:44.385419 29550 net.cpp:84] Creating Layer RGB_lstm1_h_conted_1
I0303 14:58:44.385437 29550 net.cpp:381] RGB_lstm1_h_conted_1 <- h_1_RGB_lstm1_unit_1_1_split_0
I0303 14:58:44.385454 29550 net.cpp:381] RGB_lstm1_h_conted_1 <- cont_2_RGB_lstm1_cont_slice_1_split_0
I0303 14:58:44.385478 29550 net.cpp:339] RGB_lstm1_h_conted_1 -> h_conted_1
I0303 14:58:44.385499 29550 net.cpp:113] Setting up RGB_lstm1_h_conted_1
I0303 14:58:44.385520 29550 net.cpp:120] Top shape: 1 54 100 (5400)
I0303 14:58:44.385535 29550 layer_factory.hpp:74] Creating layer RGB_lstm1_transform_2
I0303 14:58:44.385555 29550 net.cpp:84] Creating Layer RGB_lstm1_transform_2
I0303 14:58:44.385567 29550 net.cpp:381] RGB_lstm1_transform_2 <- h_conted_1
I0303 14:58:44.385583 29550 net.cpp:339] RGB_lstm1_transform_2 -> W_hc_h_1
I0303 14:58:44.385601 29550 net.cpp:113] Setting up RGB_lstm1_transform_2
I0303 14:58:44.386075 29550 net.cpp:120] Top shape: 1 54 400 (21600)
I0303 14:58:44.386097 29550 net.cpp:425] Sharing parameters 'W_hc' owned by layer 'RGB_lstm1_transform_1', param index 0
I0303 14:58:44.386113 29550 layer_factory.hpp:74] Creating layer RGB_lstm1_gate_input_2
I0303 14:58:44.386135 29550 net.cpp:84] Creating Layer RGB_lstm1_gate_input_2
I0303 14:58:44.386149 29550 net.cpp:381] RGB_lstm1_gate_input_2 <- W_hc_h_1
I0303 14:58:44.386163 29550 net.cpp:381] RGB_lstm1_gate_input_2 <- W_xc_x_2
I0303 14:58:44.386179 29550 net.cpp:339] RGB_lstm1_gate_input_2 -> gate_input_2
I0303 14:58:44.386214 29550 net.cpp:113] Setting up RGB_lstm1_gate_input_2
I0303 14:58:44.386232 29550 net.cpp:120] Top shape: 1 54 400 (21600)
I0303 14:58:44.386245 29550 layer_factory.hpp:74] Creating layer RGB_lstm1_unit_2
I0303 14:58:44.386263 29550 net.cpp:84] Creating Layer RGB_lstm1_unit_2
I0303 14:58:44.386279 29550 net.cpp:381] RGB_lstm1_unit_2 <- c_1
I0303 14:58:44.386294 29550 net.cpp:381] RGB_lstm1_unit_2 <- gate_input_2
I0303 14:58:44.386313 29550 net.cpp:381] RGB_lstm1_unit_2 <- cont_2_RGB_lstm1_cont_slice_1_split_1
I0303 14:58:44.386332 29550 net.cpp:339] RGB_lstm1_unit_2 -> c_2
I0303 14:58:44.386355 29550 net.cpp:339] RGB_lstm1_unit_2 -> h_2
I0303 14:58:44.386379 29550 net.cpp:113] Setting up RGB_lstm1_unit_2
I0303 14:58:44.386404 29550 net.cpp:120] Top shape: 1 54 100 (5400)
I0303 14:58:44.386423 29550 net.cpp:120] Top shape: 1 54 100 (5400)
I0303 14:58:44.386440 29550 layer_factory.hpp:74] Creating layer h_2_RGB_lstm1_unit_2_1_split
I0303 14:58:44.386457 29550 net.cpp:84] Creating Layer h_2_RGB_lstm1_unit_2_1_split
I0303 14:58:44.386473 29550 net.cpp:381] h_2_RGB_lstm1_unit_2_1_split <- h_2
I0303 14:58:44.386502 29550 net.cpp:339] h_2_RGB_lstm1_unit_2_1_split -> h_2_RGB_lstm1_unit_2_1_split_0
I0303 14:58:44.386533 29550 net.cpp:339] h_2_RGB_lstm1_unit_2_1_split -> h_2_RGB_lstm1_unit_2_1_split_1
I0303 14:58:44.386550 29550 net.cpp:113] Setting up h_2_RGB_lstm1_unit_2_1_split
I0303 14:58:44.386567 29550 net.cpp:120] Top shape: 1 54 100 (5400)
I0303 14:58:44.386581 29550 net.cpp:120] Top shape: 1 54 100 (5400)
I0303 14:58:44.386593 29550 layer_factory.hpp:74] Creating layer RGB_lstm1_h_conted_2
I0303 14:58:44.386610 29550 net.cpp:84] Creating Layer RGB_lstm1_h_conted_2
I0303 14:58:44.386625 29550 net.cpp:381] RGB_lstm1_h_conted_2 <- h_2_RGB_lstm1_unit_2_1_split_0
I0303 14:58:44.386638 29550 net.cpp:381] RGB_lstm1_h_conted_2 <- cont_3_RGB_lstm1_cont_slice_2_split_0
I0303 14:58:44.386656 29550 net.cpp:339] RGB_lstm1_h_conted_2 -> h_conted_2
I0303 14:58:44.386672 29550 net.cpp:113] Setting up RGB_lstm1_h_conted_2
I0303 14:58:44.386687 29550 net.cpp:120] Top shape: 1 54 100 (5400)
I0303 14:58:44.386703 29550 layer_factory.hpp:74] Creating layer RGB_lstm1_transform_3
I0303 14:58:44.386723 29550 net.cpp:84] Creating Layer RGB_lstm1_transform_3
I0303 14:58:44.386740 29550 net.cpp:381] RGB_lstm1_transform_3 <- h_conted_2
I0303 14:58:44.386759 29550 net.cpp:339] RGB_lstm1_transform_3 -> W_hc_h_2
I0303 14:58:44.386780 29550 net.cpp:113] Setting up RGB_lstm1_transform_3
I0303 14:58:44.387266 29550 net.cpp:120] Top shape: 1 54 400 (21600)
I0303 14:58:44.387321 29550 net.cpp:425] Sharing parameters 'W_hc' owned by layer 'RGB_lstm1_transform_1', param index 0
I0303 14:58:44.387341 29550 layer_factory.hpp:74] Creating layer RGB_lstm1_gate_input_3
I0303 14:58:44.387365 29550 net.cpp:84] Creating Layer RGB_lstm1_gate_input_3
I0303 14:58:44.387384 29550 net.cpp:381] RGB_lstm1_gate_input_3 <- W_hc_h_2
I0303 14:58:44.387403 29550 net.cpp:381] RGB_lstm1_gate_input_3 <- W_xc_x_3
I0303 14:58:44.387423 29550 net.cpp:339] RGB_lstm1_gate_input_3 -> gate_input_3
I0303 14:58:44.387444 29550 net.cpp:113] Setting up RGB_lstm1_gate_input_3
I0303 14:58:44.387467 29550 net.cpp:120] Top shape: 1 54 400 (21600)
I0303 14:58:44.387495 29550 layer_factory.hpp:74] Creating layer RGB_lstm1_unit_3
I0303 14:58:44.387518 29550 net.cpp:84] Creating Layer RGB_lstm1_unit_3
I0303 14:58:44.387536 29550 net.cpp:381] RGB_lstm1_unit_3 <- c_2
I0303 14:58:44.387554 29550 net.cpp:381] RGB_lstm1_unit_3 <- gate_input_3
I0303 14:58:44.387573 29550 net.cpp:381] RGB_lstm1_unit_3 <- cont_3_RGB_lstm1_cont_slice_2_split_1
I0303 14:58:44.387591 29550 net.cpp:339] RGB_lstm1_unit_3 -> c_3
I0303 14:58:44.387614 29550 net.cpp:339] RGB_lstm1_unit_3 -> h_3
I0303 14:58:44.387634 29550 net.cpp:113] Setting up RGB_lstm1_unit_3
I0303 14:58:44.387665 29550 net.cpp:120] Top shape: 1 54 100 (5400)
I0303 14:58:44.387682 29550 net.cpp:120] Top shape: 1 54 100 (5400)
I0303 14:58:44.387698 29550 layer_factory.hpp:74] Creating layer h_3_RGB_lstm1_unit_3_1_split
I0303 14:58:44.387717 29550 net.cpp:84] Creating Layer h_3_RGB_lstm1_unit_3_1_split
I0303 14:58:44.387732 29550 net.cpp:381] h_3_RGB_lstm1_unit_3_1_split <- h_3
I0303 14:58:44.387753 29550 net.cpp:339] h_3_RGB_lstm1_unit_3_1_split -> h_3_RGB_lstm1_unit_3_1_split_0
I0303 14:58:44.387774 29550 net.cpp:339] h_3_RGB_lstm1_unit_3_1_split -> h_3_RGB_lstm1_unit_3_1_split_1
I0303 14:58:44.387796 29550 net.cpp:113] Setting up h_3_RGB_lstm1_unit_3_1_split
I0303 14:58:44.387816 29550 net.cpp:120] Top shape: 1 54 100 (5400)
I0303 14:58:44.387833 29550 net.cpp:120] Top shape: 1 54 100 (5400)
I0303 14:58:44.387848 29550 layer_factory.hpp:74] Creating layer RGB_lstm1_h_conted_3
I0303 14:58:44.387867 29550 net.cpp:84] Creating Layer RGB_lstm1_h_conted_3
I0303 14:58:44.387884 29550 net.cpp:381] RGB_lstm1_h_conted_3 <- h_3_RGB_lstm1_unit_3_1_split_0
I0303 14:58:44.387903 29550 net.cpp:381] RGB_lstm1_h_conted_3 <- cont_4_RGB_lstm1_cont_slice_3_split_0
I0303 14:58:44.387923 29550 net.cpp:339] RGB_lstm1_h_conted_3 -> h_conted_3
I0303 14:58:44.387943 29550 net.cpp:113] Setting up RGB_lstm1_h_conted_3
I0303 14:58:44.387964 29550 net.cpp:120] Top shape: 1 54 100 (5400)
I0303 14:58:44.387979 29550 layer_factory.hpp:74] Creating layer RGB_lstm1_transform_4
I0303 14:58:44.387998 29550 net.cpp:84] Creating Layer RGB_lstm1_transform_4
I0303 14:58:44.388013 29550 net.cpp:381] RGB_lstm1_transform_4 <- h_conted_3
I0303 14:58:44.388039 29550 net.cpp:339] RGB_lstm1_transform_4 -> W_hc_h_3
I0303 14:58:44.388062 29550 net.cpp:113] Setting up RGB_lstm1_transform_4
I0303 14:58:44.388533 29550 net.cpp:120] Top shape: 1 54 400 (21600)
I0303 14:58:44.388558 29550 net.cpp:425] Sharing parameters 'W_hc' owned by layer 'RGB_lstm1_transform_1', param index 0
I0303 14:58:44.388576 29550 layer_factory.hpp:74] Creating layer RGB_lstm1_gate_input_4
I0303 14:58:44.388598 29550 net.cpp:84] Creating Layer RGB_lstm1_gate_input_4
I0303 14:58:44.388615 29550 net.cpp:381] RGB_lstm1_gate_input_4 <- W_hc_h_3
I0303 14:58:44.388633 29550 net.cpp:381] RGB_lstm1_gate_input_4 <- W_xc_x_4
I0303 14:58:44.388653 29550 net.cpp:339] RGB_lstm1_gate_input_4 -> gate_input_4
I0303 14:58:44.388674 29550 net.cpp:113] Setting up RGB_lstm1_gate_input_4
I0303 14:58:44.388694 29550 net.cpp:120] Top shape: 1 54 400 (21600)
I0303 14:58:44.388710 29550 layer_factory.hpp:74] Creating layer RGB_lstm1_unit_4
I0303 14:58:44.388730 29550 net.cpp:84] Creating Layer RGB_lstm1_unit_4
I0303 14:58:44.388746 29550 net.cpp:381] RGB_lstm1_unit_4 <- c_3
I0303 14:58:44.388763 29550 net.cpp:381] RGB_lstm1_unit_4 <- gate_input_4
I0303 14:58:44.388782 29550 net.cpp:381] RGB_lstm1_unit_4 <- cont_4_RGB_lstm1_cont_slice_3_split_1
I0303 14:58:44.388836 29550 net.cpp:339] RGB_lstm1_unit_4 -> c_4
I0303 14:58:44.388861 29550 net.cpp:339] RGB_lstm1_unit_4 -> h_4
I0303 14:58:44.388883 29550 net.cpp:113] Setting up RGB_lstm1_unit_4
I0303 14:58:44.388906 29550 net.cpp:120] Top shape: 1 54 100 (5400)
I0303 14:58:44.388924 29550 net.cpp:120] Top shape: 1 54 100 (5400)
I0303 14:58:44.388939 29550 layer_factory.hpp:74] Creating layer h_4_RGB_lstm1_unit_4_1_split
I0303 14:58:44.388957 29550 net.cpp:84] Creating Layer h_4_RGB_lstm1_unit_4_1_split
I0303 14:58:44.388972 29550 net.cpp:381] h_4_RGB_lstm1_unit_4_1_split <- h_4
I0303 14:58:44.388993 29550 net.cpp:339] h_4_RGB_lstm1_unit_4_1_split -> h_4_RGB_lstm1_unit_4_1_split_0
I0303 14:58:44.389014 29550 net.cpp:339] h_4_RGB_lstm1_unit_4_1_split -> h_4_RGB_lstm1_unit_4_1_split_1
I0303 14:58:44.389035 29550 net.cpp:113] Setting up h_4_RGB_lstm1_unit_4_1_split
I0303 14:58:44.389057 29550 net.cpp:120] Top shape: 1 54 100 (5400)
I0303 14:58:44.389075 29550 net.cpp:120] Top shape: 1 54 100 (5400)
I0303 14:58:44.389091 29550 layer_factory.hpp:74] Creating layer RGB_lstm1_h_conted_4
I0303 14:58:44.389108 29550 net.cpp:84] Creating Layer RGB_lstm1_h_conted_4
I0303 14:58:44.389123 29550 net.cpp:381] RGB_lstm1_h_conted_4 <- h_4_RGB_lstm1_unit_4_1_split_0
I0303 14:58:44.389139 29550 net.cpp:381] RGB_lstm1_h_conted_4 <- cont_5_RGB_lstm1_cont_slice_4_split_0
I0303 14:58:44.389160 29550 net.cpp:339] RGB_lstm1_h_conted_4 -> h_conted_4
I0303 14:58:44.389183 29550 net.cpp:113] Setting up RGB_lstm1_h_conted_4
I0303 14:58:44.389245 29550 net.cpp:120] Top shape: 1 54 100 (5400)
I0303 14:58:44.389262 29550 layer_factory.hpp:74] Creating layer RGB_lstm1_transform_5
I0303 14:58:44.389282 29550 net.cpp:84] Creating Layer RGB_lstm1_transform_5
I0303 14:58:44.389302 29550 net.cpp:381] RGB_lstm1_transform_5 <- h_conted_4
I0303 14:58:44.389324 29550 net.cpp:339] RGB_lstm1_transform_5 -> W_hc_h_4
I0303 14:58:44.389348 29550 net.cpp:113] Setting up RGB_lstm1_transform_5
I0303 14:58:44.389853 29550 net.cpp:120] Top shape: 1 54 400 (21600)
I0303 14:58:44.389878 29550 net.cpp:425] Sharing parameters 'W_hc' owned by layer 'RGB_lstm1_transform_1', param index 0
I0303 14:58:44.389894 29550 layer_factory.hpp:74] Creating layer RGB_lstm1_gate_input_5
I0303 14:58:44.389914 29550 net.cpp:84] Creating Layer RGB_lstm1_gate_input_5
I0303 14:58:44.389930 29550 net.cpp:381] RGB_lstm1_gate_input_5 <- W_hc_h_4
I0303 14:58:44.389947 29550 net.cpp:381] RGB_lstm1_gate_input_5 <- W_xc_x_5
I0303 14:58:44.389971 29550 net.cpp:339] RGB_lstm1_gate_input_5 -> gate_input_5
I0303 14:58:44.389992 29550 net.cpp:113] Setting up RGB_lstm1_gate_input_5
I0303 14:58:44.390012 29550 net.cpp:120] Top shape: 1 54 400 (21600)
I0303 14:58:44.390025 29550 layer_factory.hpp:74] Creating layer RGB_lstm1_unit_5
I0303 14:58:44.390040 29550 net.cpp:84] Creating Layer RGB_lstm1_unit_5
I0303 14:58:44.390053 29550 net.cpp:381] RGB_lstm1_unit_5 <- c_4
I0303 14:58:44.390066 29550 net.cpp:381] RGB_lstm1_unit_5 <- gate_input_5
I0303 14:58:44.390080 29550 net.cpp:381] RGB_lstm1_unit_5 <- cont_5_RGB_lstm1_cont_slice_4_split_1
I0303 14:58:44.390096 29550 net.cpp:339] RGB_lstm1_unit_5 -> c_5
I0303 14:58:44.390115 29550 net.cpp:339] RGB_lstm1_unit_5 -> h_5
I0303 14:58:44.390132 29550 net.cpp:113] Setting up RGB_lstm1_unit_5
I0303 14:58:44.390151 29550 net.cpp:120] Top shape: 1 54 100 (5400)
I0303 14:58:44.390167 29550 net.cpp:120] Top shape: 1 54 100 (5400)
I0303 14:58:44.390182 29550 layer_factory.hpp:74] Creating layer h_5_RGB_lstm1_unit_5_1_split
I0303 14:58:44.390219 29550 net.cpp:84] Creating Layer h_5_RGB_lstm1_unit_5_1_split
I0303 14:58:44.390235 29550 net.cpp:381] h_5_RGB_lstm1_unit_5_1_split <- h_5
I0303 14:58:44.390254 29550 net.cpp:339] h_5_RGB_lstm1_unit_5_1_split -> h_5_RGB_lstm1_unit_5_1_split_0
I0303 14:58:44.390277 29550 net.cpp:339] h_5_RGB_lstm1_unit_5_1_split -> h_5_RGB_lstm1_unit_5_1_split_1
I0303 14:58:44.390300 29550 net.cpp:113] Setting up h_5_RGB_lstm1_unit_5_1_split
I0303 14:58:44.390322 29550 net.cpp:120] Top shape: 1 54 100 (5400)
I0303 14:58:44.390373 29550 net.cpp:120] Top shape: 1 54 100 (5400)
I0303 14:58:44.390393 29550 layer_factory.hpp:74] Creating layer RGB_lstm1_h_conted_5
I0303 14:58:44.390415 29550 net.cpp:84] Creating Layer RGB_lstm1_h_conted_5
I0303 14:58:44.390434 29550 net.cpp:381] RGB_lstm1_h_conted_5 <- h_5_RGB_lstm1_unit_5_1_split_0
I0303 14:58:44.390455 29550 net.cpp:381] RGB_lstm1_h_conted_5 <- cont_6_RGB_lstm1_cont_slice_5_split_0
I0303 14:58:44.390475 29550 net.cpp:339] RGB_lstm1_h_conted_5 -> h_conted_5
I0303 14:58:44.390539 29550 net.cpp:113] Setting up RGB_lstm1_h_conted_5
I0303 14:58:44.390559 29550 net.cpp:120] Top shape: 1 54 100 (5400)
I0303 14:58:44.390573 29550 layer_factory.hpp:74] Creating layer RGB_lstm1_transform_6
I0303 14:58:44.390591 29550 net.cpp:84] Creating Layer RGB_lstm1_transform_6
I0303 14:58:44.390605 29550 net.cpp:381] RGB_lstm1_transform_6 <- h_conted_5
I0303 14:58:44.390625 29550 net.cpp:339] RGB_lstm1_transform_6 -> W_hc_h_5
I0303 14:58:44.390641 29550 net.cpp:113] Setting up RGB_lstm1_transform_6
I0303 14:58:44.391121 29550 net.cpp:120] Top shape: 1 54 400 (21600)
I0303 14:58:44.391144 29550 net.cpp:425] Sharing parameters 'W_hc' owned by layer 'RGB_lstm1_transform_1', param index 0
I0303 14:58:44.391161 29550 layer_factory.hpp:74] Creating layer RGB_lstm1_gate_input_6
I0303 14:58:44.391181 29550 net.cpp:84] Creating Layer RGB_lstm1_gate_input_6
I0303 14:58:44.391203 29550 net.cpp:381] RGB_lstm1_gate_input_6 <- W_hc_h_5
I0303 14:58:44.391222 29550 net.cpp:381] RGB_lstm1_gate_input_6 <- W_xc_x_6
I0303 14:58:44.391240 29550 net.cpp:339] RGB_lstm1_gate_input_6 -> gate_input_6
I0303 14:58:44.391260 29550 net.cpp:113] Setting up RGB_lstm1_gate_input_6
I0303 14:58:44.391283 29550 net.cpp:120] Top shape: 1 54 400 (21600)
I0303 14:58:44.391299 29550 layer_factory.hpp:74] Creating layer RGB_lstm1_unit_6
I0303 14:58:44.391325 29550 net.cpp:84] Creating Layer RGB_lstm1_unit_6
I0303 14:58:44.391342 29550 net.cpp:381] RGB_lstm1_unit_6 <- c_5
I0303 14:58:44.391361 29550 net.cpp:381] RGB_lstm1_unit_6 <- gate_input_6
I0303 14:58:44.391378 29550 net.cpp:381] RGB_lstm1_unit_6 <- cont_6_RGB_lstm1_cont_slice_5_split_1
I0303 14:58:44.391394 29550 net.cpp:339] RGB_lstm1_unit_6 -> c_6
I0303 14:58:44.391412 29550 net.cpp:339] RGB_lstm1_unit_6 -> h_6
I0303 14:58:44.391429 29550 net.cpp:113] Setting up RGB_lstm1_unit_6
I0303 14:58:44.391450 29550 net.cpp:120] Top shape: 1 54 100 (5400)
I0303 14:58:44.391465 29550 net.cpp:120] Top shape: 1 54 100 (5400)
I0303 14:58:44.391477 29550 layer_factory.hpp:74] Creating layer h_6_RGB_lstm1_unit_6_1_split
I0303 14:58:44.391494 29550 net.cpp:84] Creating Layer h_6_RGB_lstm1_unit_6_1_split
I0303 14:58:44.391506 29550 net.cpp:381] h_6_RGB_lstm1_unit_6_1_split <- h_6
I0303 14:58:44.391520 29550 net.cpp:339] h_6_RGB_lstm1_unit_6_1_split -> h_6_RGB_lstm1_unit_6_1_split_0
I0303 14:58:44.391536 29550 net.cpp:339] h_6_RGB_lstm1_unit_6_1_split -> h_6_RGB_lstm1_unit_6_1_split_1
I0303 14:58:44.391553 29550 net.cpp:113] Setting up h_6_RGB_lstm1_unit_6_1_split
I0303 14:58:44.391573 29550 net.cpp:120] Top shape: 1 54 100 (5400)
I0303 14:58:44.391590 29550 net.cpp:120] Top shape: 1 54 100 (5400)
I0303 14:58:44.391604 29550 layer_factory.hpp:74] Creating layer RGB_lstm1_h_conted_6
I0303 14:58:44.391625 29550 net.cpp:84] Creating Layer RGB_lstm1_h_conted_6
I0303 14:58:44.391643 29550 net.cpp:381] RGB_lstm1_h_conted_6 <- h_6_RGB_lstm1_unit_6_1_split_0
I0303 14:58:44.391659 29550 net.cpp:381] RGB_lstm1_h_conted_6 <- cont_7_RGB_lstm1_cont_slice_6_split_0
I0303 14:58:44.391676 29550 net.cpp:339] RGB_lstm1_h_conted_6 -> h_conted_6
I0303 14:58:44.391693 29550 net.cpp:113] Setting up RGB_lstm1_h_conted_6
I0303 14:58:44.391710 29550 net.cpp:120] Top shape: 1 54 100 (5400)
I0303 14:58:44.391722 29550 layer_factory.hpp:74] Creating layer RGB_lstm1_transform_7
I0303 14:58:44.391741 29550 net.cpp:84] Creating Layer RGB_lstm1_transform_7
I0303 14:58:44.391755 29550 net.cpp:381] RGB_lstm1_transform_7 <- h_conted_6
I0303 14:58:44.391769 29550 net.cpp:339] RGB_lstm1_transform_7 -> W_hc_h_6
I0303 14:58:44.391814 29550 net.cpp:113] Setting up RGB_lstm1_transform_7
I0303 14:58:44.392305 29550 net.cpp:120] Top shape: 1 54 400 (21600)
I0303 14:58:44.392330 29550 net.cpp:425] Sharing parameters 'W_hc' owned by layer 'RGB_lstm1_transform_1', param index 0
I0303 14:58:44.392345 29550 layer_factory.hpp:74] Creating layer RGB_lstm1_gate_input_7
I0303 14:58:44.392364 29550 net.cpp:84] Creating Layer RGB_lstm1_gate_input_7
I0303 14:58:44.392377 29550 net.cpp:381] RGB_lstm1_gate_input_7 <- W_hc_h_6
I0303 14:58:44.392392 29550 net.cpp:381] RGB_lstm1_gate_input_7 <- W_xc_x_7
I0303 14:58:44.392407 29550 net.cpp:339] RGB_lstm1_gate_input_7 -> gate_input_7
I0303 14:58:44.392424 29550 net.cpp:113] Setting up RGB_lstm1_gate_input_7
I0303 14:58:44.392441 29550 net.cpp:120] Top shape: 1 54 400 (21600)
I0303 14:58:44.392457 29550 layer_factory.hpp:74] Creating layer RGB_lstm1_unit_7
I0303 14:58:44.392478 29550 net.cpp:84] Creating Layer RGB_lstm1_unit_7
I0303 14:58:44.392495 29550 net.cpp:381] RGB_lstm1_unit_7 <- c_6
I0303 14:58:44.392510 29550 net.cpp:381] RGB_lstm1_unit_7 <- gate_input_7
I0303 14:58:44.392525 29550 net.cpp:381] RGB_lstm1_unit_7 <- cont_7_RGB_lstm1_cont_slice_6_split_1
I0303 14:58:44.392541 29550 net.cpp:339] RGB_lstm1_unit_7 -> c_7
I0303 14:58:44.392560 29550 net.cpp:339] RGB_lstm1_unit_7 -> h_7
I0303 14:58:44.392576 29550 net.cpp:113] Setting up RGB_lstm1_unit_7
I0303 14:58:44.392595 29550 net.cpp:120] Top shape: 1 54 100 (5400)
I0303 14:58:44.392606 29550 net.cpp:120] Top shape: 1 54 100 (5400)
I0303 14:58:44.392621 29550 layer_factory.hpp:74] Creating layer h_7_RGB_lstm1_unit_7_1_split
I0303 14:58:44.392638 29550 net.cpp:84] Creating Layer h_7_RGB_lstm1_unit_7_1_split
I0303 14:58:44.392652 29550 net.cpp:381] h_7_RGB_lstm1_unit_7_1_split <- h_7
I0303 14:58:44.392668 29550 net.cpp:339] h_7_RGB_lstm1_unit_7_1_split -> h_7_RGB_lstm1_unit_7_1_split_0
I0303 14:58:44.392683 29550 net.cpp:339] h_7_RGB_lstm1_unit_7_1_split -> h_7_RGB_lstm1_unit_7_1_split_1
I0303 14:58:44.392699 29550 net.cpp:113] Setting up h_7_RGB_lstm1_unit_7_1_split
I0303 14:58:44.392719 29550 net.cpp:120] Top shape: 1 54 100 (5400)
I0303 14:58:44.392734 29550 net.cpp:120] Top shape: 1 54 100 (5400)
I0303 14:58:44.392747 29550 layer_factory.hpp:74] Creating layer RGB_lstm1_h_conted_7
I0303 14:58:44.392762 29550 net.cpp:84] Creating Layer RGB_lstm1_h_conted_7
I0303 14:58:44.392779 29550 net.cpp:381] RGB_lstm1_h_conted_7 <- h_7_RGB_lstm1_unit_7_1_split_0
I0303 14:58:44.392796 29550 net.cpp:381] RGB_lstm1_h_conted_7 <- cont_8_RGB_lstm1_cont_slice_7_split_0
I0303 14:58:44.392813 29550 net.cpp:339] RGB_lstm1_h_conted_7 -> h_conted_7
I0303 14:58:44.392832 29550 net.cpp:113] Setting up RGB_lstm1_h_conted_7
I0303 14:58:44.392853 29550 net.cpp:120] Top shape: 1 54 100 (5400)
I0303 14:58:44.392868 29550 layer_factory.hpp:74] Creating layer RGB_lstm1_transform_8
I0303 14:58:44.392889 29550 net.cpp:84] Creating Layer RGB_lstm1_transform_8
I0303 14:58:44.392904 29550 net.cpp:381] RGB_lstm1_transform_8 <- h_conted_7
I0303 14:58:44.392920 29550 net.cpp:339] RGB_lstm1_transform_8 -> W_hc_h_7
I0303 14:58:44.392936 29550 net.cpp:113] Setting up RGB_lstm1_transform_8
I0303 14:58:44.393425 29550 net.cpp:120] Top shape: 1 54 400 (21600)
I0303 14:58:44.393448 29550 net.cpp:425] Sharing parameters 'W_hc' owned by layer 'RGB_lstm1_transform_1', param index 0
I0303 14:58:44.393463 29550 layer_factory.hpp:74] Creating layer RGB_lstm1_gate_input_8
I0303 14:58:44.393483 29550 net.cpp:84] Creating Layer RGB_lstm1_gate_input_8
I0303 14:58:44.393527 29550 net.cpp:381] RGB_lstm1_gate_input_8 <- W_hc_h_7
I0303 14:58:44.393548 29550 net.cpp:381] RGB_lstm1_gate_input_8 <- W_xc_x_8
I0303 14:58:44.393568 29550 net.cpp:339] RGB_lstm1_gate_input_8 -> gate_input_8
I0303 14:58:44.393589 29550 net.cpp:113] Setting up RGB_lstm1_gate_input_8
I0303 14:58:44.393610 29550 net.cpp:120] Top shape: 1 54 400 (21600)
I0303 14:58:44.393625 29550 layer_factory.hpp:74] Creating layer RGB_lstm1_unit_8
I0303 14:58:44.393641 29550 net.cpp:84] Creating Layer RGB_lstm1_unit_8
I0303 14:58:44.393657 29550 net.cpp:381] RGB_lstm1_unit_8 <- c_7
I0303 14:58:44.393718 29550 net.cpp:381] RGB_lstm1_unit_8 <- gate_input_8
I0303 14:58:44.393739 29550 net.cpp:381] RGB_lstm1_unit_8 <- cont_8_RGB_lstm1_cont_slice_7_split_1
I0303 14:58:44.393762 29550 net.cpp:339] RGB_lstm1_unit_8 -> c_8
I0303 14:58:44.393785 29550 net.cpp:339] RGB_lstm1_unit_8 -> h_8
I0303 14:58:44.393805 29550 net.cpp:113] Setting up RGB_lstm1_unit_8
I0303 14:58:44.393827 29550 net.cpp:120] Top shape: 1 54 100 (5400)
I0303 14:58:44.393846 29550 net.cpp:120] Top shape: 1 54 100 (5400)
I0303 14:58:44.393874 29550 layer_factory.hpp:74] Creating layer h_8_RGB_lstm1_unit_8_1_split
I0303 14:58:44.393910 29550 net.cpp:84] Creating Layer h_8_RGB_lstm1_unit_8_1_split
I0303 14:58:44.393930 29550 net.cpp:381] h_8_RGB_lstm1_unit_8_1_split <- h_8
I0303 14:58:44.393950 29550 net.cpp:339] h_8_RGB_lstm1_unit_8_1_split -> h_8_RGB_lstm1_unit_8_1_split_0
I0303 14:58:44.393975 29550 net.cpp:339] h_8_RGB_lstm1_unit_8_1_split -> h_8_RGB_lstm1_unit_8_1_split_1
I0303 14:58:44.393998 29550 net.cpp:113] Setting up h_8_RGB_lstm1_unit_8_1_split
I0303 14:58:44.394021 29550 net.cpp:120] Top shape: 1 54 100 (5400)
I0303 14:58:44.394038 29550 net.cpp:120] Top shape: 1 54 100 (5400)
I0303 14:58:44.394054 29550 layer_factory.hpp:74] Creating layer RGB_lstm1_h_conted_8
I0303 14:58:44.394086 29550 net.cpp:84] Creating Layer RGB_lstm1_h_conted_8
I0303 14:58:44.394105 29550 net.cpp:381] RGB_lstm1_h_conted_8 <- h_8_RGB_lstm1_unit_8_1_split_0
I0303 14:58:44.394121 29550 net.cpp:381] RGB_lstm1_h_conted_8 <- cont_9_RGB_lstm1_cont_slice_8_split_0
I0303 14:58:44.394145 29550 net.cpp:339] RGB_lstm1_h_conted_8 -> h_conted_8
I0303 14:58:44.394166 29550 net.cpp:113] Setting up RGB_lstm1_h_conted_8
I0303 14:58:44.394204 29550 net.cpp:120] Top shape: 1 54 100 (5400)
I0303 14:58:44.394227 29550 layer_factory.hpp:74] Creating layer RGB_lstm1_transform_9
I0303 14:58:44.394248 29550 net.cpp:84] Creating Layer RGB_lstm1_transform_9
I0303 14:58:44.394269 29550 net.cpp:381] RGB_lstm1_transform_9 <- h_conted_8
I0303 14:58:44.394302 29550 net.cpp:339] RGB_lstm1_transform_9 -> W_hc_h_8
I0303 14:58:44.394325 29550 net.cpp:113] Setting up RGB_lstm1_transform_9
I0303 14:58:44.394826 29550 net.cpp:120] Top shape: 1 54 400 (21600)
I0303 14:58:44.394850 29550 net.cpp:425] Sharing parameters 'W_hc' owned by layer 'RGB_lstm1_transform_1', param index 0
I0303 14:58:44.394867 29550 layer_factory.hpp:74] Creating layer RGB_lstm1_gate_input_9
I0303 14:58:44.394887 29550 net.cpp:84] Creating Layer RGB_lstm1_gate_input_9
I0303 14:58:44.394906 29550 net.cpp:381] RGB_lstm1_gate_input_9 <- W_hc_h_8
I0303 14:58:44.394922 29550 net.cpp:381] RGB_lstm1_gate_input_9 <- W_xc_x_9
I0303 14:58:44.394943 29550 net.cpp:339] RGB_lstm1_gate_input_9 -> gate_input_9
I0303 14:58:44.394965 29550 net.cpp:113] Setting up RGB_lstm1_gate_input_9
I0303 14:58:44.394986 29550 net.cpp:120] Top shape: 1 54 400 (21600)
I0303 14:58:44.395006 29550 layer_factory.hpp:74] Creating layer RGB_lstm1_unit_9
I0303 14:58:44.395025 29550 net.cpp:84] Creating Layer RGB_lstm1_unit_9
I0303 14:58:44.395040 29550 net.cpp:381] RGB_lstm1_unit_9 <- c_8
I0303 14:58:44.395057 29550 net.cpp:381] RGB_lstm1_unit_9 <- gate_input_9
I0303 14:58:44.395073 29550 net.cpp:381] RGB_lstm1_unit_9 <- cont_9_RGB_lstm1_cont_slice_8_split_1
I0303 14:58:44.395095 29550 net.cpp:339] RGB_lstm1_unit_9 -> c_9
I0303 14:58:44.395117 29550 net.cpp:339] RGB_lstm1_unit_9 -> h_9
I0303 14:58:44.395136 29550 net.cpp:113] Setting up RGB_lstm1_unit_9
I0303 14:58:44.395159 29550 net.cpp:120] Top shape: 1 54 100 (5400)
I0303 14:58:44.395175 29550 net.cpp:120] Top shape: 1 54 100 (5400)
I0303 14:58:44.395195 29550 layer_factory.hpp:74] Creating layer h_9_RGB_lstm1_unit_9_1_split
I0303 14:58:44.395215 29550 net.cpp:84] Creating Layer h_9_RGB_lstm1_unit_9_1_split
I0303 14:58:44.395233 29550 net.cpp:381] h_9_RGB_lstm1_unit_9_1_split <- h_9
I0303 14:58:44.395254 29550 net.cpp:339] h_9_RGB_lstm1_unit_9_1_split -> h_9_RGB_lstm1_unit_9_1_split_0
I0303 14:58:44.395277 29550 net.cpp:339] h_9_RGB_lstm1_unit_9_1_split -> h_9_RGB_lstm1_unit_9_1_split_1
I0303 14:58:44.395328 29550 net.cpp:113] Setting up h_9_RGB_lstm1_unit_9_1_split
I0303 14:58:44.395350 29550 net.cpp:120] Top shape: 1 54 100 (5400)
I0303 14:58:44.395370 29550 net.cpp:120] Top shape: 1 54 100 (5400)
I0303 14:58:44.395385 29550 layer_factory.hpp:74] Creating layer RGB_lstm1_h_conted_9
I0303 14:58:44.395402 29550 net.cpp:84] Creating Layer RGB_lstm1_h_conted_9
I0303 14:58:44.395418 29550 net.cpp:381] RGB_lstm1_h_conted_9 <- h_9_RGB_lstm1_unit_9_1_split_0
I0303 14:58:44.395437 29550 net.cpp:381] RGB_lstm1_h_conted_9 <- cont_10_RGB_lstm1_cont_slice_9_split_0
I0303 14:58:44.395457 29550 net.cpp:339] RGB_lstm1_h_conted_9 -> h_conted_9
I0303 14:58:44.395478 29550 net.cpp:113] Setting up RGB_lstm1_h_conted_9
I0303 14:58:44.395499 29550 net.cpp:120] Top shape: 1 54 100 (5400)
I0303 14:58:44.395515 29550 layer_factory.hpp:74] Creating layer RGB_lstm1_transform_10
I0303 14:58:44.395536 29550 net.cpp:84] Creating Layer RGB_lstm1_transform_10
I0303 14:58:44.395550 29550 net.cpp:381] RGB_lstm1_transform_10 <- h_conted_9
I0303 14:58:44.395576 29550 net.cpp:339] RGB_lstm1_transform_10 -> W_hc_h_9
I0303 14:58:44.395597 29550 net.cpp:113] Setting up RGB_lstm1_transform_10
I0303 14:58:44.396090 29550 net.cpp:120] Top shape: 1 54 400 (21600)
I0303 14:58:44.396113 29550 net.cpp:425] Sharing parameters 'W_hc' owned by layer 'RGB_lstm1_transform_1', param index 0
I0303 14:58:44.396126 29550 layer_factory.hpp:74] Creating layer RGB_lstm1_gate_input_10
I0303 14:58:44.396143 29550 net.cpp:84] Creating Layer RGB_lstm1_gate_input_10
I0303 14:58:44.396157 29550 net.cpp:381] RGB_lstm1_gate_input_10 <- W_hc_h_9
I0303 14:58:44.396173 29550 net.cpp:381] RGB_lstm1_gate_input_10 <- W_xc_x_10
I0303 14:58:44.396196 29550 net.cpp:339] RGB_lstm1_gate_input_10 -> gate_input_10
I0303 14:58:44.396216 29550 net.cpp:113] Setting up RGB_lstm1_gate_input_10
I0303 14:58:44.396234 29550 net.cpp:120] Top shape: 1 54 400 (21600)
I0303 14:58:44.396246 29550 layer_factory.hpp:74] Creating layer RGB_lstm1_unit_10
I0303 14:58:44.396261 29550 net.cpp:84] Creating Layer RGB_lstm1_unit_10
I0303 14:58:44.396275 29550 net.cpp:381] RGB_lstm1_unit_10 <- c_9
I0303 14:58:44.396288 29550 net.cpp:381] RGB_lstm1_unit_10 <- gate_input_10
I0303 14:58:44.396301 29550 net.cpp:381] RGB_lstm1_unit_10 <- cont_10_RGB_lstm1_cont_slice_9_split_1
I0303 14:58:44.396316 29550 net.cpp:339] RGB_lstm1_unit_10 -> c_10
I0303 14:58:44.396342 29550 net.cpp:339] RGB_lstm1_unit_10 -> h_10
I0303 14:58:44.396361 29550 net.cpp:113] Setting up RGB_lstm1_unit_10
I0303 14:58:44.396378 29550 net.cpp:120] Top shape: 1 54 100 (5400)
I0303 14:58:44.396394 29550 net.cpp:120] Top shape: 1 54 100 (5400)
I0303 14:58:44.396406 29550 layer_factory.hpp:74] Creating layer h_10_RGB_lstm1_unit_10_1_split
I0303 14:58:44.396423 29550 net.cpp:84] Creating Layer h_10_RGB_lstm1_unit_10_1_split
I0303 14:58:44.396437 29550 net.cpp:381] h_10_RGB_lstm1_unit_10_1_split <- h_10
I0303 14:58:44.396453 29550 net.cpp:339] h_10_RGB_lstm1_unit_10_1_split -> h_10_RGB_lstm1_unit_10_1_split_0
I0303 14:58:44.396472 29550 net.cpp:339] h_10_RGB_lstm1_unit_10_1_split -> h_10_RGB_lstm1_unit_10_1_split_1
I0303 14:58:44.396489 29550 net.cpp:113] Setting up h_10_RGB_lstm1_unit_10_1_split
I0303 14:58:44.396507 29550 net.cpp:120] Top shape: 1 54 100 (5400)
I0303 14:58:44.396531 29550 net.cpp:120] Top shape: 1 54 100 (5400)
I0303 14:58:44.396546 29550 layer_factory.hpp:74] Creating layer RGB_lstm1_h_conted_10
I0303 14:58:44.396561 29550 net.cpp:84] Creating Layer RGB_lstm1_h_conted_10
I0303 14:58:44.396574 29550 net.cpp:381] RGB_lstm1_h_conted_10 <- h_10_RGB_lstm1_unit_10_1_split_0
I0303 14:58:44.396589 29550 net.cpp:381] RGB_lstm1_h_conted_10 <- cont_11_RGB_lstm1_cont_slice_10_split_0
I0303 14:58:44.396606 29550 net.cpp:339] RGB_lstm1_h_conted_10 -> h_conted_10
I0303 14:58:44.396622 29550 net.cpp:113] Setting up RGB_lstm1_h_conted_10
I0303 14:58:44.396638 29550 net.cpp:120] Top shape: 1 54 100 (5400)
I0303 14:58:44.396651 29550 layer_factory.hpp:74] Creating layer RGB_lstm1_transform_11
I0303 14:58:44.396670 29550 net.cpp:84] Creating Layer RGB_lstm1_transform_11
I0303 14:58:44.396714 29550 net.cpp:381] RGB_lstm1_transform_11 <- h_conted_10
I0303 14:58:44.396733 29550 net.cpp:339] RGB_lstm1_transform_11 -> W_hc_h_10
I0303 14:58:44.396751 29550 net.cpp:113] Setting up RGB_lstm1_transform_11
I0303 14:58:44.397266 29550 net.cpp:120] Top shape: 1 54 400 (21600)
I0303 14:58:44.397287 29550 net.cpp:425] Sharing parameters 'W_hc' owned by layer 'RGB_lstm1_transform_1', param index 0
I0303 14:58:44.397302 29550 layer_factory.hpp:74] Creating layer RGB_lstm1_gate_input_11
I0303 14:58:44.397318 29550 net.cpp:84] Creating Layer RGB_lstm1_gate_input_11
I0303 14:58:44.397331 29550 net.cpp:381] RGB_lstm1_gate_input_11 <- W_hc_h_10
I0303 14:58:44.397346 29550 net.cpp:381] RGB_lstm1_gate_input_11 <- W_xc_x_11
I0303 14:58:44.397370 29550 net.cpp:339] RGB_lstm1_gate_input_11 -> gate_input_11
I0303 14:58:44.397392 29550 net.cpp:113] Setting up RGB_lstm1_gate_input_11
I0303 14:58:44.397415 29550 net.cpp:120] Top shape: 1 54 400 (21600)
I0303 14:58:44.397431 29550 layer_factory.hpp:74] Creating layer RGB_lstm1_unit_11
I0303 14:58:44.397452 29550 net.cpp:84] Creating Layer RGB_lstm1_unit_11
I0303 14:58:44.397467 29550 net.cpp:381] RGB_lstm1_unit_11 <- c_10
I0303 14:58:44.397482 29550 net.cpp:381] RGB_lstm1_unit_11 <- gate_input_11
I0303 14:58:44.397497 29550 net.cpp:381] RGB_lstm1_unit_11 <- cont_11_RGB_lstm1_cont_slice_10_split_1
I0303 14:58:44.397526 29550 net.cpp:339] RGB_lstm1_unit_11 -> c_11
I0303 14:58:44.397542 29550 net.cpp:339] RGB_lstm1_unit_11 -> h_11
I0303 14:58:44.397560 29550 net.cpp:113] Setting up RGB_lstm1_unit_11
I0303 14:58:44.397580 29550 net.cpp:120] Top shape: 1 54 100 (5400)
I0303 14:58:44.397595 29550 net.cpp:120] Top shape: 1 54 100 (5400)
I0303 14:58:44.397608 29550 layer_factory.hpp:74] Creating layer h_11_RGB_lstm1_unit_11_1_split
I0303 14:58:44.397622 29550 net.cpp:84] Creating Layer h_11_RGB_lstm1_unit_11_1_split
I0303 14:58:44.397634 29550 net.cpp:381] h_11_RGB_lstm1_unit_11_1_split <- h_11
I0303 14:58:44.397650 29550 net.cpp:339] h_11_RGB_lstm1_unit_11_1_split -> h_11_RGB_lstm1_unit_11_1_split_0
I0303 14:58:44.397666 29550 net.cpp:339] h_11_RGB_lstm1_unit_11_1_split -> h_11_RGB_lstm1_unit_11_1_split_1
I0303 14:58:44.397683 29550 net.cpp:113] Setting up h_11_RGB_lstm1_unit_11_1_split
I0303 14:58:44.397699 29550 net.cpp:120] Top shape: 1 54 100 (5400)
I0303 14:58:44.397714 29550 net.cpp:120] Top shape: 1 54 100 (5400)
I0303 14:58:44.397727 29550 layer_factory.hpp:74] Creating layer RGB_lstm1_h_conted_11
I0303 14:58:44.397743 29550 net.cpp:84] Creating Layer RGB_lstm1_h_conted_11
I0303 14:58:44.397758 29550 net.cpp:381] RGB_lstm1_h_conted_11 <- h_11_RGB_lstm1_unit_11_1_split_0
I0303 14:58:44.397771 29550 net.cpp:381] RGB_lstm1_h_conted_11 <- cont_12_RGB_lstm1_cont_slice_11_split_0
I0303 14:58:44.397786 29550 net.cpp:339] RGB_lstm1_h_conted_11 -> h_conted_11
I0303 14:58:44.397801 29550 net.cpp:113] Setting up RGB_lstm1_h_conted_11
I0303 14:58:44.397816 29550 net.cpp:120] Top shape: 1 54 100 (5400)
I0303 14:58:44.397841 29550 layer_factory.hpp:74] Creating layer RGB_lstm1_transform_12
I0303 14:58:44.397861 29550 net.cpp:84] Creating Layer RGB_lstm1_transform_12
I0303 14:58:44.397883 29550 net.cpp:381] RGB_lstm1_transform_12 <- h_conted_11
I0303 14:58:44.397902 29550 net.cpp:339] RGB_lstm1_transform_12 -> W_hc_h_11
I0303 14:58:44.397919 29550 net.cpp:113] Setting up RGB_lstm1_transform_12
I0303 14:58:44.398429 29550 net.cpp:120] Top shape: 1 54 400 (21600)
I0303 14:58:44.398450 29550 net.cpp:425] Sharing parameters 'W_hc' owned by layer 'RGB_lstm1_transform_1', param index 0
I0303 14:58:44.398464 29550 layer_factory.hpp:74] Creating layer RGB_lstm1_gate_input_12
I0303 14:58:44.398483 29550 net.cpp:84] Creating Layer RGB_lstm1_gate_input_12
I0303 14:58:44.398499 29550 net.cpp:381] RGB_lstm1_gate_input_12 <- W_hc_h_11
I0303 14:58:44.398514 29550 net.cpp:381] RGB_lstm1_gate_input_12 <- W_xc_x_12
I0303 14:58:44.398540 29550 net.cpp:339] RGB_lstm1_gate_input_12 -> gate_input_12
I0303 14:58:44.398566 29550 net.cpp:113] Setting up RGB_lstm1_gate_input_12
I0303 14:58:44.398628 29550 net.cpp:120] Top shape: 1 54 400 (21600)
I0303 14:58:44.398645 29550 layer_factory.hpp:74] Creating layer RGB_lstm1_unit_12
I0303 14:58:44.398665 29550 net.cpp:84] Creating Layer RGB_lstm1_unit_12
I0303 14:58:44.398689 29550 net.cpp:381] RGB_lstm1_unit_12 <- c_11
I0303 14:58:44.398705 29550 net.cpp:381] RGB_lstm1_unit_12 <- gate_input_12
I0303 14:58:44.398725 29550 net.cpp:381] RGB_lstm1_unit_12 <- cont_12_RGB_lstm1_cont_slice_11_split_1
I0303 14:58:44.398742 29550 net.cpp:339] RGB_lstm1_unit_12 -> c_12
I0303 14:58:44.398761 29550 net.cpp:339] RGB_lstm1_unit_12 -> h_12
I0303 14:58:44.398779 29550 net.cpp:113] Setting up RGB_lstm1_unit_12
I0303 14:58:44.398799 29550 net.cpp:120] Top shape: 1 54 100 (5400)
I0303 14:58:44.398813 29550 net.cpp:120] Top shape: 1 54 100 (5400)
I0303 14:58:44.398829 29550 layer_factory.hpp:74] Creating layer h_12_RGB_lstm1_unit_12_1_split
I0303 14:58:44.398845 29550 net.cpp:84] Creating Layer h_12_RGB_lstm1_unit_12_1_split
I0303 14:58:44.398859 29550 net.cpp:381] h_12_RGB_lstm1_unit_12_1_split <- h_12
I0303 14:58:44.398891 29550 net.cpp:339] h_12_RGB_lstm1_unit_12_1_split -> h_12_RGB_lstm1_unit_12_1_split_0
I0303 14:58:44.398910 29550 net.cpp:339] h_12_RGB_lstm1_unit_12_1_split -> h_12_RGB_lstm1_unit_12_1_split_1
I0303 14:58:44.398931 29550 net.cpp:113] Setting up h_12_RGB_lstm1_unit_12_1_split
I0303 14:58:44.398949 29550 net.cpp:120] Top shape: 1 54 100 (5400)
I0303 14:58:44.398972 29550 net.cpp:120] Top shape: 1 54 100 (5400)
I0303 14:58:44.398988 29550 layer_factory.hpp:74] Creating layer RGB_lstm1_h_conted_12
I0303 14:58:44.399009 29550 net.cpp:84] Creating Layer RGB_lstm1_h_conted_12
I0303 14:58:44.399031 29550 net.cpp:381] RGB_lstm1_h_conted_12 <- h_12_RGB_lstm1_unit_12_1_split_0
I0303 14:58:44.399050 29550 net.cpp:381] RGB_lstm1_h_conted_12 <- cont_13_RGB_lstm1_cont_slice_12_split_0
I0303 14:58:44.399070 29550 net.cpp:339] RGB_lstm1_h_conted_12 -> h_conted_12
I0303 14:58:44.399087 29550 net.cpp:113] Setting up RGB_lstm1_h_conted_12
I0303 14:58:44.399104 29550 net.cpp:120] Top shape: 1 54 100 (5400)
I0303 14:58:44.399124 29550 layer_factory.hpp:74] Creating layer RGB_lstm1_transform_13
I0303 14:58:44.399142 29550 net.cpp:84] Creating Layer RGB_lstm1_transform_13
I0303 14:58:44.399155 29550 net.cpp:381] RGB_lstm1_transform_13 <- h_conted_12
I0303 14:58:44.399176 29550 net.cpp:339] RGB_lstm1_transform_13 -> W_hc_h_12
I0303 14:58:44.399220 29550 net.cpp:113] Setting up RGB_lstm1_transform_13
I0303 14:58:44.399683 29550 net.cpp:120] Top shape: 1 54 400 (21600)
I0303 14:58:44.399703 29550 net.cpp:425] Sharing parameters 'W_hc' owned by layer 'RGB_lstm1_transform_1', param index 0
I0303 14:58:44.399725 29550 layer_factory.hpp:74] Creating layer RGB_lstm1_gate_input_13
I0303 14:58:44.399742 29550 net.cpp:84] Creating Layer RGB_lstm1_gate_input_13
I0303 14:58:44.399758 29550 net.cpp:381] RGB_lstm1_gate_input_13 <- W_hc_h_12
I0303 14:58:44.399772 29550 net.cpp:381] RGB_lstm1_gate_input_13 <- W_xc_x_13
I0303 14:58:44.399797 29550 net.cpp:339] RGB_lstm1_gate_input_13 -> gate_input_13
I0303 14:58:44.399817 29550 net.cpp:113] Setting up RGB_lstm1_gate_input_13
I0303 14:58:44.399837 29550 net.cpp:120] Top shape: 1 54 400 (21600)
I0303 14:58:44.399852 29550 layer_factory.hpp:74] Creating layer RGB_lstm1_unit_13
I0303 14:58:44.399868 29550 net.cpp:84] Creating Layer RGB_lstm1_unit_13
I0303 14:58:44.399880 29550 net.cpp:381] RGB_lstm1_unit_13 <- c_12
I0303 14:58:44.399896 29550 net.cpp:381] RGB_lstm1_unit_13 <- gate_input_13
I0303 14:58:44.399910 29550 net.cpp:381] RGB_lstm1_unit_13 <- cont_13_RGB_lstm1_cont_slice_12_split_1
I0303 14:58:44.399929 29550 net.cpp:339] RGB_lstm1_unit_13 -> c_13
I0303 14:58:44.399945 29550 net.cpp:339] RGB_lstm1_unit_13 -> h_13
I0303 14:58:44.399962 29550 net.cpp:113] Setting up RGB_lstm1_unit_13
I0303 14:58:44.399981 29550 net.cpp:120] Top shape: 1 54 100 (5400)
I0303 14:58:44.399996 29550 net.cpp:120] Top shape: 1 54 100 (5400)
I0303 14:58:44.400008 29550 layer_factory.hpp:74] Creating layer h_13_RGB_lstm1_unit_13_1_split
I0303 14:58:44.400041 29550 net.cpp:84] Creating Layer h_13_RGB_lstm1_unit_13_1_split
I0303 14:58:44.400054 29550 net.cpp:381] h_13_RGB_lstm1_unit_13_1_split <- h_13
I0303 14:58:44.400085 29550 net.cpp:339] h_13_RGB_lstm1_unit_13_1_split -> h_13_RGB_lstm1_unit_13_1_split_0
I0303 14:58:44.400104 29550 net.cpp:339] h_13_RGB_lstm1_unit_13_1_split -> h_13_RGB_lstm1_unit_13_1_split_1
I0303 14:58:44.400125 29550 net.cpp:113] Setting up h_13_RGB_lstm1_unit_13_1_split
I0303 14:58:44.400143 29550 net.cpp:120] Top shape: 1 54 100 (5400)
I0303 14:58:44.400161 29550 net.cpp:120] Top shape: 1 54 100 (5400)
I0303 14:58:44.400174 29550 layer_factory.hpp:74] Creating layer RGB_lstm1_h_conted_13
I0303 14:58:44.400195 29550 net.cpp:84] Creating Layer RGB_lstm1_h_conted_13
I0303 14:58:44.400210 29550 net.cpp:381] RGB_lstm1_h_conted_13 <- h_13_RGB_lstm1_unit_13_1_split_0
I0303 14:58:44.400226 29550 net.cpp:381] RGB_lstm1_h_conted_13 <- cont_14_RGB_lstm1_cont_slice_13_split_0
I0303 14:58:44.400244 29550 net.cpp:339] RGB_lstm1_h_conted_13 -> h_conted_13
I0303 14:58:44.400264 29550 net.cpp:113] Setting up RGB_lstm1_h_conted_13
I0303 14:58:44.400280 29550 net.cpp:120] Top shape: 1 54 100 (5400)
I0303 14:58:44.400293 29550 layer_factory.hpp:74] Creating layer RGB_lstm1_transform_14
I0303 14:58:44.400310 29550 net.cpp:84] Creating Layer RGB_lstm1_transform_14
I0303 14:58:44.400322 29550 net.cpp:381] RGB_lstm1_transform_14 <- h_conted_13
I0303 14:58:44.400341 29550 net.cpp:339] RGB_lstm1_transform_14 -> W_hc_h_13
I0303 14:58:44.400368 29550 net.cpp:113] Setting up RGB_lstm1_transform_14
I0303 14:58:44.400831 29550 net.cpp:120] Top shape: 1 54 400 (21600)
I0303 14:58:44.400849 29550 net.cpp:425] Sharing parameters 'W_hc' owned by layer 'RGB_lstm1_transform_1', param index 0
I0303 14:58:44.400862 29550 layer_factory.hpp:74] Creating layer RGB_lstm1_gate_input_14
…
I0303 14:58:44.464284 29550 net.cpp:113] Setting up conv1_2
I0303 14:58:44.464756 29550 net.cpp:120] Top shape: 1 64 426 426 (11614464)
I0303 14:58:44.464782 29550 layer_factory.hpp:74] Creating layer relu1_2
I0303 14:58:44.464793 29550 net.cpp:84] Creating Layer relu1_2
I0303 14:58:44.464802 29550 net.cpp:381] relu1_2 <- conv1_2
I0303 14:58:44.464810 29550 net.cpp:328] relu1_2 -> conv1_2 (in-place)
I0303 14:58:44.464820 29550 net.cpp:113] Setting up relu1_2
I0303 14:58:44.464830 29550 net.cpp:120] Top shape: 1 64 426 426 (11614464)
I0303 14:58:44.464838 29550 layer_factory.hpp:74] Creating layer pool1
I0303 14:58:44.464849 29550 net.cpp:84] Creating Layer pool1
I0303 14:58:44.464857 29550 net.cpp:381] pool1 <- conv1_2
I0303 14:58:44.464866 29550 net.cpp:339] pool1 -> pool1
I0303 14:58:44.464876 29550 net.cpp:113] Setting up pool1
I0303 14:58:44.464890 29550 net.cpp:120] Top shape: 1 64 214 214 (2930944)
I0303 14:58:44.464900 29550 layer_factory.hpp:74] Creating layer conv2_1
I0303 14:58:44.464918 29550 net.cpp:84] Creating Layer conv2_1
I0303 14:58:44.464926 29550 net.cpp:381] conv2_1 <- pool1
I0303 14:58:44.464936 29550 net.cpp:339] conv2_1 -> conv2_1
I0303 14:58:44.464948 29550 net.cpp:113] Setting up conv2_1
I0303 14:58:44.465173 29550 net.cpp:120] Top shape: 1 128 214 214 (5861888)
I0303 14:58:44.465205 29550 layer_factory.hpp:74] Creating layer relu2_1
I0303 14:58:44.465216 29550 net.cpp:84] Creating Layer relu2_1
I0303 14:58:44.465224 29550 net.cpp:381] relu2_1 <- conv2_1
I0303 14:58:44.465242 29550 net.cpp:328] relu2_1 -> conv2_1 (in-place)
I0303 14:58:44.465252 29550 net.cpp:113] Setting up relu2_1
I0303 14:58:44.465263 29550 net.cpp:120] Top shape: 1 128 214 214 (5861888)
I0303 14:58:44.465273 29550 layer_factory.hpp:74] Creating layer conv2_2
I0303 14:58:44.465284 29550 net.cpp:84] Creating Layer conv2_2
I0303 14:58:44.465293 29550 net.cpp:381] conv2_2 <- conv2_1
I0303 14:58:44.465303 29550 net.cpp:339] conv2_2 -> conv2_2
I0303 14:58:44.465315 29550 net.cpp:113] Setting up conv2_2
I0303 14:58:44.465790 29550 net.cpp:120] Top shape: 1 128 214 214 (5861888)
I0303 14:58:44.465806 29550 layer_factory.hpp:74] Creating layer relu2_2
I0303 14:58:44.465829 29550 net.cpp:84] Creating Layer relu2_2
I0303 14:58:44.465837 29550 net.cpp:381] relu2_2 <- conv2_2
I0303 14:58:44.465847 29550 net.cpp:328] relu2_2 -> conv2_2 (in-place)
I0303 14:58:44.465857 29550 net.cpp:113] Setting up relu2_2
I0303 14:58:44.465867 29550 net.cpp:120] Top shape: 1 128 214 214 (5861888)
I0303 14:58:44.465876 29550 layer_factory.hpp:74] Creating layer pool2
I0303 14:58:44.465886 29550 net.cpp:84] Creating Layer pool2
I0303 14:58:44.465894 29550 net.cpp:381] pool2 <- conv2_2
I0303 14:58:44.465922 29550 net.cpp:339] pool2 -> pool2
I0303 14:58:44.465936 29550 net.cpp:113] Setting up pool2
I0303 14:58:44.465950 29550 net.cpp:120] Top shape: 1 128 108 108 (1492992)
I0303 14:58:44.465957 29550 layer_factory.hpp:74] Creating layer conv3_1
I0303 14:58:44.465970 29550 net.cpp:84] Creating Layer conv3_1
I0303 14:58:44.465978 29550 net.cpp:381] conv3_1 <- pool2
I0303 14:58:44.465987 29550 net.cpp:339] conv3_1 -> conv3_1
I0303 14:58:44.465998 29550 net.cpp:113] Setting up conv3_1
I0303 14:58:44.466703 29550 net.cpp:120] Top shape: 1 256 108 108 (2985984)
I0303 14:58:44.466733 29550 layer_factory.hpp:74] Creating layer relu3_1
I0303 14:58:44.466744 29550 net.cpp:84] Creating Layer relu3_1
I0303 14:58:44.466758 29550 net.cpp:381] relu3_1 <- conv3_1
I0303 14:58:44.466766 29550 net.cpp:328] relu3_1 -> conv3_1 (in-place)
I0303 14:58:44.466778 29550 net.cpp:113] Setting up relu3_1
I0303 14:58:44.466787 29550 net.cpp:120] Top shape: 1 256 108 108 (2985984)
I0303 14:58:44.466794 29550 layer_factory.hpp:74] Creating layer conv3_2
I0303 14:58:44.466804 29550 net.cpp:84] Creating Layer conv3_2
I0303 14:58:44.466810 29550 net.cpp:381] conv3_2 <- conv3_1
I0303 14:58:44.466820 29550 net.cpp:339] conv3_2 -> conv3_2
I0303 14:58:44.466830 29550 net.cpp:113] Setting up conv3_2
I0303 14:58:44.468497 29550 net.cpp:120] Top shape: 1 256 108 108 (2985984)
I0303 14:58:44.468526 29550 layer_factory.hpp:74] Creating layer relu3_2
I0303 14:58:44.468549 29550 net.cpp:84] Creating Layer relu3_2
I0303 14:58:44.468556 29550 net.cpp:381] relu3_2 <- conv3_2
I0303 14:58:44.468567 29550 net.cpp:328] relu3_2 -> conv3_2 (in-place)
I0303 14:58:44.468576 29550 net.cpp:113] Setting up relu3_2
I0303 14:58:44.468585 29550 net.cpp:120] Top shape: 1 256 108 108 (2985984)
I0303 14:58:44.468593 29550 layer_factory.hpp:74] Creating layer conv3_3
I0303 14:58:44.468602 29550 net.cpp:84] Creating Layer conv3_3
I0303 14:58:44.468611 29550 net.cpp:381] conv3_3 <- conv3_2
I0303 14:58:44.468621 29550 net.cpp:339] conv3_3 -> conv3_3
I0303 14:58:44.468629 29550 net.cpp:113] Setting up conv3_3
I0303 14:58:44.470330 29550 net.cpp:120] Top shape: 1 256 108 108 (2985984)
I0303 14:58:44.470360 29550 layer_factory.hpp:74] Creating layer relu3_3
I0303 14:58:44.470372 29550 net.cpp:84] Creating Layer relu3_3
I0303 14:58:44.470381 29550 net.cpp:381] relu3_3 <- conv3_3
I0303 14:58:44.470445 29550 net.cpp:328] relu3_3 -> conv3_3 (in-place)
I0303 14:58:44.470455 29550 net.cpp:113] Setting up relu3_3
I0303 14:58:44.470464 29550 net.cpp:120] Top shape: 1 256 108 108 (2985984)
I0303 14:58:44.470471 29550 layer_factory.hpp:74] Creating layer pool3
I0303 14:58:44.470481 29550 net.cpp:84] Creating Layer pool3
I0303 14:58:44.470489 29550 net.cpp:381] pool3 <- conv3_3
I0303 14:58:44.470497 29550 net.cpp:339] pool3 -> pool3
I0303 14:58:44.470509 29550 net.cpp:113] Setting up pool3
I0303 14:58:44.470520 29550 net.cpp:120] Top shape: 1 256 55 55 (774400)
I0303 14:58:44.470527 29550 layer_factory.hpp:74] Creating layer conv4_1
I0303 14:58:44.470541 29550 net.cpp:84] Creating Layer conv4_1
I0303 14:58:44.470554 29550 net.cpp:381] conv4_1 <- pool3
I0303 14:58:44.470563 29550 net.cpp:339] conv4_1 -> conv4_1
I0303 14:58:44.470573 29550 net.cpp:113] Setting up conv4_1
I0303 14:58:44.473395 29550 net.cpp:120] Top shape: 1 512 55 55 (1548800)
I0303 14:58:44.473433 29550 layer_factory.hpp:74] Creating layer relu4_1
I0303 14:58:44.473458 29550 net.cpp:84] Creating Layer relu4_1
I0303 14:58:44.473466 29550 net.cpp:381] relu4_1 <- conv4_1
I0303 14:58:44.473477 29550 net.cpp:328] relu4_1 -> conv4_1 (in-place)
I0303 14:58:44.473487 29550 net.cpp:113] Setting up relu4_1
I0303 14:58:44.473497 29550 net.cpp:120] Top shape: 1 512 55 55 (1548800)
I0303 14:58:44.473505 29550 layer_factory.hpp:74] Creating layer conv4_2
I0303 14:58:44.473515 29550 net.cpp:84] Creating Layer conv4_2
I0303 14:58:44.473608 29550 net.cpp:381] conv4_2 <- conv4_1
I0303 14:58:44.473619 29550 net.cpp:339] conv4_2 -> conv4_2
I0303 14:58:44.473631 29550 net.cpp:113] Setting up conv4_2
I0303 14:58:44.477859 29550 net.cpp:120] Top shape: 1 512 55 55 (1548800)
I0303 14:58:44.477965 29550 layer_factory.hpp:74] Creating layer relu4_2
I0303 14:58:44.478127 29550 net.cpp:84] Creating Layer relu4_2
I0303 14:58:44.478137 29550 net.cpp:381] relu4_2 <- conv4_2
I0303 14:58:44.478150 29550 net.cpp:328] relu4_2 -> conv4_2 (in-place)
I0303 14:58:44.478163 29550 net.cpp:113] Setting up relu4_2
I0303 14:58:44.478174 29550 net.cpp:120] Top shape: 1 512 55 55 (1548800)
I0303 14:58:44.478181 29550 layer_factory.hpp:74] Creating layer conv4_3
I0303 14:58:44.478198 29550 net.cpp:84] Creating Layer conv4_3
I0303 14:58:44.478205 29550 net.cpp:381] conv4_3 <- conv4_2
I0303 14:58:44.478215 29550 net.cpp:339] conv4_3 -> conv4_3
I0303 14:58:44.478227 29550 net.cpp:113] Setting up conv4_3
I0303 14:58:44.482442 29550 net.cpp:120] Top shape: 1 512 55 55 (1548800)
I0303 14:58:44.482477 29550 layer_factory.hpp:74] Creating layer relu4_3
I0303 14:58:44.482489 29550 net.cpp:84] Creating Layer relu4_3
I0303 14:58:44.482612 29550 net.cpp:381] relu4_3 <- conv4_3
I0303 14:58:44.482622 29550 net.cpp:328] relu4_3 -> conv4_3 (in-place)
I0303 14:58:44.482635 29550 net.cpp:113] Setting up relu4_3
I0303 14:58:44.482643 29550 net.cpp:120] Top shape: 1 512 55 55 (1548800)
I0303 14:58:44.482651 29550 layer_factory.hpp:74] Creating layer pool4
I0303 14:58:44.482662 29550 net.cpp:84] Creating Layer pool4
I0303 14:58:44.482669 29550 net.cpp:381] pool4 <- conv4_3
I0303 14:58:44.482678 29550 net.cpp:339] pool4 -> pool4
I0303 14:58:44.482693 29550 net.cpp:113] Setting up pool4
I0303 14:58:44.482709 29550 net.cpp:120] Top shape: 1 512 54 54 (1492992)
I0303 14:58:44.482717 29550 layer_factory.hpp:74] Creating layer conv5_1
I0303 14:58:44.482731 29550 net.cpp:84] Creating Layer conv5_1
I0303 14:58:44.482739 29550 net.cpp:381] conv5_1 <- pool4
I0303 14:58:44.482749 29550 net.cpp:339] conv5_1 -> conv5_1
I0303 14:58:44.482760 29550 net.cpp:113] Setting up conv5_1
I0303 14:58:44.486820 29550 net.cpp:120] Top shape: 1 512 54 54 (1492992)
I0303 14:58:44.486857 29550 layer_factory.hpp:74] Creating layer relu5_1
I0303 14:58:44.486881 29550 net.cpp:84] Creating Layer relu5_1
I0303 14:58:44.486891 29550 net.cpp:381] relu5_1 <- conv5_1
I0303 14:58:44.486901 29550 net.cpp:328] relu5_1 -> conv5_1 (in-place)
I0303 14:58:44.486912 29550 net.cpp:113] Setting up relu5_1
I0303 14:58:44.486922 29550 net.cpp:120] Top shape: 1 512 54 54 (1492992)
I0303 14:58:44.486928 29550 layer_factory.hpp:74] Creating layer conv5_2
I0303 14:58:44.486940 29550 net.cpp:84] Creating Layer conv5_2
I0303 14:58:44.486948 29550 net.cpp:381] conv5_2 <- conv5_1
I0303 14:58:44.486956 29550 net.cpp:339] conv5_2 -> conv5_2
I0303 14:58:44.487084 29550 net.cpp:113] Setting up conv5_2
I0303 14:58:44.491806 29550 net.cpp:120] Top shape: 1 512 54 54 (1492992)
I0303 14:58:44.491843 29550 layer_factory.hpp:74] Creating layer relu5_2
I0303 14:58:44.491855 29550 net.cpp:84] Creating Layer relu5_2
I0303 14:58:44.491864 29550 net.cpp:381] relu5_2 <- conv5_2
I0303 14:58:44.491983 29550 net.cpp:328] relu5_2 -> conv5_2 (in-place)
I0303 14:58:44.491993 29550 net.cpp:113] Setting up relu5_2
I0303 14:58:44.492003 29550 net.cpp:120] Top shape: 1 512 54 54 (1492992)
I0303 14:58:44.492010 29550 layer_factory.hpp:74] Creating layer conv5_3
I0303 14:58:44.492022 29550 net.cpp:84] Creating Layer conv5_3
I0303 14:58:44.492029 29550 net.cpp:381] conv5_3 <- conv5_2
I0303 14:58:44.492038 29550 net.cpp:339] conv5_3 -> conv5_3
I0303 14:58:44.492050 29550 net.cpp:113] Setting up conv5_3
I0303 14:58:44.496151 29550 net.cpp:120] Top shape: 1 512 54 54 (1492992)
I0303 14:58:44.496191 29550 layer_factory.hpp:74] Creating layer relu5_3
I0303 14:58:44.496320 29550 net.cpp:84] Creating Layer relu5_3
I0303 14:58:44.496335 29550 net.cpp:381] relu5_3 <- conv5_3
I0303 14:58:44.496352 29550 net.cpp:328] relu5_3 -> conv5_3 (in-place)
I0303 14:58:44.496363 29550 net.cpp:113] Setting up relu5_3
I0303 14:58:44.496373 29550 net.cpp:120] Top shape: 1 512 54 54 (1492992)
I0303 14:58:44.496381 29550 layer_factory.hpp:74] Creating layer pool5
I0303 14:58:44.496392 29550 net.cpp:84] Creating Layer pool5
I0303 14:58:44.496435 29550 net.cpp:381] pool5 <- conv5_3
I0303 14:58:44.496450 29550 net.cpp:339] pool5 -> pool5
I0303 14:58:44.496462 29550 net.cpp:113] Setting up pool5
I0303 14:58:44.496477 29550 net.cpp:120] Top shape: 1 512 54 54 (1492992)
I0303 14:58:44.496486 29550 layer_factory.hpp:74] Creating layer conv6
I0303 14:58:44.496506 29550 net.cpp:84] Creating Layer conv6
I0303 14:58:44.496515 29550 net.cpp:381] conv6 <- pool5
I0303 14:58:44.496526 29550 net.cpp:339] conv6 -> conv6
I0303 14:58:44.496537 29550 net.cpp:113] Setting up conv6
I0303 14:58:45.559738 29550 net.cpp:120] Top shape: 1 4096 54 54 (11943936)
I0303 14:58:45.559792 29550 layer_factory.hpp:74] Creating layer relu6
I0303 14:58:45.559818 29550 net.cpp:84] Creating Layer relu6
I0303 14:58:45.559831 29550 net.cpp:381] relu6 <- conv6
I0303 14:58:45.559850 29550 net.cpp:328] relu6 -> conv6 (in-place)
I0303 14:58:45.559875 29550 net.cpp:113] Setting up relu6
I0303 14:58:45.559891 29550 net.cpp:120] Top shape: 1 4096 54 54 (11943936)
I0303 14:58:45.559902 29550 layer_factory.hpp:74] Creating layer drop6
I0303 14:58:45.559921 29550 net.cpp:84] Creating Layer drop6
I0303 14:58:45.559932 29550 net.cpp:381] drop6 <- conv6
I0303 14:58:45.559950 29550 net.cpp:328] drop6 -> conv6 (in-place)
I0303 14:58:45.559965 29550 net.cpp:113] Setting up drop6
I0303 14:58:45.559983 29550 net.cpp:120] Top shape: 1 4096 54 54 (11943936)
I0303 14:58:45.559994 29550 layer_factory.hpp:74] Creating layer conv7
I0303 14:58:45.560014 29550 net.cpp:84] Creating Layer conv7
I0303 14:58:45.560027 29550 net.cpp:381] conv7 <- conv6
I0303 14:58:45.560044 29550 net.cpp:339] conv7 -> conv7
I0303 14:58:45.560063 29550 net.cpp:113] Setting up conv7
I0303 14:58:46.158706 29550 net.cpp:120] Top shape: 1 4096 54 54 (11943936)
I0303 14:58:46.158768 29550 layer_factory.hpp:74] Creating layer relu7
I0303 14:58:46.158788 29550 net.cpp:84] Creating Layer relu7
I0303 14:58:46.158798 29550 net.cpp:381] relu7 <- conv7
I0303 14:58:46.158810 29550 net.cpp:328] relu7 -> conv7 (in-place)
I0303 14:58:46.158823 29550 net.cpp:113] Setting up relu7
I0303 14:58:46.158833 29550 net.cpp:120] Top shape: 1 4096 54 54 (11943936)
I0303 14:58:46.158841 29550 layer_factory.hpp:74] Creating layer drop7
I0303 14:58:46.158852 29550 net.cpp:84] Creating Layer drop7
I0303 14:58:46.158859 29550 net.cpp:381] drop7 <- conv7
I0303 14:58:46.158870 29550 net.cpp:328] drop7 -> conv7 (in-place)
I0303 14:58:46.158881 29550 net.cpp:113] Setting up drop7
I0303 14:58:46.158892 29550 net.cpp:120] Top shape: 1 4096 54 54 (11943936)
I0303 14:58:46.158900 29550 layer_factory.hpp:74] Creating layer conv8
I0303 14:58:46.158915 29550 net.cpp:84] Creating Layer conv8
I0303 14:58:46.158926 29550 net.cpp:381] conv8 <- conv7
I0303 14:58:46.158938 29550 net.cpp:339] conv8 -> conv8
I0303 14:58:46.158951 29550 net.cpp:113] Setting up conv8
I0303 14:58:46.163621 29550 net.cpp:120] Top shape: 1 38 54 54 (110808)
I0303 14:58:46.163648 29550 layer_factory.hpp:74] Creating layer conv8_conv8_0_split
I0303 14:58:46.163661 29550 net.cpp:84] Creating Layer conv8_conv8_0_split
I0303 14:58:46.163668 29550 net.cpp:381] conv8_conv8_0_split <- conv8
I0303 14:58:46.163677 29550 net.cpp:339] conv8_conv8_0_split -> conv8_conv8_0_split_0
I0303 14:58:46.163688 29550 net.cpp:339] conv8_conv8_0_split -> conv8_conv8_0_split_1
I0303 14:58:46.163699 29550 net.cpp:113] Setting up conv8_conv8_0_split
I0303 14:58:46.163710 29550 net.cpp:120] Top shape: 1 38 54 54 (110808)
I0303 14:58:46.163720 29550 net.cpp:120] Top shape: 1 38 54 54 (110808)
I0303 14:58:46.163728 29550 layer_factory.hpp:74] Creating layer label_shrink
I0303 14:58:46.163740 29550 net.cpp:84] Creating Layer label_shrink
I0303 14:58:46.163748 29550 net.cpp:381] label_shrink <- label
I0303 14:58:46.163756 29550 net.cpp:339] label_shrink -> label_shrink
I0303 14:58:46.163770 29550 net.cpp:113] Setting up label_shrink
I0303 14:58:46.163784 29550 net.cpp:120] Top shape: 1 1 54 54 (2916)
I0303 14:58:46.163791 29550 layer_factory.hpp:74] Creating layer mask_54_54
I0303 14:58:46.163926 29550 net.cpp:84] Creating Layer mask_54_54
I0303 14:58:46.163992 29550 net.cpp:339] mask_54_54 -> mask_54_54
I0303 14:58:46.164006 29550 net.cpp:113] Setting up mask_54_54
I0303 14:58:46.164026 29550 net.cpp:120] Top shape: 54 54 (2916)
I0303 14:58:46.164034 29550 layer_factory.hpp:74] Creating layer conv8_trans
I0303 14:58:46.164053 29550 net.cpp:84] Creating Layer conv8_trans
I0303 14:58:46.164063 29550 net.cpp:381] conv8_trans <- conv8_conv8_0_split_0
I0303 14:58:46.164074 29550 net.cpp:339] conv8_trans -> conv8_trans
I0303 14:58:46.164086 29550 net.cpp:113] Setting up conv8_trans
I0303 14:58:46.164098 29550 net.cpp:120] Top shape: 54 54 38 (110808)
I0303 14:58:46.164113 29550 layer_factory.hpp:74] Creating layer RGB_lstm1
I0303 14:58:46.164126 29550 net.cpp:84] Creating Layer RGB_lstm1
I0303 14:58:46.164134 29550 net.cpp:381] RGB_lstm1 <- conv8_trans
I0303 14:58:46.164145 29550 net.cpp:381] RGB_lstm1 <- mask_54_54
I0303 14:58:46.164157 29550 net.cpp:339] RGB_lstm1 -> RGB_lstm1
I0303 14:58:46.164170 29550 net.cpp:113] Setting up RGB_lstm1
I0303 14:58:46.164180 29550 recurrent_layer.cpp:27] Initializing recurrent layer: assuming input batch contains 54 timesteps of 54 independent streams.
I0303 14:58:46.165787 29550 net.cpp:42] Initializing net from parameters: 
input: "x"
input: "cont"
input: "c_0"
input: "h_0"
force_backward: true
input_shape {
  dim: 54
  dim: 54
  dim: 38
}
input_shape {
  dim: 1
  dim: 54
  dim: 54
}
input_shape {
  dim: 1
  dim: 54
  dim: 100
}
input_shape {
  dim: 1
  dim: 54
  dim: 100
}
layer {
  name: "RGB_lstm1_cont_slice"
  type: "Slice"
  bottom: "cont"
  top: "cont_1"
  top: "cont_2"
  top: "cont_3"
  top: "cont_4"
  top: "cont_5"
  top: "cont_6"
  top: "cont_7"
  top: "cont_8"
  top: "cont_9"
  top: "cont_10"
  top: "cont_11"
  top: "cont_12"
  top: "cont_13"
  top: "cont_14"
  top: "cont_15"
  top: "cont_16"
  top: "cont_17"
  top: "cont_18"
  top: "cont_19"
  top: "cont_20"
  top: "cont_21"
  top: "cont_22"
  top: "cont_23"
  top: "cont_24"
  top: "cont_25"
  top: "cont_26"
  top: "cont_27"
  top: "cont_28"
  top: "cont_29"
  top: "cont_30"
  top: "cont_31"
  top: "cont_32"
  top: "cont_33"
  top: "cont_34"
  top: "cont_35"
  top: "cont_36"
  top: "cont_37"
  top: "cont_38"
  top: "cont_39"
  top: "cont_40"
  top: "cont_41"
  top: "cont_42"
  top: "cont_43"
  top: "cont_44"
  top: "cont_45"
  top: "cont_46"
  top: "cont_47"
  top: "cont_48"
  top: "cont_49"
  top: "cont_50"
  top: "cont_51"
  top: "cont_52"
  top: "cont_53"
  top: "cont_54"
  slice_param {
    axis: 1
  }
}
layer {
  name: "RGB_lstm1_x_transform"
  type: "InnerProduct"
  bottom: "x"
  top: "W_xc_x"
  param {
    name: "W_xc"
  }
  param {
    name: "b_c"
  }
  inner_product_param {
    num_output: 400
    bias_term: true
    weight_filler {
      type: "uniform"
      min: -0.01
      max: 0.01
    }
    bias_filler {
      type: "constant"
      value: 0
    }
    axis: 2
  }
}
layer {
  name: "RGB_lstm1_W_xc_x_slice"
  type: "Slice"
  bottom: "W_xc_x"
  top: "W_xc_x_1"
  top: "W_xc_x_2"
  top: "W_xc_x_3"
  top: "W_xc_x_4"
  top: "W_xc_x_5"
  top: "W_xc_x_6"
  top: "W_xc_x_7"
  top: "W_xc_x_8"
  top: "W_xc_x_9"
  top: "W_xc_x_10"
  top: "W_xc_x_11"
  top: "W_xc_x_12"
  top: "W_xc_x_13"
  top: "W_xc_x_14"
  top: "W_xc_x_15"
  top: "W_xc_x_16"
  top: "W_xc_x_17"
  top: "W_xc_x_18"
  top: "W_xc_x_19"
  top: "W_xc_x_20"
  top: "W_xc_x_21"
  top: "W_xc_x_22"
  top: "W_xc_x_23"
  top: "W_xc_x_24"
  top: "W_xc_x_25"
  top: "W_xc_x_26"
  top: "W_xc_x_27"
  top: "W_xc_x_28"
  top: "W_xc_x_29"
  top: "W_xc_x_30"
  top: "W_xc_x_31"
  top: "W_xc_x_32"
  top: "W_xc_x_33"
  top: "W_xc_x_34"
  top: "W_xc_x_35"
  top: "W_xc_x_36"
  top: "W_xc_x_37"
  top: "W_xc_x_38"
  top: "W_xc_x_39"
  top: "W_xc_x_40"
  top: "W_xc_x_41"
  top: "W_xc_x_42"
  top: "W_xc_x_43"
  top: "W_xc_x_44"
  top: "W_xc_x_45"
  top: "W_xc_x_46"
  top: "W_xc_x_47"
  top: "W_xc_x_48"
  top: "W_xc_x_49"
  top: "W_xc_x_50"
  top: "W_xc_x_51"
  top: "W_xc_x_52"
  top: "W_xc_x_53"
  top: "W_xc_x_54"
  slice_param {
    axis: 0
  }
}
layer {
  name: "RGB_lstm1_h_conted_0"
  type: "Eltwise"
  bottom: "h_0"
  bottom: "cont_1"
  top: "h_conted_0"
  eltwise_param {
    operation: SUM
    coeff_blob: true
  }
}
layer {
  name: "RGB_lstm1_transform_1"
  type: "InnerProduct"
  bottom: "h_conted_0"
  top: "W_hc_h_0"
  param {
    name: "W_hc"
  }
  inner_product_param {
    num_output: 400
    bias_term: false
    weight_filler {
      type: "uniform"
      min: -0.01
      max: 0.01
    }
    axis: 2
  }
}
layer {
  name: "RGB_lstm1_gate_input_1"
  type: "Eltwise"
  bottom: "W_hc_h_0"
  bottom: "W_xc_x_1"
  top: "gate_input_1"
  eltwise_param {
    operation: SUM
  }
}
layer {
  name: "RGB_lstm1_unit_1"
  type: "LSTMUnit"
  bottom: "c_0"
  bottom: "gate_input_1"
  bottom: "cont_1"
  top: "c_1"
  top: "h_1"
}
layer {
  name: "RGB_lstm1_h_conted_1"
  type: "Eltwise"
  bottom: "h_1"
  bottom: "cont_2"
  top: "h_conted_1"
  eltwise_param {
    operation: SUM
    coeff_blob: true
  }
}
layer {
  name: "RGB_lstm1_transform_2"
  type: "InnerProduct"
  bottom: "h_conted_1"
  top: "W_hc_h_1"
  param {
    name: "W_hc"
  }
  inner_product_param {
    num_output: 400
    bias_term: false
    weight_filler {
      type: "uniform"
      min: -0.01
      max: 0.01
    }
    axis: 2
  }
}
layer {
  name: "RGB_lstm1_gate_input_2"
  type: "Eltwise"
  bottom: "W_hc_h_1"
  bottom: "W_xc_x_2"
  top: "gate_input_2"
  eltwise_param {
    operation: SUM
  }
}
layer {
  name: "RGB_lstm1_unit_2"
  type: "LSTMUnit"
  bottom: "c_1"
  bottom: "gate_input_2"
  bottom: "cont_2"
  top: "c_2"
  top: "h_2"
}
layer {
  name: "RGB_lstm1_h_conted_2"
  type: "Eltwise"
  bottom: "h_2"
  bottom: "cont_3"
  top: "h_conted_2"
  eltwise_param {
    operation: SUM
    coeff_blob: true
  }
}
layer {
  name: "RGB_lstm1_transform_3"
  type: "InnerProduct"
  bottom: "h_conted_2"
  top: "W_hc_h_2"
  param {
    name: "W_hc"
  }
  inner_product_param {
    num_output: 400
    bias_term: false
    weight_filler {
      type: "uniform"
      min: -0.01
      max: 0.01
    }
    axis: 2
  }
}
layer {
  name: "RGB_lstm1_gate_input_3"
  type: "Eltwise"
  bottom: "W_hc_h_2"
  bottom: "W_xc_x_3"
  top: "gate_input_3"
  eltwise_param {
    operation: SUM
  }
}
layer {
  name: "RGB_lstm1_unit_3"
  type: "LSTMUnit"
  bottom: "c_2"
  bottom: "gate_input_3"
  bottom: "cont_3"
  top: "c_3"
  top: "h_3"
}
layer {
  name: "RGB_lstm1_h_conted_3"
  type: "Eltwise"
  bottom: "h_3"
  bottom: "cont_4"
  top: "h_conted_3"
  eltwise_param {
    operation: SUM
    coeff_blob: true
  }
}
layer {
  name: "RGB_lstm1_transform_4"
  type: "InnerProduct"
  bottom: "h_conted_3"
  top: "W_hc_h_3"
  param {
    name: "W_hc"
  }
  inner_product_param {
    num_output: 400
    bias_term: false
    weight_filler {
      type: "uniform"
      min: -0.01
      max: 0.01
    }
    axis: 2
  }
}
layer {
  name: "RGB_lstm1_gate_input_4"
  type: "Eltwise"
  bottom: "W_hc_h_3"
  bottom: "W_xc_x_4"
  top: "gate_input_4"
  eltwise_param {
    operation: SUM
  }
}
layer {
  name: "RGB_lstm1_unit_4"
  type: "LSTMUnit"
  bottom: "c_3"
  bottom: "gate_input_4"
  bottom: "cont_4"
  top: "c_4"
  top: "h_4"
}
layer {
  name: "RGB_lstm1_h_conted_4"
  type: "Eltwise"
  bottom: "h_4"
  bottom: "cont_5"
  top: "h_conted_4"
  eltwise_param {
    operation: SUM
    coeff_blob: true
  }
}
layer {
  name: "RGB_lstm1_transform_5"
  type: "InnerProduct"
  bottom: "h_conted_4"
  top: "W_hc_h_4"
  param {
    name: "W_hc"
  }
  inner_product_param {
    num_output: 400
    bias_term: false
    weight_filler {
      type: "uniform"
      min: -0.01
      max: 0.01
    }
    axis: 2
  }
}
layer {
  name: "RGB_lstm1_gate_input_5"
  type: "Eltwise"
  bottom: "W_hc_h_4"
  bottom: "W_xc_x_5"
  top: "gate_input_5"
  eltwise_param {
    operation: SUM
  }
}
layer {
  name: "RGB_lstm1_unit_5"
  type: "LSTMUnit"
  bottom: "c_4"
  bottom: "gate_input_5"
  bottom: "cont_5"
  top: "c_5"
  top: "h_5"
}
layer {
  name: "RGB_lstm1_h_conted_5"
  type: "Eltwise"
  bottom: "h_5"
  bottom: "cont_6"
  top: "h_conted_5"
  eltwise_param {
    operation: SUM
    coeff_blob: true
  }
}
layer {
  name: "RGB_lstm1_transform_6"
  type: "InnerProduct"
  bottom: "h_conted_5"
  top: "W_hc_h_5"
  param {
    name: "W_hc"
  }
  inner_product_param {
    num_output: 400
    bias_term: false
    weight_filler {
      type: "uniform"
      min: -0.01
      max: 0.01
    }
    axis: 2
  }
}
layer {
  name: "RGB_lstm1_gate_input_6"
  type: "Eltwise"
  bottom: "W_hc_h_5"
  bottom: "W_xc_x_6"
  top: "gate_input_6"
  eltwise_param {
    operation: SUM
  }
}
layer {
  name: "RGB_lstm1_unit_6"
  type: "LSTMUnit"
  bottom: "c_5"
  bottom: "gate_input_6"
  bottom: "cont_6"
  top: "c_6"
  top: "h_6"
}
layer {
  name: "RGB_lstm1_h_conted_6"
  type: "Eltwise"
  bottom: "h_6"
  bottom: "cont_7"
  top: "h_conted_6"
  eltwise_param {
    operation: SUM
    coeff_blob: true
  }
}
layer {
  name: "RGB_lstm1_transform_7"
  type: "InnerProduct"
  bottom: "h_conted_6"
  top: "W_hc_h_6"
  param {
    name: "W_hc"
  }
  inner_product_param {
    num_output: 400
    bias_term: false
    weight_filler {
      type: "uniform"
      min: -0.01
      max: 0.01
    }
    axis: 2
  }
}
layer {
  name: "RGB_lstm1_gate_input_7"
  type: "Eltwise"
  bottom: "W_hc_h_6"
  bottom: "W_xc_x_7"
  top: "gate_input_7"
  eltwise_param {
    operation: SUM
  }
}
layer {
  name: "RGB_lstm1_unit_7"
  type: "LSTMUnit"
  bottom: "c_6"
  bottom: "gate_input_7"
  bottom: "cont_7"
  top: "c_7"
  top: "h_7"
}
layer {
  name: "RGB_lstm1_h_conted_7"
  type: "Eltwise"
  bottom: "h_7"
  bottom: "cont_8"
  top: "h_conted_7"
  eltwise_param {
    operation: SUM
    coeff_blob: true
  }
}
layer {
  name: "RGB_lstm1_transform_8"
  type: "InnerProduct"
  bottom: "h_conted_7"
  top: "W_hc_h_7"
  param {
    name: "W_hc"
  }
  inner_product_param {
    num_output: 400
    bias_term: false
    weight_filler {
      type: "uniform"
      min: -0.01
      max: 0.01
    }
    axis: 2
  }
}
layer {
  name: "RGB_lstm1_gate_input_8"
  type: "Eltwise"
  bottom: "W_hc_h_7"
  bottom: "W_xc_x_8"
  top: "gate_input_8"
  eltwise_param {
    operation: SUM
  }
}
layer {
  name: "RGB_lstm1_unit_8"
  type: "LSTMUnit"
  bottom: "c_7"
  bottom: "gate_input_8"
  bottom: "cont_8"
  top: "c_8"
  top: "h_8"
}
layer {
  name: "RGB_lstm1_h_conted_8"
  type: "Eltwise"
  bottom: "h_8"
  bottom: "cont_9"
  top: "h_conted_8"
  eltwise_param {
    operation: SUM
    coeff_blob: true
  }
}
layer {
  name: "RGB_lstm1_transform_9"
  type: "InnerProduct"
  bottom: "h_conted_8"
  top: "W_hc_h_8"
  param {
    name: "W_hc"
  }
  inner_product_param {
    num_output: 400
    bias_term: false
    weight_filler {
      type: "uniform"
      min: -0.01
      max: 0.01
    }
    axis: 2
  }
}
layer {
  name: "RGB_lstm1_gate_input_9"
  type: "Eltwise"
  bottom: "W_hc_h_8"
  bottom: "W_xc_x_9"
  top: "gate_input_9"
  eltwise_param {
    operation: SUM
  }
}
layer {
  name: "RGB_lstm1_unit_9"
  type: "LSTMUnit"
  bottom: "c_8"
  bottom: "gate_input_9"
  bottom: "cont_9"
  top: "c_9"
  top: "h_9"
}
layer {
  name: "RGB_lstm1_h_conted_9"
  type: "Eltwise"
  bottom: "h_9"
  bottom: "cont_10"
  top: "h_conted_9"
  eltwise_param {
    operation: SUM
    coeff_blob: true
  }
}
layer {
  name: "RGB_lstm1_transform_10"
  type: "InnerProduct"
  bottom: "h_conted_9"
  top: "W_hc_h_9"
  param {
    name: "W_hc"
  }
  inner_product_param {
    num_output: 400
    bias_term: false
    weight_filler {
      type: "uniform"
      min: -0.01
      max: 0.01
    }
    axis: 2
  }
}
layer {
  name: "RGB_lstm1_gate_input_10"
  type: "Eltwise"
  bottom: "W_hc_h_9"
  bottom: "W_xc_x_10"
  top: "gate_input_10"
  eltwise_param {
    operation: SUM
  }
}
layer {
  name: "RGB_lstm1_unit_10"
  type: "LSTMUnit"
  bottom: "c_9"
  bottom: "gate_input_10"
  bottom: "cont_10"
  top: "c_10"
  top: "h_10"
}
layer {
  name: "RGB_lstm1_h_conted_10"
  type: "Eltwise"
  bottom: "h_10"
  bottom: "cont_11"
  top: "h_conted_10"
  eltwise_param {
    operation: SUM
    coeff_blob: true
  }
}
layer {
  name: "RGB_lstm1_transform_11"
  type: "InnerProduct"
  bottom: "h_conted_10"
  top: "W_hc_h_10"
  param {
    name: "W_hc"
  }
  inner_product_param {
    num_output: 400
    bias_term: false
    weight_filler {
      type: "uniform"
      min: -0.01
      max: 0.01
    }
    axis: 2
  }
}
layer {
  name: "RGB_lstm1_gate_input_11"
  type: "Eltwise"
  bottom: "W_hc_h_10"
  bottom: "W_xc_x_11"
  top: "gate_input_11"
  eltwise_param {
    operation: SUM
  }
}
layer {
  name: "RGB_lstm1_unit_11"
  type: "LSTMUnit"
  bottom: "c_10"
  bottom: "gate_input_11"
  bottom: "cont_11"
  top: "c_11"
  top: "h_11"
}
layer {
  name: "RGB_lstm1_h_conted_11"
  type: "Eltwise"
  bottom: "h_11"
  bottom: "cont_12"
  top: "h_conted_11"
  eltwise_param {
    operation: SUM
    coeff_blob: true
  }
}
layer {
  name: "RGB_lstm1_transform_12"
  type: "InnerProduct"
  bottom: "h_conted_11"
  top: "W_hc_h_11"
  param {
    name: "W_hc"
  }
  inner_product_param {
    num_output: 400
    bias_term: false
    weight_filler {
      type: "uniform"
      min: -0.01
      max: 0.01
    }
    axis: 2
  }
}
layer {
  name: "RGB_lstm1_gate_input_12"
  type: "Eltwise"
  bottom: "W_hc_h_11"
  bottom: "W_xc_x_12"
  top: "gate_input_12"
  eltwise_param {
    operation: SUM
  }
}
layer {
  name: "RGB_lstm1_unit_12"
  type: "LSTMUnit"
  bottom: "c_11"
  bottom: "gate_input_12"
  bottom: "cont_12"
  top: "c_12"
  top: "h_12"
}
layer {
  name: "RGB_lstm1_h_conted_12"
  type: "Eltwise"
  bottom: "h_12"
  bottom: "cont_13"
  top: "h_conted_12"
  eltwise_param {
    operation: SUM
    coeff_blob: true
  }
}
layer {
  name: "RGB_lstm1_transform_13"
  type: "InnerProduct"
  bottom: "h_conted_12"
  top: "W_hc_h_12"
  param {
    name: "W_hc"
  }
  inner_product_param {
    num_output: 400
    bias_term: false
    weight_filler {
      type: "uniform"
      min: -0.01
      max: 0.01
    }
    axis: 2
  }
}
layer {
  name: "RGB_lstm1_gate_input_13"
  type: "Eltwise"
  bottom: "W_hc_h_12"
  bottom: "W_xc_x_13"
  top: "gate_input_13"
  eltwise_param {
    operation: SUM
  }
}
layer {
  name: "RGB_lstm1_unit_13"
  type: "LSTMUnit"
  bottom: "c_12"
  bottom: "gate_input_13"
  bottom: "cont_13"
  top: "c_13"
  top: "h_13"
}
layer {
  name: "RGB_lstm1_h_conted_13"
  type: "Eltwise"
  bottom: "h_13"
  bottom: "cont_14"
  top: "h_conted_13"
  eltwise_param {
    operation: SUM
    coeff_blob: true
  }
}
layer {
  name: "RGB_lstm1_transform_14"
  type: "InnerProduct"
  bottom: "h_conted_13"
  top: "W_hc_h_13"
  param {
    name: "W_hc"
  }
  inner_product_param {
    num_output: 400
    bias_term: false
    weight_filler {
      type: "uniform"
      min: -0.01
      max: 0.01
    }
    axis: 2
  }
}
layer {
  name: "RGB_lstm1_gate_input_14"
  type: "Eltwise"
  bottom: "W_hc_h_13"
  bottom: "W_xc_x_14"
  top: "gate_input_14"
  eltwise_param {
    operation: SUM
  }
}
layer {
  name: "RGB_lstm1_unit_14"
  type: "LSTMUnit"
  bottom: "c_13"
  bottom: "gate_input_14"
  bottom: "cont_14"
  top: "c_14"
  top: "h_14"
}
layer {
  name: "RGB_lstm1_h_conted_14"
  type: "Eltwise"
  bottom: "h_14"
  bottom: "cont_15"
  top: "h_conted_14"
  eltwise_param {
    operation: SUM
    coeff_blob: true
  }
}
layer {
  name: "RGB_lstm1_transform_15"
  type: "InnerProduct"
  bottom: "h_conted_14"
  top: "W_hc_h_14"
  param {
    name: "W_hc"
  }
  inner_product_param {
    num_output: 400
    bias_term: false
    weight_filler {
      type: "uniform"
      min: -0.01
      max: 0.01
    }
    axis: 2
  }
}
layer {
  name: "RGB_lstm1_gate_input_15"
  type: "Eltwise"
  bottom: "W_hc_h_14"
  bottom: "W_xc_x_15"
  top: "gate_input_15"
  eltwise_param {
    operation: SUM
  }
}
layer {
  name: "RGB_lstm1_unit_15"
  type: "LSTMUnit"
  bottom: "c_14"
  bottom: "gate_input_15"
  bottom: "cont_15"
  top: "c_15"
  top: "h_15"
}
layer {
  name: "RGB_lstm1_h_conted_15"
  type: "Eltwise"
  bottom: "h_15"
  bottom: "cont_16"
  top: "h_conted_15"
  eltwise_param {
    operation: SUM
    coeff_blob: true
  }
}
layer {
  name: "RGB_lstm1_transform_16"
  type: "InnerProduct"
  bottom: "h_conted_15"
  top: "W_hc_h_15"
  param {
    name: "W_hc"
  }
  inner_product_param {
    num_output: 400
    bias_term: false
    weight_filler {
      type: "uniform"
      min: -0.01
      max: 0.01
    }
    axis: 2
  }
}
layer {
  name: "RGB_lstm1_gate_input_16"
  type: "Eltwise"
  bottom: "W_hc_h_15"
  bottom: "W_xc_x_16"
  top: "gate_input_16"
  eltwise_param {
    operation: SUM
  }
}
layer {
  name: "RGB_lstm1_unit_16"
  type: "LSTMUnit"
  bottom: "c_15"
  bottom: "gate_input_16"
  bottom: "cont_16"
  top: "c_16"
  top: "h_16"
}
layer {
  name: "RGB_lstm1_h_conted_16"
  type: "Eltwise"
  bottom: "h_16"
  bottom: "cont_17"
  top: "h_conted_16"
  eltwise_param {
    operation: SUM
    coeff_blob: true
  }
}
layer {
  name: "RGB_lstm1_transform_17"
  type: "InnerProduct"
  bottom: "h_conted_16"
  top: "W_hc_h_16"
  param {
    name: "W_hc"
  }
  inner_product_param {
    num_output: 400
    bias_term: false
    weight_filler {
      type: "uniform"
      min: -0.01
      max: 0.01
    }
    axis: 2
  }
}
layer {
  name: "RGB_lstm1_gate_input_17"
  type: "Eltwise"
  bottom: "W_hc_h_16"
  bottom: "W_xc_x_17"
  top: "gate_input_17"
  eltwise_param {
    operation: SUM
  }
}
layer {
  name: "RGB_lstm1_unit_17"
  type: "LSTMUnit"
  bottom: "c_16"
  bottom: "gate_input_17"
  bottom: "cont_17"
  top: "c_17"
  top: "h_17"
}
layer {
  name: "RGB_lstm1_h_conted_17"
  type: "Eltwise"
  bottom: "h_17"
  bottom: "cont_18"
  top: "h_conted_17"
  eltwise_param {
    operation: SUM
    coeff_blob: true
  }
}
layer {
  name: "RGB_lstm1_transform_18"
  type: "InnerProduct"
  bottom: "h_conted_17"
  top: "W_hc_h_17"
  param {
    name: "W_hc"
  }
  inner_product_param {
    num_output: 400
    bias_term: false
    weight_filler {
      type: "uniform"
      min: -0.01
      max: 0.01
    }
    axis: 2
  }
}
layer {
  name: "RGB_lstm1_gate_input_18"
  type: "Eltwise"
  bottom: "W_hc_h_17"
  bottom: "W_xc_x_18"
  top: "gate_input_18"
  eltwise_param {
    operation: SUM
  }
}
layer {
  name: "RGB_lstm1_unit_18"
  type: "LSTMUnit"
  bottom: "c_17"
  bottom: "gate_input_18"
  bottom: "cont_18"
  top: "c_18"
  top: "h_18"
}
layer {
  name: "RGB_lstm1_h_conted_18"
  type: "Eltwise"
  bottom: "h_18"
  bottom: "cont_19"
  top: "h_conted_18"
  eltwise_param {
    operation: SUM
    coeff_blob: true
  }
}
layer {
  name: "RGB_lstm1_transform_19"
  type: "InnerProduct"
  bottom: "h_conted_18"
  top: "W_hc_h_18"
  param {
    name: "W_hc"
  }
  inner_product_param {
    num_output: 400
    bias_term: false
    weight_filler {
      type: "uniform"
      min: -0.01
      max: 0.01
    }
    axis: 2
  }
}
layer {
  name: "RGB_lstm1_gate_input_19"
  type: "Eltwise"
  bottom: "W_hc_h_18"
  bottom: "W_xc_x_19"
  top: "gate_input_19"
  eltwise_param {
    operation: SUM
  }
}
layer {
  name: "RGB_lstm1_unit_19"
  type: "LSTMUnit"
  bottom: "c_18"
  bottom: "gate_input_19"
  bottom: "cont_19"
  top: "c_19"
  top: "h_19"
}
layer {
  name: "RGB_lstm1_h_conted_19"
  type: "Eltwise"
  bottom: "h_19"
  bottom: "cont_20"
  top: "h_conted_19"
  eltwise_param {
    operation: SUM
    coeff_blob: true
  }
}
layer {
  name: "RGB_lstm1_transform_20"
  type: "InnerProduct"
  bottom: "h_conted_19"
  top: "W_hc_h_19"
  param {
    name: "W_hc"
  }
  inner_product_param {
    num_output: 400
    bias_term: false
    weight_filler {
      type: "uniform"
      min: -0.01
      max: 0.01
    }
    axis: 2
  }
}
layer {
  name: "RGB_lstm1_gate_input_20"
  type: "Eltwise"
  bottom: "W_hc_h_19"
  bottom: "W_xc_x_20"
  top: "gate_input_20"
  eltwise_param {
    operation: SUM
  }
}
layer {
  name: "RGB_lstm1_unit_20"
  type: "LSTMUnit"
  bottom: "c_19"
  bottom: "gate_input_20"
  bottom: "cont_20"
  top: "c_20"
  top: "h_20"
}
layer {
  name: "RGB_lstm1_h_conted_20"
  type: "Eltwise"
  bottom: "h_20"
  bottom: "cont_21"
  top: "h_conted_20"
  eltwise_param {
    operation: SUM
    coeff_blob: true
  }
}
layer {
  name: "RGB_lstm1_transform_21"
  type: "InnerProduct"
  bottom: "h_conted_20"
  top: "W_hc_h_20"
  param {
    name: "W_hc"
  }
  inner_product_param {
    num_output: 400
    bias_term: false
    weight_filler {
      type: "uniform"
      min: -0.01
      max: 0.01
    }
    axis: 2
  }
}
layer {
  name: "RGB_lstm1_gate_input_21"
  type: "Eltwise"
  bottom: "W_hc_h_20"
  bottom: "W_xc_x_21"
  top: "gate_input_21"
  eltwise_param {
    operation: SUM
  }
}
layer {
  name: "RGB_lstm1_unit_21"
  type: "LSTMUnit"
  bottom: "c_20"
  bottom: "gate_input_21"
  bottom: "cont_21"
  top: "c_21"
  top: "h_21"
}
layer {
  name: "RGB_lstm1_h_conted_21"
  type: "Eltwise"
  bottom: "h_21"
  bottom: "cont_22"
  top: "h_conted_21"
  eltwise_param {
    operation: SUM
    coeff_blob: true
  }
}
layer {
  name: "RGB_lstm1_transform_22"
  type: "InnerProduct"
  bottom: "h_conted_21"
  top: "W_hc_h_21"
  param {
    name: "W_hc"
  }
  inner_product_param {
    num_output: 400
    bias_term: false
    weight_filler {
      type: "uniform"
      min: -0.01
      max: 0.01
    }
    axis: 2
  }
}
layer {
  name: "RGB_lstm1_gate_input_22"
  type: "Eltwise"
  bottom: "W_hc_h_21"
  bottom: "W_xc_x_22"
  top: "gate_input_22"
  eltwise_param {
    operation: SUM
  }
}
layer {
  name: "RGB_lstm1_unit_22"
  type: "LSTMUnit"
  bottom: "c_21"
  bottom: "gate_input_22"
  bottom: "cont_22"
  top: "c_22"
  top: "h_22"
}
layer {
  name: "RGB_lstm1_h_conted_22"
  type: "Eltwise"
  bottom: "h_22"
  bottom: "cont_23"
  top: "h_conted_22"
  eltwise_param {
    operation: SUM
    coeff_blob: true
  }
}
layer {
  name: "RGB_lstm1_transform_23"
  type: "InnerProduct"
  bottom: "h_conted_22"
  top: "W_hc_h_22"
  param {
    name: "W_hc"
  }
  inner_product_param {
    num_output: 400
    bias_term: false
    weight_filler {
      type: "uniform"
      min: -0.01
      max: 0.01
    }
    axis: 2
  }
}
layer {
  name: "RGB_lstm1_gate_input_23"
  type: "Eltwise"
  bottom: "W_hc_h_22"
  bottom: "W_xc_x_23"
  top: "gate_input_23"
  eltwise_param {
    operation: SUM
  }
}
layer {
  name: "RGB_lstm1_unit_23"
  type: "LSTMUnit"
  bottom: "c_22"
  bottom: "gate_input_23"
  bottom: "cont_23"
  top: "c_23"
  top: "h_23"
}
layer {
  name: "RGB_lstm1_h_conted_23"
  type: "Eltwise"
  bottom: "h_23"
  bottom: "cont_24"
  top: "h_conted_23"
  eltwise_param {
    operation: SUM
    coeff_blob: true
  }
}
layer {
  name: "RGB_lstm1_transform_24"
  type: "InnerProduct"
  bottom: "h_conted_23"
  top: "W_hc_h_23"
  param {
    name: "W_hc"
  }
  inner_product_param {
    num_output: 400
    bias_term: false
    weight_filler {
      type: "uniform"
      min: -0.01
      max: 0.01
    }
    axis: 2
  }
}
layer {
  name: "RGB_lstm1_gate_input_24"
  type: "Eltwise"
  bottom: "W_hc_h_23"
  bottom: "W_xc_x_24"
  top: "gate_input_24"
  eltwise_param {
    operation: SUM
  }
}
layer {
  name: "RGB_lstm1_unit_24"
  type: "LSTMUnit"
  bottom: "c_23"
  bottom: "gate_input_24"
  bottom: "cont_24"
  top: "c_24"
  top: "h_24"
}
layer {
  name: "RGB_lstm1_h_conted_24"
  type: "Eltwise"
  bottom: "h_24"
  bottom: "cont_25"
  top: "h_conted_24"
  eltwise_param {
    operation: SUM
    coeff_blob: true
  }
}
layer {
  name: "RGB_lstm1_transform_25"
  type: "InnerProduct"
  bottom: "h_conted_24"
  top: "W_hc_h_24"
  param {
    name: "W_hc"
  }
  inner_product_param {
    num_output: 400
    bias_term: false
    weight_filler {
      type: "uniform"
      min: -0.01
      max: 0.01
    }
    axis: 2
  }
}
layer {
  name: "RGB_lstm1_gate_input_25"
  type: "Eltwise"
  bottom: "W_hc_h_24"
  bottom: "W_xc_x_25"
  top: "gate_input_25"
  eltwise_param {
    operation: SUM
  }
}
layer {
  name: "RGB_lstm1_unit_25"
  type: "LSTMUnit"
  bottom: "c_24"
  bottom: "gate_input_25"
  bottom: "cont_25"
  top: "c_25"
  top: "h_25"
}
layer {
  name: "RGB_lstm1_h_conted_25"
  type: "Eltwise"
  bottom: "h_25"
  bottom: "cont_26"
  top: "h_conted_25"
  eltwise_param {
    operation: SUM
    coeff_blob: true
  }
}
layer {
  name: "RGB_lstm1_transform_26"
  type: "InnerProduct"
  bottom: "h_conted_25"
  top: "W_hc_h_25"
  param {
    name: "W_hc"
  }
  inner_product_param {
    num_output: 400
    bias_term: false
    weight_filler {
      type: "uniform"
      min: -0.01
      max: 0.01
    }
    axis: 2
  }
}
layer {
  name: "RGB_lstm1_gate_input_26"
  type: "Eltwise"
  bottom: "W_hc_h_25"
  bottom: "W_xc_x_26"
  top: "gate_input_26"
  eltwise_param {
    operation: SUM
  }
}
layer {
  name: "RGB_lstm1_unit_26"
  type: "LSTMUnit"
  bottom: "c_25"
  bottom: "gate_input_26"
  bottom: "cont_26"
  top: "c_26"
  top: "h_26"
}
layer {
  name: "RGB_lstm1_h_conted_26"
  type: "Eltwise"
  bottom: "h_26"
  bottom: "cont_27"
  top: "h_conted_26"
  eltwise_param {
    operation: SUM
    coeff_blob: true
  }
}
layer {
  name: "RGB_lstm1_transform_27"
  type: "InnerProduct"
  bottom: "h_conted_26"
  top: "W_hc_h_26"
  param {
    name: "W_hc"
  }
  inner_product_param {
    num_output: 400
    bias_term: false
    weight_filler {
      type: "uniform"
      min: -0.01
      max: 0.01
    }
    axis: 2
  }
}
layer {
  name: "RGB_lstm1_gate_input_27"
  type: "Eltwise"
  bottom: "W_hc_h_26"
  bottom: "W_xc_x_27"
  top: "gate_input_27"
  eltwise_param {
    operation: SUM
  }
}
layer {
  name: "RGB_lstm1_unit_27"
  type: "LSTMUnit"
  bottom: "c_26"
  bottom: "gate_input_27"
  bottom: "cont_27"
  top: "c_27"
  top: "h_27"
}
layer {
  name: "RGB_lstm1_h_conted_27"
  type: "Eltwise"
  bottom: "h_27"
  bottom: "cont_28"
  top: "h_conted_27"
  eltwise_param {
    operation: SUM
    coeff_blob: true
  }
}
layer {
  name: "RGB_lstm1_transform_28"
  type: "InnerProduct"
  bottom: "h_conted_27"
  top: "W_hc_h_27"
  param {
    name: "W_hc"
  }
  inner_product_param {
    num_output: 400
    bias_term: false
    weight_filler {
      type: "uniform"
      min: -0.01
      max: 0.01
    }
    axis: 2
  }
}
layer {
  name: "RGB_lstm1_gate_input_28"
  type: "Eltwise"
  bottom: "W_hc_h_27"
  bottom: "W_xc_x_28"
  top: "gate_input_28"
  eltwise_param {
    operation: SUM
  }
}
layer {
  name: "RGB_lstm1_unit_28"
  type: "LSTMUnit"
  bottom: "c_27"
  bottom: "gate_input_28"
  bottom: "cont_28"
  top: "c_28"
  top: "h_28"
}
layer {
  name: "RGB_lstm1_h_conted_28"
  type: "Eltwise"
  bottom: "h_28"
  bottom: "cont_29"
  top: "h_conted_28"
  eltwise_param {
    operation: SUM
    coeff_blob: true
  }
}
layer {
  name: "RGB_lstm1_transform_29"
  type: "InnerProduct"
  bottom: "h_conted_28"
  top: "W_hc_h_28"
  param {
    name: "W_hc"
  }
  inner_product_param {
    num_output: 400
    bias_term: false
    weight_filler {
      type: "uniform"
      min: -0.01
      max: 0.01
    }
    axis: 2
  }
}
layer {
  name: "RGB_lstm1_gate_input_29"
  type: "Eltwise"
  bottom: "W_hc_h_28"
  bottom: "W_xc_x_29"
  top: "gate_input_29"
  eltwise_param {
    operation: SUM
  }
}
layer {
  name: "RGB_lstm1_unit_29"
  type: "LSTMUnit"
  bottom: "c_28"
  bottom: "gate_input_29"
  bottom: "cont_29"
  top: "c_29"
  top: "h_29"
}
layer {
  name: "RGB_lstm1_h_conted_29"
  type: "Eltwise"
  bottom: "h_29"
  bottom: "cont_30"
  top: "h_conted_29"
  eltwise_param {
    operation: SUM
    coeff_blob: true
  }
}
layer {
  name: "RGB_lstm1_transform_30"
  type: "InnerProduct"
  bottom: "h_conted_29"
  top: "W_hc_h_29"
  param {
    name: "W_hc"
  }
  inner_product_param {
    num_output: 400
    bias_term: false
    weight_filler {
      type: "uniform"
      min: -0.01
      max: 0.01
    }
    axis: 2
  }
}
layer {
  name: "RGB_lstm1_gate_input_30"
  type: "Eltwise"
  bottom: "W_hc_h_29"
  bottom: "W_xc_x_30"
  top: "gate_input_30"
  eltwise_param {
    operation: SUM
  }
}
layer {
  name: "RGB_lstm1_unit_30"
  type: "LSTMUnit"
  bottom: "c_29"
  bottom: "gate_input_30"
  bottom: "cont_30"
  top: "c_30"
  top: "h_30"
}
layer {
  name: "RGB_lstm1_h_conted_30"
  type: "Eltwise"
  bottom: "h_30"
  bottom: "cont_31"
  top: "h_conted_30"
  eltwise_param {
    operation: SUM
    coeff_blob: true
  }
}
layer {
  name: "RGB_lstm1_transform_31"
  type: "InnerProduct"
  bottom: "h_conted_30"
  top: "W_hc_h_30"
  param {
    name: "W_hc"
  }
  inner_product_param {
    num_output: 400
    bias_term: false
    weight_filler {
      type: "uniform"
      min: -0.01
      max: 0.01
    }
    axis: 2
  }
}
layer {
  name: "RGB_lstm1_gate_input_31"
  type: "Eltwise"
  bottom: "W_hc_h_30"
  bottom: "W_xc_x_31"
  top: "gate_input_31"
  eltwise_param {
    operation: SUM
  }
}
layer {
  name: "RGB_lstm1_unit_31"
  type: "LSTMUnit"
  bottom: "c_30"
  bottom: "gate_input_31"
  bottom: "cont_31"
  top: "c_31"
  top: "h_31"
}
layer {
  name: "RGB_lstm1_h_conted_31"
  type: "Eltwise"
  bottom: "h_31"
  bottom: "cont_32"
  top: "h_conted_31"
  eltwise_param {
    operation: SUM
    coeff_blob: true
  }
}
layer {
  name: "RGB_lstm1_transform_32"
  type: "InnerProduct"
  bottom: "h_conted_31"
  top: "W_hc_h_31"
  param {
    name: "W_hc"
  }
  inner_product_param {
    num_output: 400
    bias_term: false
    weight_filler {
      type: "uniform"
      min: -0.01
      max: 0.01
    }
    axis: 2
  }
}
layer {
  name: "RGB_lstm1_gate_input_32"
  type: "Eltwise"
  bottom: "W_hc_h_31"
  bottom: "W_xc_x_32"
  top: "gate_input_32"
  eltwise_param {
    operation: SUM
  }
}
layer {
  name: "RGB_lstm1_unit_32"
  type: "LSTMUnit"
  bottom: "c_31"
  bottom: "gate_input_32"
  bottom: "cont_32"
  top: "c_32"
  top: "h_32"
}
layer {
  name: "RGB_lstm1_h_conted_32"
  type: "Eltwise"
  bottom: "h_32"
  bottom: "cont_33"
  top: "h_conted_32"
  eltwise_param {
    operation: SUM
    coeff_blob: true
  }
}
layer {
  name: "RGB_lstm1_transform_33"
  type: "InnerProduct"
  bottom: "h_conted_32"
  top: "W_hc_h_32"
  param {
    name: "W_hc"
  }
  inner_product_param {
    num_output: 400
    bias_term: false
    weight_filler {
      type: "uniform"
      min: -0.01
      max: 0.01
    }
    axis: 2
  }
}
layer {
  name: "RGB_lstm1_gate_input_33"
  type: "Eltwise"
  bottom: "W_hc_h_32"
  bottom: "W_xc_x_33"
  top: "gate_input_33"
  eltwise_param {
    operation: SUM
  }
}
layer {
  name: "RGB_lstm1_unit_33"
  type: "LSTMUnit"
  bottom: "c_32"
  bottom: "gate_input_33"
  bottom: "cont_33"
  top: "c_33"
  top: "h_33"
}
layer {
  name: "RGB_lstm1_h_conted_33"
  type: "Eltwise"
  bottom: "h_33"
  bottom: "cont_34"
  top: "h_conted_33"
  eltwise_param {
    operation: SUM
    coeff_blob: true
  }
}
layer {
  name: "RGB_lstm1_transform_34"
  type: "InnerProduct"
  bottom: "h_conted_33"
  top: "W_hc_h_33"
  param {
    name: "W_hc"
  }
  inner_product_param {
    num_output: 400
    bias_term: false
    weight_filler {
      type: "uniform"
      min: -0.01
      max: 0.01
    }
    axis: 2
  }
}
layer {
  name: "RGB_lstm1_gate_input_34"
  type: "Eltwise"
  bottom: "W_hc_h_33"
  bottom: "W_xc_x_34"
  top: "gate_input_34"
  eltwise_param {
    operation: SUM
  }
}
layer {
  name: "RGB_lstm1_unit_34"
  type: "LSTMUnit"
  bottom: "c_33"
  bottom: "gate_input_34"
  bottom: "cont_34"
  top: "c_34"
  top: "h_34"
}
layer {
  name: "RGB_lstm1_h_conted_34"
  type: "Eltwise"
  bottom: "h_34"
  bottom: "cont_35"
  top: "h_co
I0303 14:58:46.173202 29550 net.cpp:341] Input 0 -> x
I0303 14:58:46.173228 29550 net.cpp:341] Input 1 -> cont
I0303 14:58:46.173238 29550 net.cpp:341] Input 2 -> c_0
I0303 14:58:46.173249 29550 net.cpp:341] Input 3 -> h_0
I0303 14:58:46.173285 29550 layer_factory.hpp:74] Creating layer RGB_lstm1_cont_slice
I0303 14:58:46.173303 29550 net.cpp:84] Creating Layer RGB_lstm1_cont_slice
…
I0303 14:58:46.224061 29550 net.cpp:205] This network produces output c_T
I0303 14:58:46.224071 29550 net.cpp:205] This network produces output h
I0303 14:58:46.224370 29550 net.cpp:446] Collecting Learning Rate and Weight Decay.
I0303 14:58:46.224413 29550 net.cpp:218] Network initialization done.
I0303 14:58:46.224423 29550 net.cpp:219] Memory required for data: 25674192
I0303 14:58:46.224838 29550 recurrent_layer.cpp:135] Adding parameter 0: W_xc
I0303 14:58:46.224853 29550 recurrent_layer.cpp:135] Adding parameter 1: b_c
I0303 14:58:46.224863 29550 recurrent_layer.cpp:135] Adding parameter 2: W_hc
I0303 14:58:46.225006 29550 net.cpp:120] Top shape: 54 54 100 (291600)
I0303 14:58:46.225028 29550 layer_factory.hpp:74] Creating layer RGB_lstm1_reshape
I0303 14:58:46.225040 29550 net.cpp:84] Creating Layer RGB_lstm1_reshape
I0303 14:58:46.225049 29550 net.cpp:381] RGB_lstm1_reshape <- RGB_lstm1
I0303 14:58:46.225060 29550 net.cpp:339] RGB_lstm1_reshape -> RGB_lstm1_reshape
I0303 14:58:46.225070 29550 net.cpp:113] Setting up RGB_lstm1_reshape
I0303 14:58:46.225085 29550 net.cpp:120] Top shape: 1 100 54 54 (291600)
I0303 14:58:46.225092 29550 layer_factory.hpp:74] Creating layer RGB_lstm1_trans
I0303 14:58:46.225102 29550 net.cpp:84] Creating Layer RGB_lstm1_trans
I0303 14:58:46.225109 29550 net.cpp:381] RGB_lstm1_trans <- RGB_lstm1_reshape
I0303 14:58:46.225118 29550 net.cpp:339] RGB_lstm1_trans -> RGB_lstm1_trans
I0303 14:58:46.225128 29550 net.cpp:113] Setting up RGB_lstm1_trans
I0303 14:58:46.225141 29550 net.cpp:120] Top shape: 1 100 54 54 (291600)
I0303 14:58:46.225148 29550 layer_factory.hpp:74] Creating layer local_global
I0303 14:58:46.225157 29550 net.cpp:84] Creating Layer local_global
I0303 14:58:46.225164 29550 net.cpp:381] local_global <- conv8_conv8_0_split_1
I0303 14:58:46.225172 29550 net.cpp:381] local_global <- RGB_lstm1_trans
I0303 14:58:46.225181 29550 net.cpp:339] local_global -> local_global
I0303 14:58:46.225227 29550 net.cpp:113] Setting up local_global
I0303 14:58:46.225240 29550 net.cpp:120] Top shape: 1 138 54 54 (402408)
I0303 14:58:46.225249 29550 layer_factory.hpp:74] Creating layer local_global_conv
I0303 14:58:46.225263 29550 net.cpp:84] Creating Layer local_global_conv
I0303 14:58:46.225273 29550 net.cpp:381] local_global_conv <- local_global
I0303 14:58:46.225283 29550 net.cpp:339] local_global_conv -> local_global_conv
I0303 14:58:46.225298 29550 net.cpp:113] Setting up local_global_conv
I0303 14:58:46.226830 29550 net.cpp:120] Top shape: 1 38 54 54 (110808)
I0303 14:58:46.226855 29550 layer_factory.hpp:74] Creating layer accuracy
I0303 14:58:46.226867 29550 net.cpp:84] Creating Layer accuracy
I0303 14:58:46.226876 29550 net.cpp:381] accuracy <- local_global_conv
I0303 14:58:46.226884 29550 net.cpp:381] accuracy <- label_shrink
I0303 14:58:46.226892 29550 net.cpp:339] accuracy -> accuracy
I0303 14:58:46.226902 29550 net.cpp:113] Setting up accuracy
I0303 14:58:46.226922 29550 net.cpp:120] Top shape: 1 1 1 3 (3)
I0303 14:58:46.226933 29550 net.cpp:169] accuracy does not need backward computation.
I0303 14:58:46.226940 29550 net.cpp:169] local_global_conv does not need backward computation.
I0303 14:58:46.226946 29550 net.cpp:169] local_global does not need backward computation.
I0303 14:58:46.226953 29550 net.cpp:169] RGB_lstm1_trans does not need backward computation.
I0303 14:58:46.226959 29550 net.cpp:169] RGB_lstm1_reshape does not need backward computation.
…
