…
    mean_value: 125.793
  }
  image_data_param {
    source: "/home/xu/SUNRGBD/list_train.txt"
    batch_size: 1
    shuffle: false
    root_folder: ""
    label_type: PIXEL
  }
}
layer {
  name: "HHAData"
  type: "ImageSegData"
  top: "HHAData"
  include {
    phase: TRAIN
  }
  transform_param {
    mirror: false
    crop_size: 426
    mean_value: 115.042
    mean_value: 231.247
    mean_value: 20.523
  }
  image_data_param {
    source: "/home/xu/SUNRGBD/list2_train.txt"
    batch_size: 1
    shuffle: false
    root_folder: ""
    label_type: NONE
  }
}
layer {
  name: "conv1_1"
  type: "Convolution"
  bottom: "data"
  top: "conv1_1"
  param {
    lr_mult: 0
    decay_mult: 1
  }
  param {
    lr_mult: 0
    decay_mult: 0
  }
  convolution_param {
    num_output: 64
    pad: 1
    kernel_size: 3
  }
}
layer {
  name: "relu1_1"
  type: "ReLU"
  bottom: "conv1_1"
  top: "conv1_1"
}
layer {
  name: "conv1_2"
  type: "Convolution"
  bottom: "conv1_1"
  top: "conv1_2"
  param {
    lr_mult: 0
    decay_mult: 1
  }
  param {
    lr_mult: 0
    decay_mult: 0
  }
  convolution_param {
    num_output: 64
    pad: 1
    kernel_size: 3
  }
}
layer {
  name: "relu1_2"
  type: "ReLU"
  bottom: "conv1_2"
  top: "conv1_2"
}
layer {
  name: "pool1"
  type: "Pooling"
  bottom: "conv1_2"
  top: "pool1"
  pooling_param {
    pool: MAX
    kernel_size: 2
    stride: 2
    pad: 1
  }
}
layer {
  name: "conv2_1"
  type: "Convolution"
  bottom: "pool1"
  top: "conv2_1"
  param {
    lr_mult: 0
    decay_mult: 1
  }
  param {
    lr_mult: 0
    decay_mult: 0
  }
  convolution_param {
    num_output: 128
    pad: 1
    kernel_size: 3
  }
}
layer {
  name: "relu2_1"
  type: "ReLU"
  bottom: "conv2_1"
  top: "conv2_1"
}
layer {
  name: "conv2_2"
  type: "Convolution"
  bottom: "conv2_1"
  top: "conv2_2"
  param {
    lr_mult: 0
    decay_mult: 1
  }
  param {
    lr_mult: 0
    decay_mult: 0
  }
  convolution_param {
    num_output: 128
    pad: 1
    kernel_size: 3
  }
}
layer {
  name: "relu2_2"
  type: "ReLU"
  bottom: "conv2_2"
  top: "conv2_2"
}
layer {
  name: "pool2"
  type: "Pooling"
  bottom: "conv2_2"
  top: "pool2"
  pooling_param {
    pool: MAX
    kernel_size: 2
    stride: 2
    pad: 1
  }
}
layer {
  name: "conv3_1"
  type: "Convolution"
  bottom: "pool2"
  top: "conv3_1"
  param {
    lr_mult: 0
    decay_mult: 1
  }
  param {
    lr_mult: 0
    decay_mult: 0
  }
  convolution_param {
    num_output: 256
    pad: 1
    kernel_size: 3
  }
}
layer {
  name: "relu3_1"
  type: "ReLU"
  bottom: "conv3_1"
  top: "conv3_1"
}
layer {
  name: "conv3_2"
  type: "Convolution"
  bottom: "conv3_1"
  top: "conv3_2"
  param {
    lr_mult: 0
    decay_mult: 1
  }
  param {
    lr_mult: 0
    decay_mult: 0
  }
  convolution_param {
    num_output: 256
    pad: 1
    kernel_size: 3
  }
}
layer {
  name: "relu3_2"
  type: "ReLU"
  bottom: "conv3_2"
  top: "conv3_2"
}
layer {
  name: "conv3_3"
  type: "Convolution"
  bottom: "conv3_2"
  top: "conv3_3"
  param {
    lr_mult: 0
    decay_mult: 1
  }
  param {
    lr_mult: 0
    decay_mult: 0
  }
  convolution_param {
    num_output: 256
    pad: 1
    kernel_size: 3
  }
}
layer {
  name: "relu3_3"
  type: "ReLU"
  bottom: "conv3_3"
  top: "conv3_3"
}
layer {
  name: "pool3"
  type: "Pooling"
  bottom: "conv3_3"
  top: "pool3"
  pooling_param {
    pool: MAX
    kernel_size: 2
    stride: 2
    pad: 1
  }
}
layer {
  name: "conv4_1"
  type: "Convolution"
  bottom: "pool3"
  top: "conv4_1"
  param {
    lr_mult: 0
    decay_mult: 1
  }
  param {
    lr_mult: 0
    decay_mult: 0
  }
  convolution_param {
    num_output: 512
    pad: 1
    kernel_size: 3
  }
}
layer {
  name: "relu4_1"
  type: "ReLU"
  bottom: "conv4_1"
  top: "conv4_1"
}
layer {
  name: "conv4_2"
  type: "Convolution"
  bottom: "conv4_1"
  top: "conv4_2"
  param {
    lr_mult: 0
    decay_mult: 1
  }
  param {
    lr_mult: 0
    decay_mult: 0
  }
  convolution_param {
    num_output: 512
    pad: 1
    kernel_size: 3
  }
}
layer {
  name: "relu4_2"
  type: "ReLU"
  bottom: "conv4_2"
  top: "conv4_2"
}
layer {
  name: "conv4_3"
  type: "Convolution"
  bottom: "conv4_2"
  top: "conv4_3"
  param {
    lr_mult: 0
    decay_mult: 1
  }
  param {
    lr_mult: 0
    decay_mult: 0
  }
  convolution_param {
    num_output: 512
    pad: 1
    kernel_size: 3
  }
}
layer {
  name: "relu4_3"
  type: "ReLU"
  bottom: "conv4_3"
  top: "conv4_3"
}
layer {
  name: "pool4"
  type: "Pooling"
  bottom: "conv4_3"
  top: "pool4"
  pooling_param {
    pool: MAX
    kernel_size: 2
    stride: 1
  }
}
layer {
  name: "conv5_1"
  type: "ConvolutionDeeplab"
  bottom: "pool4"
  top: "conv5_1"
  param {
    lr_mult: 0
    decay_mult: 1
  }
  param {
    lr_mult: 0
    decay_mult: 0
  }
  convolution_deeplab_param {
    num_output: 512
    pad: 2
    kernel_size: 3
    hole: 2
  }
}
layer {
  name: "relu5_1"
  type: "ReLU"
  bottom: "conv5_1"
  top: "conv5_1"
}
layer {
  name: "conv5_2"
  type: "ConvolutionDeeplab"
  bottom: "conv5_1"
  top: "conv5_2"
  param {
    lr_mult: 0
    decay_mult: 1
  }
  param {
    lr_mult: 0
    decay_mult: 0
  }
  convolution_deeplab_param {
    num_output: 512
    pad: 2
    kernel_size: 3
    hole: 2
  }
}
layer {
  name: "relu5_2"
  type: "ReLU"
  bottom: "conv5_2"
  top: "conv5_2"
}
layer {
  name: "conv5_3"
  type: "ConvolutionDeeplab"
  bottom: "conv5_2"
  top: "conv5_3"
  param {
    lr_mult: 0
    decay_mult: 1
  }
  param {
    lr_mult: 0
    decay_mult: 0
  }
  convolution_deeplab_param {
    num_output: 512
    pad: 2
    kernel_size: 3
    hole: 2
  }
}
layer {
  name: "relu5_3"
  type: "ReLU"
  bottom: "conv5_3"
  top: "conv5_3"
}
layer {
  name: "pool5"
  type: "Pooling"
  bottom: "conv5_3"
  top: "pool5"
  pooling_param {
    pool: MAX
    kernel_size: 3
    stride: 1
    pad: 1
  }
}
layer {
  name: "conv6"
  type: "ConvolutionDeeplab"
  bottom: "pool5"
  top: "conv6"
  param {
    lr_mult: 0
    decay_mult: 1
  }
  param {
    lr_mult: 0
    decay_mult: 0
  }
  convolution_deeplab_param {
    num_output: 4096
    pad: 6
    kernel_size: 4
    weight_filler {
      type: "gaussian"
      std: 0.001
    }
    bias_filler {
      type: "constant"
      value: 0
    }
    hole: 4
  }
}
layer {
  name: "relu6"
  type: "ReLU"
  bottom: "conv6"
  top: "conv6"
}
layer {
  name: "drop6"
  type: "Dropout"
  bottom: "conv6"
  top: "conv6"
  dropout_param {
    dropout_ratio: 0.5
  }
}
layer {
  name: "conv7"
  type: "Convolution"
  bottom: "conv6"
  top: "conv7"
  param {
    lr_mult: 0
    decay_mult: 1
  }
  param {
    lr_mult: 0
    decay_mult: 0
  }
  convolution_param {
    num_output: 4096
    kernel_size: 1
    weight_filler {
      type: "gaussian"
      std: 0.001
    }
    bias_filler {
      type: "constant"
      value: 0
    }
  }
}
layer {
  name: "relu7"
  type: "ReLU"
  bottom: "conv7"
  top: "conv7"
}
layer {
  name: "drop7"
  type: "Dropout"
  bottom: "conv7"
  top: "conv7"
  dropout_param {
    dropout_ratio: 0.5
  }
}
layer {
  name: "conv8_1"
  type: "Convolution"
  bottom: "conv7"
  top: "conv8_1"
  param {
    lr_mult: 1
    decay_mult: 1
  }
  param {
    lr_mult: 2
    decay_mult: 0
  }
  convolution_param {
    num_output: 512
    kernel_size: 1
    weight_filler {
      type: "gaussian"
      std: 0.001
    }
    bias_filler {
      type: "constant"
      value: 0
    }
  }
}
layer {
  name: "conv2_shrink"
  type: "Interp"
  bottom: "conv2_2"
  top: "conv2_shrink"
  interp_param {
    shrink_factor: 4
    pad_beg: -1
    pad_end: 0
  }
}
layer {
  name: "conv3_shrink"
  type: "Interp"
  bottom: "conv3_3"
  top: "conv3_shrink"
  interp_param {
    shrink_factor: 2
    pad_beg: -1
    pad_end: 0
  }
}
layer {
  name: "RGB_feature_concat"
  type: "Concat"
  bottom: "conv2_shrink"
  bottom: "conv3_shrink"
  bottom: "conv5_3"
  top: "RGB_feature_concat"
  concat_param {
    axis: 1
  }
}
layer {
  name: "label_shrink"
  type: "Interp"
  bottom: "label"
  top: "label_shrink"
  interp_param {
    shrink_factor: 8
    pad_beg: -1
    pad_end: 0
  }
}
layer {
  name: "mask_54_54_vertical_1"
  type: "Mask"
  top: "mask_54_54_vertical_1"
  mask_param {
    width: 54
    height: 54
    masktype: VERTICAL
    direction: TOP2BOTTOM
  }
}
layer {
  name: "mask_54_54_vertical_2"
  type: "Mask"
  top: "mask_54_54_vertical_2"
  mask_param {
    width: 54
    height: 54
    masktype: VERTICAL
    direction: BOTTOM2TOP
  }
}
layer {
  name: "mask_54_54_horizontal_1"
  type: "Mask"
  top: "mask_54_54_horizontal_1"
  mask_param {
    width: 54
    height: 54
    masktype: HORIZONTAL
    direction: LEFT2RIGHT
  }
}
layer {
  name: "mask_54_54_horizontal_2"
  type: "Mask"
  top: "mask_54_54_horizontal_2"
  mask_param {
    width: 54
    height: 54
    masktype: HORIZONTAL
    direction: RIGHT2LEFT
  }
}
layer {
  name: "HHA_conv1"
  type: "Convolution"
  bottom: "HHAData"
  top: "HHA_conv1"
  param {
    lr_mult: 1
    decay_mult: 1
  }
  param {
    lr_mult: 2
    decay_mult: 0
  }
  convolution_param {
    num_output: 64
    pad: 4
    kernel_size: 3
    weight_filler {
      type: "gaussian"
      std: 0.01
    }
    bias_filler {
      type: "constant"
      value: 0
    }
  }
}
layer {
  name: "HHA_relu1"
  type: "ReLU"
  bottom: "HHA_conv1"
  top: "HHA_conv1"
}
layer {
  name: "HHA_pool1"
  type: "Pooling"
  bottom: "HHA_conv1"
  top: "HHA_pool1"
  pooling_param {
    pool: MAX
    kernel_size: 2
    stride: 2
    pad: 0
  }
}
layer {
  name: "HHA_conv2"
  type: "Convolution"
  bottom: "HHA_pool1"
  top: "HHA_conv2"
  param {
    lr_mult: 1
    decay_mult: 1
  }
  param {
    lr_mult: 2
    decay_mult: 0
  }
  convolution_param {
    num_output: 128
    pad: 1
    kernel_size: 3
    weight_filler {
      type: "gaussian"
      std: 0.01
    }
    bias_filler {
      type: "constant"
      value: 0
    }
  }
}
layer {
  name: "HHA_relu2"
  type: "ReLU"
  bottom: "HHA_conv2"
  top: "HHA_conv2"
}
layer {
  name: "HHA_pool2"
  type: "Pooling"
  bottom: "HHA_conv2"
  top: "HHA_pool2"
  pooling_param {
    pool: MAX
    kernel_size: 2
    stride: 2
    pad: 0
  }
}
layer {
  name: "HHA_conv3"
  type: "Convolution"
  bottom: "HHA_pool2"
  top: "HHA_conv3"
  param {
    lr_mult: 1
    decay_mult: 1
  }
  param {
    lr_mult: 2
    decay_mult: 0
  }
  convolution_param {
    num_output: 128
    pad: 1
    kernel_size: 3
    weight_filler {
      type: "gaussian"
      std: 0.01
    }
    bias_filler {
      type: "constant"
      value: 0
    }
  }
}
layer {
  name: "HHA_relu3"
  type: "ReLU"
  bottom: "HHA_conv3"
  top: "HHA_conv3"
}
layer {
  name: "HHA_pool3"
  type: "Pooling"
  bottom: "HHA_conv3"
  top: "HHA_pool3"
  pooling_param {
    pool: MAX
    kernel_size: 2
    stride: 2
    pad: 0
  }
}
layer {
  name: "HHA_pool3_trans"
  type: "Transpose"
  bottom: "HHA_pool3"
  top: "HHA_pool3_trans"
  transpose_param {
    shape {
      dim: 54
      dim: 54
      dim: 128
    }
    transposetype: CONVTOLSTM
  }
}
layer {
  name: "HHA_lstm1"
  type: "LSTM"
  bottom: "HHA_pool3_trans"
  bottom: "mask_54_54_vertical_1"
  top: "HHA_lstm1"
  recurrent_param {
    num_output: 100
    weight_filler {
      type: "uniform"
      min: -0.01
      max: 0.01
    }
    bias_filler {
      type: "constant"
      value: 0
    }
  }
}
layer {
  name: "HHA_lstm2"
  type: "LSTM"
  bottom: "HHA_pool3_trans"
  bottom: "mask_54_54_vertical_2"
  top: "HHA_lstm2"
  recurrent_param {
    num_output: 100
    weight_filler {
      type: "uniform"
      min: -0.01
      max: 0.01
    }
    bias_filler {
      type: "constant"
      value: 0
    }
  }
}
layer {
  name: "HHA_lstm1_reshape"
  type: "Reshape"
  bottom: "HHA_lstm1"
  top: "HHA_lstm1_reshape"
  reshape_param {
    shape {
      dim: 1
      dim: 100
      dim: 54
      dim: 54
    }
  }
}
layer {
  name: "HHA_lstm1_trans"
  type: "Transpose"
  bottom: "HHA_lstm1_reshape"
  top: "HHA_lstm1_trans"
  transpose_param {
    shape {
      dim: 1
      dim: 100
      dim: 54
      dim: 54
    }
    transposetype: LSTMTOCONV
  }
}
layer {
  name: "HHA_lstm2_reshape"
  type: "Reshape"
  bottom: "HHA_lstm2"
  top: "HHA_lstm2_reshape"
  reshape_param {
    shape {
      dim: 1
      dim: 100
      dim: 54
      dim: 54
    }
  }
}
layer {
  name: "HHA_lstm2_trans"
  type: "Transpose"
  bottom: "HHA_lstm2_reshape"
  top: "HHA_lstm2_trans"
  transpose_param {
    shape {
      dim: 1
      dim: 100
      dim: 54
      dim: 54
    }
    transposetype: LSTMTOCONV
  }
}
layer {
  name: "HHA_global"
  type: "Concat"
  bottom: "HHA_lstm1_trans"
  bottom: "HHA_lstm2_trans"
  top: "HHA_global"
  concat_param {
    axis: 1
  }
}
layer {
  name: "RGB_feature_trans"
  type: "Transpose"
  bottom: "RGB_feature_concat"
  top: "RGB_feature_trans"
  transpose_param {
    shape {
      dim: 54
      dim: 54
      dim: 896
    }
    transposetype: CONVTOLSTM
  }
}
layer {
  name: "RGB_lstm1"
  type: "LSTM"
  bottom: "RGB_feature_trans"
  bottom: "mask_54_54_vertical_1"
  top: "RGB_lstm1"
  recurrent_param {
    num_output: 100
    weight_filler {
      type: "uniform"
      min: -0.01
      max: 0.01
    }
    bias_filler {
      type: "constant"
      value: 0
    }
  }
}
layer {
  name: "RGB_lstm2"
  type: "LSTM"
  bottom: "RGB_feature_trans"
  bottom: "mask_54_54_vertical_2"
  top: "RGB_lstm2"
  recurrent_param {
    num_output: 100
    weight_filler {
      type: "uniform"
      min: -0.01
      max: 0.01
    }
    bias_filler {
      type: "constant"
      value: 0
    }
  }
}
layer {
  name: "RGB_lstm1_reshape"
  type: "Reshape"
  bottom: "RGB_lstm1"
  top: "RGB_lstm1_reshape"
  reshape_param {
    shape {
      dim: 1
      dim: 100
      dim: 54
      dim: 54
    }
  }
}
layer {
  name: "RGB_lstm1_trans"
  type: "Transpose"
  bottom: "RGB_lstm1_reshape"
  top: "RGB_lstm1_trans"
  transpose_param {
    shape {
      dim: 1
      dim: 100
      dim: 54
      dim: 54
    }
    transposetype: LSTMTOCONV
  }
}
layer {
  name: "RGB_lstm2_reshape"
  type: "Reshape"
  bottom: "RGB_lstm2"
  top: "RGB_lstm2_reshape"
  reshape_param {
    shape {
      dim: 1
      dim: 100
      dim: 54
      dim: 54
    }
  }
}
layer {
  name: "RGB_lstm2_trans"
  type: "Transpose"
  bottom: "RGB_lstm2_reshape"
  top: "RGB_lstm2_trans"
  transpose_param {
    shape {
      dim: 1
      dim: 100
      dim: 54
      dim: 54
    }
    transposetype: LSTMTOCONV
  }
}
layer {
  name: "RGB_global"
  type: "Concat"
  bottom: "RGB_lstm1_trans"
  bottom: "RGB_lstm2_trans"
  top: "RGB_global"
  concat_param {
    axis: 1
  }
}
layer {
  name: "RGB_HHA_global"
  type: "Concat"
  bottom: "RGB_global"
  bottom: "HHA_global"
  top: "RGB_HHA_global"
  concat_param {
    axis: 1
  }
}
layer {
  name: "RGB_HHA_global_trans"
  type: "Transpose"
  bottom: "RGB_HHA_global"
  top: "RGB_HHA_global_trans"
  transpose_param {
    shape {
      dim: 54
      dim: 54
      dim: 400
    }
    transposetype: CONVTOLSTM
  }
}
layer {
  name: "global1"
  type: "LSTM"
  bottom: "RGB_HHA_global_trans"
  bottom: "mask_54_54_horizontal_1"
  top: "global1"
  recurrent_param {
    num_output: 100
    weight_filler {
      type: "uniform"
      min: -0.01
      max: 0.01
    }
    bias_filler {
      type: "constant"
      value: 0
    }
  }
}
layer {
  name: "global2"
  type: "LSTM"
  bottom: "RGB_HHA_global_trans"
  bottom: "mask_54_54_horizontal_2"
  top: "global2"
  recurrent_param {
    num_output: 100
    weight_filler {
      type: "uniform"
      min: -0.01
      max: 0.01
    }
    bias_filler {
      type: "constant"
      value: 0
    }
  }
}
layer {
  name: "global1_reshape"
  type: "Reshape"
  bottom: "global1"
  top: "global1_reshape"
  reshape_param {
    shape {
      dim: 1
      dim: 100
      dim: 54
      dim: 54
    }
  }
}
layer {
  name: "global1_trans"
  type: "Transpose"
  bottom: "global1_reshape"
  top: "global1_trans"
  transpose_param {
    shape {
      dim: 1
      dim: 100
      dim: 54
      dim: 54
    }
    transposetype: LSTMTOCONV
  }
}
layer {
  name: "global2_reshape"
  type: "Reshape"
  bottom: "global2"
  top: "global2_reshape"
  reshape_param {
    shape {
      dim: 1
      dim: 100
      dim: 54
      dim: 54
    }
  }
}
layer {
  name: "global2_trans"
  type: "Transpose"
  bottom: "global2_reshape"
  top: "global2_trans"
  transpose_param {
    shape {
      dim: 1
      dim: 100
      dim: 54
      dim: 54
    }
    transposetype: LSTMTOCONV
  }
}
layer {
  name: "local_global"
  type: "Concat"
  bottom: "conv8_1"
  bottom: "global1_trans"
  bottom: "global2_trans"
  top: "local_global"
  concat_param {
    axis: 1
  }
}
layer {
  name: "local_global_conv"
  type: "Convolution"
  bottom: "local_global"
  top: "local_global_conv"
  param {
    lr_mult: 1
    decay_mult: 1
  }
  param {
    lr_mult: 2
    decay_mult: 0
  }
  convolution_param {
    num_output: 38
    pad: 1
    kernel_size: 3
    weight_filler {
      type: "gaussian"
      std: 0.01
    }
    bias_filler {
      type: "constant"
      value: 0
    }
  }
}
layer {
  name: "loss"
  type: "SoftmaxWithLoss"
  bottom: "local_global_conv"
  bottom: "label_shrink"
  include {
    phase: TRAIN
  }
}
layer {
  name: "accuracy"
  type: "SegAccuracy"
  bottom: "local_global_conv"
  bottom: "label_shrink"
  top: "accuracy"
  seg_accuracy_param {
    save_frequency: 5050
    file_name: "c_matrix.txt"
  }
}
I1130 21:15:22.034523  3907 layer_factory.hpp:74] Creating layer data
I1130 21:15:22.034533  3907 net.cpp:84] Creating Layer data
I1130 21:15:22.034538  3907 net.cpp:339] data -> data
I1130 21:15:22.034555  3907 net.cpp:339] data -> label
I1130 21:15:22.034562  3907 net.cpp:339] data -> (automatic)
I1130 21:15:22.034567  3907 net.cpp:113] Setting up data
I1130 21:15:22.034571  3907 image_seg_data_layer.cpp:45] Opening file /home/xu/SUNRGBD/list_train.txt
I1130 21:15:22.036420  3907 image_seg_data_layer.cpp:67] A total of 1900 images.
I1130 21:15:22.037806  3907 image_seg_data_layer.cpp:113] output data size: 1,3,426,426
I1130 21:15:22.037812  3907 image_seg_data_layer.cpp:117] output label size: 1,1,426,426
I1130 21:15:22.037816  3907 image_seg_data_layer.cpp:121] output data_dim size: 1,1,1,2
I1130 21:15:22.037978  3907 net.cpp:120] Top shape: 1 3 426 426 (544428)
I1130 21:15:22.037984  3907 net.cpp:120] Top shape: 1 1 426 426 (181476)
I1130 21:15:22.038003  3907 net.cpp:120] Top shape: 1 1 1 2 (2)
I1130 21:15:22.038007  3907 layer_factory.hpp:74] Creating layer HHAData
I1130 21:15:22.038013  3907 net.cpp:84] Creating Layer HHAData
I1130 21:15:22.038017  3907 net.cpp:339] HHAData -> HHAData
I1130 21:15:22.038024  3907 net.cpp:339] HHAData -> (automatic)
I1130 21:15:22.038029  3907 net.cpp:339] HHAData -> (automatic)
I1130 21:15:22.038033  3907 net.cpp:113] Setting up HHAData
I1130 21:15:22.038035  3907 image_seg_data_layer.cpp:45] Opening file /home/xu/SUNRGBD/list2_train.txt
I1130 21:15:22.039358  3907 image_seg_data_layer.cpp:67] A total of 1900 images.
I1130 21:15:22.043140  3907 image_seg_data_layer.cpp:113] output data size: 1,3,426,426
I1130 21:15:22.043164  3907 image_seg_data_layer.cpp:117] output label size: 1,1,426,426
I1130 21:15:22.043166  3907 image_seg_data_layer.cpp:121] output data_dim size: 1,1,1,2
I1130 21:15:22.043366  3907 net.cpp:120] Top shape: 1 3 426 426 (544428)
I1130 21:15:22.043395  3907 net.cpp:120] Top shape: 1 1 426 426 (181476)
I1130 21:15:22.043406  3907 net.cpp:120] Top shape: 1 1 1 2 (2)
I1130 21:15:22.043409  3907 layer_factory.hpp:74] Creating layer conv1_1
I1130 21:15:22.043421  3907 net.cpp:84] Creating Layer conv1_1
I1130 21:15:22.043426  3907 net.cpp:381] conv1_1 <- data
I1130 21:15:22.043449  3907 net.cpp:339] conv1_1 -> conv1_1
I1130 21:15:22.043458  3907 net.cpp:113] Setting up conv1_1
I1130 21:15:22.044505  3907 net.cpp:120] Top shape: 1 64 426 426 (11614464)
I1130 21:15:22.044528  3907 layer_factory.hpp:74] Creating layer relu1_1
I1130 21:15:22.044533  3907 net.cpp:84] Creating Layer relu1_1
I1130 21:15:22.044536  3907 net.cpp:381] relu1_1 <- conv1_1
I1130 21:15:22.044541  3907 net.cpp:328] relu1_1 -> conv1_1 (in-place)
I1130 21:15:22.044548  3907 net.cpp:113] Setting up relu1_1
I1130 21:15:22.044553  3907 net.cpp:120] Top shape: 1 64 426 426 (11614464)
I1130 21:15:22.044555  3907 layer_factory.hpp:74] Creating layer conv1_2
I1130 21:15:22.044561  3907 net.cpp:84] Creating Layer conv1_2
I1130 21:15:22.044564  3907 net.cpp:381] conv1_2 <- conv1_1
I1130 21:15:22.044567  3907 net.cpp:339] conv1_2 -> conv1_2
I1130 21:15:22.044572  3907 net.cpp:113] Setting up conv1_2
I1130 21:15:22.044797  3907 net.cpp:120] Top shape: 1 64 426 426 (11614464)
I1130 21:15:22.044803  3907 layer_factory.hpp:74] Creating layer relu1_2
I1130 21:15:22.044807  3907 net.cpp:84] Creating Layer relu1_2
I1130 21:15:22.044809  3907 net.cpp:381] relu1_2 <- conv1_2
I1130 21:15:22.044813  3907 net.cpp:328] relu1_2 -> conv1_2 (in-place)
I1130 21:15:22.044817  3907 net.cpp:113] Setting up relu1_2
I1130 21:15:22.044821  3907 net.cpp:120] Top shape: 1 64 426 426 (11614464)
I1130 21:15:22.044823  3907 layer_factory.hpp:74] Creating layer pool1
I1130 21:15:22.044828  3907 net.cpp:84] Creating Layer pool1
I1130 21:15:22.044831  3907 net.cpp:381] pool1 <- conv1_2
I1130 21:15:22.044834  3907 net.cpp:339] pool1 -> pool1
I1130 21:15:22.044840  3907 net.cpp:113] Setting up pool1
I1130 21:15:22.044853  3907 net.cpp:120] Top shape: 1 64 214 214 (2930944)
I1130 21:15:22.044857  3907 layer_factory.hpp:74] Creating layer conv2_1
I1130 21:15:22.044860  3907 net.cpp:84] Creating Layer conv2_1
I1130 21:15:22.044862  3907 net.cpp:381] conv2_1 <- pool1
I1130 21:15:22.044867  3907 net.cpp:339] conv2_1 -> conv2_1
I1130 21:15:22.044870  3907 net.cpp:113] Setting up conv2_1
I1130 21:15:22.045002  3907 net.cpp:120] Top shape: 1 128 214 214 (5861888)
I1130 21:15:22.045008  3907 layer_factory.hpp:74] Creating layer relu2_1
I1130 21:15:22.045012  3907 net.cpp:84] Creating Layer relu2_1
I1130 21:15:22.045016  3907 net.cpp:381] relu2_1 <- conv2_1
I1130 21:15:22.045018  3907 net.cpp:328] relu2_1 -> conv2_1 (in-place)
I1130 21:15:22.045022  3907 net.cpp:113] Setting up relu2_1
I1130 21:15:22.045027  3907 net.cpp:120] Top shape: 1 128 214 214 (5861888)
I1130 21:15:22.045029  3907 layer_factory.hpp:74] Creating layer conv2_2
I1130 21:15:22.045032  3907 net.cpp:84] Creating Layer conv2_2
I1130 21:15:22.045034  3907 net.cpp:381] conv2_2 <- conv2_1
I1130 21:15:22.045038  3907 net.cpp:339] conv2_2 -> conv2_2
I1130 21:15:22.045042  3907 net.cpp:113] Setting up conv2_2
I1130 21:15:22.045243  3907 net.cpp:120] Top shape: 1 128 214 214 (5861888)
I1130 21:15:22.045248  3907 layer_factory.hpp:74] Creating layer relu2_2
I1130 21:15:22.045253  3907 net.cpp:84] Creating Layer relu2_2
I1130 21:15:22.045254  3907 net.cpp:381] relu2_2 <- conv2_2
I1130 21:15:22.045258  3907 net.cpp:328] relu2_2 -> conv2_2 (in-place)
I1130 21:15:22.045261  3907 net.cpp:113] Setting up relu2_2
I1130 21:15:22.045265  3907 net.cpp:120] Top shape: 1 128 214 214 (5861888)
I1130 21:15:22.045267  3907 layer_factory.hpp:74] Creating layer conv2_2_relu2_2_0_split
I1130 21:15:22.045271  3907 net.cpp:84] Creating Layer conv2_2_relu2_2_0_split
I1130 21:15:22.045274  3907 net.cpp:381] conv2_2_relu2_2_0_split <- conv2_2
I1130 21:15:22.045279  3907 net.cpp:339] conv2_2_relu2_2_0_split -> conv2_2_relu2_2_0_split_0
I1130 21:15:22.045282  3907 net.cpp:339] conv2_2_relu2_2_0_split -> conv2_2_relu2_2_0_split_1
I1130 21:15:22.045296  3907 net.cpp:113] Setting up conv2_2_relu2_2_0_split
I1130 21:15:22.045300  3907 net.cpp:120] Top shape: 1 128 214 214 (5861888)
I1130 21:15:22.045305  3907 net.cpp:120] Top shape: 1 128 214 214 (5861888)
I1130 21:15:22.045307  3907 layer_factory.hpp:74] Creating layer pool2
I1130 21:15:22.045310  3907 net.cpp:84] Creating Layer pool2
I1130 21:15:22.045313  3907 net.cpp:381] pool2 <- conv2_2_relu2_2_0_split_0
I1130 21:15:22.045317  3907 net.cpp:339] pool2 -> pool2
I1130 21:15:22.045321  3907 net.cpp:113] Setting up pool2
I1130 21:15:22.045325  3907 net.cpp:120] Top shape: 1 128 108 108 (1492992)
I1130 21:15:22.045327  3907 layer_factory.hpp:74] Creating layer conv3_1
I1130 21:15:22.045331  3907 net.cpp:84] Creating Layer conv3_1
I1130 21:15:22.045334  3907 net.cpp:381] conv3_1 <- pool2
I1130 21:15:22.045337  3907 net.cpp:339] conv3_1 -> conv3_1
I1130 21:15:22.045341  3907 net.cpp:113] Setting up conv3_1
I1130 21:15:22.045671  3907 net.cpp:120] Top shape: 1 256 108 108 (2985984)
I1130 21:15:22.045680  3907 layer_factory.hpp:74] Creating layer relu3_1
I1130 21:15:22.045684  3907 net.cpp:84] Creating Layer relu3_1
I1130 21:15:22.045686  3907 net.cpp:381] relu3_1 <- conv3_1
I1130 21:15:22.045691  3907 net.cpp:328] relu3_1 -> conv3_1 (in-place)
I1130 21:15:22.045694  3907 net.cpp:113] Setting up relu3_1
I1130 21:15:22.045698  3907 net.cpp:120] Top shape: 1 256 108 108 (2985984)
I1130 21:15:22.045701  3907 layer_factory.hpp:74] Creating layer conv3_2
I1130 21:15:22.045704  3907 net.cpp:84] Creating Layer conv3_2
I1130 21:15:22.045706  3907 net.cpp:381] conv3_2 <- conv3_1
I1130 21:15:22.045711  3907 net.cpp:339] conv3_2 -> conv3_2
I1130 21:15:22.045714  3907 net.cpp:113] Setting up conv3_2
I1130 21:15:22.046305  3907 net.cpp:120] Top shape: 1 256 108 108 (2985984)
I1130 21:15:22.046311  3907 layer_factory.hpp:74] Creating layer relu3_2
I1130 21:15:22.046319  3907 net.cpp:84] Creating Layer relu3_2
I1130 21:15:22.046322  3907 net.cpp:381] relu3_2 <- conv3_2
I1130 21:15:22.046326  3907 net.cpp:328] relu3_2 -> conv3_2 (in-place)
I1130 21:15:22.046329  3907 net.cpp:113] Setting up relu3_2
I1130 21:15:22.046334  3907 net.cpp:120] Top shape: 1 256 108 108 (2985984)
I1130 21:15:22.046335  3907 layer_factory.hpp:74] Creating layer conv3_3
I1130 21:15:22.046339  3907 net.cpp:84] Creating Layer conv3_3
I1130 21:15:22.046342  3907 net.cpp:381] conv3_3 <- conv3_2
I1130 21:15:22.046346  3907 net.cpp:339] conv3_3 -> conv3_3
I1130 21:15:22.046352  3907 net.cpp:113] Setting up conv3_3
I1130 21:15:22.046941  3907 net.cpp:120] Top shape: 1 256 108 108 (2985984)
I1130 21:15:22.046947  3907 layer_factory.hpp:74] Creating layer relu3_3
I1130 21:15:22.046952  3907 net.cpp:84] Creating Layer relu3_3
I1130 21:15:22.046954  3907 net.cpp:381] relu3_3 <- conv3_3
I1130 21:15:22.046959  3907 net.cpp:328] relu3_3 -> conv3_3 (in-place)
I1130 21:15:22.046963  3907 net.cpp:113] Setting up relu3_3
I1130 21:15:22.046967  3907 net.cpp:120] Top shape: 1 256 108 108 (2985984)
I1130 21:15:22.046969  3907 layer_factory.hpp:74] Creating layer conv3_3_relu3_3_0_split
I1130 21:15:22.046973  3907 net.cpp:84] Creating Layer conv3_3_relu3_3_0_split
I1130 21:15:22.046977  3907 net.cpp:381] conv3_3_relu3_3_0_split <- conv3_3
I1130 21:15:22.046979  3907 net.cpp:339] conv3_3_relu3_3_0_split -> conv3_3_relu3_3_0_split_0
I1130 21:15:22.046984  3907 net.cpp:339] conv3_3_relu3_3_0_split -> conv3_3_relu3_3_0_split_1
I1130 21:15:22.046989  3907 net.cpp:113] Setting up conv3_3_relu3_3_0_split
I1130 21:15:22.046993  3907 net.cpp:120] Top shape: 1 256 108 108 (2985984)
I1130 21:15:22.046996  3907 net.cpp:120] Top shape: 1 256 108 108 (2985984)
I1130 21:15:22.046999  3907 layer_factory.hpp:74] Creating layer pool3
I1130 21:15:22.047003  3907 net.cpp:84] Creating Layer pool3
I1130 21:15:22.047005  3907 net.cpp:381] pool3 <- conv3_3_relu3_3_0_split_0
I1130 21:15:22.047010  3907 net.cpp:339] pool3 -> pool3
I1130 21:15:22.047014  3907 net.cpp:113] Setting up pool3
I1130 21:15:22.047020  3907 net.cpp:120] Top shape: 1 256 55 55 (774400)
I1130 21:15:22.047027  3907 layer_factory.hpp:74] Creating layer conv4_1
I1130 21:15:22.047035  3907 net.cpp:84] Creating Layer conv4_1
I1130 21:15:22.047039  3907 net.cpp:381] conv4_1 <- pool3
I1130 21:15:22.047044  3907 net.cpp:339] conv4_1 -> conv4_1
I1130 21:15:22.047047  3907 net.cpp:113] Setting up conv4_1
I1130 21:15:22.048053  3907 net.cpp:120] Top shape: 1 512 55 55 (1548800)
I1130 21:15:22.048071  3907 layer_factory.hpp:74] Creating layer relu4_1
I1130 21:15:22.048076  3907 net.cpp:84] Creating Layer relu4_1
I1130 21:15:22.048079  3907 net.cpp:381] relu4_1 <- conv4_1
I1130 21:15:22.048084  3907 net.cpp:328] relu4_1 -> conv4_1 (in-place)
I1130 21:15:22.048101  3907 net.cpp:113] Setting up relu4_1
I1130 21:15:22.048111  3907 net.cpp:120] Top shape: 1 512 55 55 (1548800)
I1130 21:15:22.048113  3907 layer_factory.hpp:74] Creating layer conv4_2
I1130 21:15:22.048117  3907 net.cpp:84] Creating Layer conv4_2
I1130 21:15:22.048120  3907 net.cpp:381] conv4_2 <- conv4_1
I1130 21:15:22.048125  3907 net.cpp:339] conv4_2 -> conv4_2
I1130 21:15:22.048130  3907 net.cpp:113] Setting up conv4_2
I1130 21:15:22.050052  3907 net.cpp:120] Top shape: 1 512 55 55 (1548800)
I1130 21:15:22.050083  3907 layer_factory.hpp:74] Creating layer relu4_2
I1130 21:15:22.050091  3907 net.cpp:84] Creating Layer relu4_2
I1130 21:15:22.050094  3907 net.cpp:381] relu4_2 <- conv4_2
I1130 21:15:22.050099  3907 net.cpp:328] relu4_2 -> conv4_2 (in-place)
I1130 21:15:22.050107  3907 net.cpp:113] Setting up relu4_2
I1130 21:15:22.050110  3907 net.cpp:120] Top shape: 1 512 55 55 (1548800)
I1130 21:15:22.050113  3907 layer_factory.hpp:74] Creating layer conv4_3
I1130 21:15:22.050118  3907 net.cpp:84] Creating Layer conv4_3
I1130 21:15:22.050120  3907 net.cpp:381] conv4_3 <- conv4_2
I1130 21:15:22.050125  3907 net.cpp:339] conv4_3 -> conv4_3
I1130 21:15:22.050129  3907 net.cpp:113] Setting up conv4_3
I1130 21:15:22.051800  3907 net.cpp:120] Top shape: 1 512 55 55 (1548800)
I1130 21:15:22.051816  3907 layer_factory.hpp:74] Creating layer relu4_3
I1130 21:15:22.051823  3907 net.cpp:84] Creating Layer relu4_3
I1130 21:15:22.051826  3907 net.cpp:381] relu4_3 <- conv4_3
I1130 21:15:22.051831  3907 net.cpp:328] relu4_3 -> conv4_3 (in-place)
I1130 21:15:22.051836  3907 net.cpp:113] Setting up relu4_3
I1130 21:15:22.051841  3907 net.cpp:120] Top shape: 1 512 55 55 (1548800)
I1130 21:15:22.051843  3907 layer_factory.hpp:74] Creating layer pool4
I1130 21:15:22.051847  3907 net.cpp:84] Creating Layer pool4
I1130 21:15:22.051849  3907 net.cpp:381] pool4 <- conv4_3
I1130 21:15:22.051854  3907 net.cpp:339] pool4 -> pool4
I1130 21:15:22.051859  3907 net.cpp:113] Setting up pool4
I1130 21:15:22.051864  3907 net.cpp:120] Top shape: 1 512 54 54 (1492992)
I1130 21:15:22.051867  3907 layer_factory.hpp:74] Creating layer conv5_1
I1130 21:15:22.051872  3907 net.cpp:84] Creating Layer conv5_1
I1130 21:15:22.051874  3907 net.cpp:381] conv5_1 <- pool4
I1130 21:15:22.051879  3907 net.cpp:339] conv5_1 -> conv5_1
I1130 21:15:22.051887  3907 net.cpp:113] Setting up conv5_1
I1130 21:15:22.053679  3907 net.cpp:120] Top shape: 1 512 54 54 (1492992)
I1130 21:15:22.053701  3907 layer_factory.hpp:74] Creating layer relu5_1
I1130 21:15:22.053707  3907 net.cpp:84] Creating Layer relu5_1
I1130 21:15:22.053711  3907 net.cpp:381] relu5_1 <- conv5_1
I1130 21:15:22.053717  3907 net.cpp:328] relu5_1 -> conv5_1 (in-place)
I1130 21:15:22.053722  3907 net.cpp:113] Setting up relu5_1
I1130 21:15:22.053726  3907 net.cpp:120] Top shape: 1 512 54 54 (1492992)
I1130 21:15:22.053730  3907 layer_factory.hpp:74] Creating layer conv5_2
I1130 21:15:22.053733  3907 net.cpp:84] Creating Layer conv5_2
I1130 21:15:22.053737  3907 net.cpp:381] conv5_2 <- conv5_1
I1130 21:15:22.053740  3907 net.cpp:339] conv5_2 -> conv5_2
I1130 21:15:22.053745  3907 net.cpp:113] Setting up conv5_2
I1130 21:15:22.055260  3907 net.cpp:120] Top shape: 1 512 54 54 (1492992)
I1130 21:15:22.055281  3907 layer_factory.hpp:74] Creating layer relu5_2
I1130 21:15:22.055286  3907 net.cpp:84] Creating Layer relu5_2
I1130 21:15:22.055289  3907 net.cpp:381] relu5_2 <- conv5_2
I1130 21:15:22.055308  3907 net.cpp:328] relu5_2 -> conv5_2 (in-place)
I1130 21:15:22.055315  3907 net.cpp:113] Setting up relu5_2
I1130 21:15:22.055318  3907 net.cpp:120] Top shape: 1 512 54 54 (1492992)
I1130 21:15:22.055320  3907 layer_factory.hpp:74] Creating layer conv5_3
I1130 21:15:22.055330  3907 net.cpp:84] Creating Layer conv5_3
I1130 21:15:22.055332  3907 net.cpp:381] conv5_3 <- conv5_2
I1130 21:15:22.055336  3907 net.cpp:339] conv5_3 -> conv5_3
I1130 21:15:22.055341  3907 net.cpp:113] Setting up conv5_3
I1130 21:15:22.057126  3907 net.cpp:120] Top shape: 1 512 54 54 (1492992)
I1130 21:15:22.057149  3907 layer_factory.hpp:74] Creating layer relu5_3
I1130 21:15:22.057157  3907 net.cpp:84] Creating Layer relu5_3
I1130 21:15:22.057159  3907 net.cpp:381] relu5_3 <- conv5_3
I1130 21:15:22.057164  3907 net.cpp:328] relu5_3 -> conv5_3 (in-place)
I1130 21:15:22.057169  3907 net.cpp:113] Setting up relu5_3
I1130 21:15:22.057173  3907 net.cpp:120] Top shape: 1 512 54 54 (1492992)
I1130 21:15:22.057175  3907 layer_factory.hpp:74] Creating layer conv5_3_relu5_3_0_split
I1130 21:15:22.057180  3907 net.cpp:84] Creating Layer conv5_3_relu5_3_0_split
I1130 21:15:22.057183  3907 net.cpp:381] conv5_3_relu5_3_0_split <- conv5_3
I1130 21:15:22.057186  3907 net.cpp:339] conv5_3_relu5_3_0_split -> conv5_3_relu5_3_0_split_0
I1130 21:15:22.057191  3907 net.cpp:339] conv5_3_relu5_3_0_split -> conv5_3_relu5_3_0_split_1
I1130 21:15:22.057198  3907 net.cpp:113] Setting up conv5_3_relu5_3_0_split
I1130 21:15:22.057201  3907 net.cpp:120] Top shape: 1 512 54 54 (1492992)
I1130 21:15:22.057204  3907 net.cpp:120] Top shape: 1 512 54 54 (1492992)
I1130 21:15:22.057207  3907 layer_factory.hpp:74] Creating layer pool5
I1130 21:15:22.057211  3907 net.cpp:84] Creating Layer pool5
I1130 21:15:22.057214  3907 net.cpp:381] pool5 <- conv5_3_relu5_3_0_split_0
I1130 21:15:22.057219  3907 net.cpp:339] pool5 -> pool5
I1130 21:15:22.057224  3907 net.cpp:113] Setting up pool5
I1130 21:15:22.057229  3907 net.cpp:120] Top shape: 1 512 54 54 (1492992)
I1130 21:15:22.057231  3907 layer_factory.hpp:74] Creating layer conv6
I1130 21:15:22.057236  3907 net.cpp:84] Creating Layer conv6
I1130 21:15:22.057240  3907 net.cpp:381] conv6 <- pool5
I1130 21:15:22.057245  3907 net.cpp:339] conv6 -> conv6
I1130 21:15:22.057250  3907 net.cpp:113] Setting up conv6
I1130 21:15:22.477846  3907 net.cpp:120] Top shape: 1 4096 54 54 (11943936)
I1130 21:15:22.477874  3907 layer_factory.hpp:74] Creating layer relu6
I1130 21:15:22.477882  3907 net.cpp:84] Creating Layer relu6
I1130 21:15:22.477900  3907 net.cpp:381] relu6 <- conv6
I1130 21:15:22.477907  3907 net.cpp:328] relu6 -> conv6 (in-place)
I1130 21:15:22.477916  3907 net.cpp:113] Setting up relu6
I1130 21:15:22.477919  3907 net.cpp:120] Top shape: 1 4096 54 54 (11943936)
I1130 21:15:22.477922  3907 layer_factory.hpp:74] Creating layer drop6
I1130 21:15:22.477928  3907 net.cpp:84] Creating Layer drop6
I1130 21:15:22.477931  3907 net.cpp:381] drop6 <- conv6
I1130 21:15:22.477936  3907 net.cpp:328] drop6 -> conv6 (in-place)
I1130 21:15:22.477941  3907 net.cpp:113] Setting up drop6
I1130 21:15:22.477948  3907 net.cpp:120] Top shape: 1 4096 54 54 (11943936)
I1130 21:15:22.477951  3907 layer_factory.hpp:74] Creating layer conv7
I1130 21:15:22.477969  3907 net.cpp:84] Creating Layer conv7
I1130 21:15:22.477972  3907 net.cpp:381] conv7 <- conv6
I1130 21:15:22.477975  3907 net.cpp:339] conv7 -> conv7
I1130 21:15:22.477982  3907 net.cpp:113] Setting up conv7
I1130 21:15:22.687749  3907 net.cpp:120] Top shape: 1 4096 54 54 (11943936)
I1130 21:15:22.687779  3907 layer_factory.hpp:74] Creating layer relu7
I1130 21:15:22.687788  3907 net.cpp:84] Creating Layer relu7
I1130 21:15:22.687804  3907 net.cpp:381] relu7 <- conv7
I1130 21:15:22.687811  3907 net.cpp:328] relu7 -> conv7 (in-place)
I1130 21:15:22.687819  3907 net.cpp:113] Setting up relu7
I1130 21:15:22.687824  3907 net.cpp:120] Top shape: 1 4096 54 54 (11943936)
I1130 21:15:22.687825  3907 layer_factory.hpp:74] Creating layer drop7
I1130 21:15:22.687830  3907 net.cpp:84] Creating Layer drop7
I1130 21:15:22.687860  3907 net.cpp:381] drop7 <- conv7
I1130 21:15:22.687863  3907 net.cpp:328] drop7 -> conv7 (in-place)
I1130 21:15:22.687867  3907 net.cpp:113] Setting up drop7
I1130 21:15:22.687872  3907 net.cpp:120] Top shape: 1 4096 54 54 (11943936)
I1130 21:15:22.687875  3907 layer_factory.hpp:74] Creating layer conv8_1
I1130 21:15:22.687880  3907 net.cpp:84] Creating Layer conv8_1
I1130 21:15:22.687882  3907 net.cpp:381] conv8_1 <- conv7
I1130 21:15:22.687887  3907 net.cpp:339] conv8_1 -> conv8_1
I1130 21:15:22.687896  3907 net.cpp:113] Setting up conv8_1
I1130 21:15:22.714277  3907 net.cpp:120] Top shape: 1 512 54 54 (1492992)
I1130 21:15:22.714299  3907 layer_factory.hpp:74] Creating layer conv2_shrink
I1130 21:15:22.714306  3907 net.cpp:84] Creating Layer conv2_shrink
I1130 21:15:22.714310  3907 net.cpp:381] conv2_shrink <- conv2_2_relu2_2_0_split_1
I1130 21:15:22.714316  3907 net.cpp:339] conv2_shrink -> conv2_shrink
I1130 21:15:22.714326  3907 net.cpp:113] Setting up conv2_shrink
I1130 21:15:22.714331  3907 net.cpp:120] Top shape: 1 128 54 54 (373248)
I1130 21:15:22.714334  3907 layer_factory.hpp:74] Creating layer conv3_shrink
I1130 21:15:22.714337  3907 net.cpp:84] Creating Layer conv3_shrink
I1130 21:15:22.714340  3907 net.cpp:381] conv3_shrink <- conv3_3_relu3_3_0_split_1
I1130 21:15:22.714345  3907 net.cpp:339] conv3_shrink -> conv3_shrink
I1130 21:15:22.714349  3907 net.cpp:113] Setting up conv3_shrink
I1130 21:15:22.714352  3907 net.cpp:120] Top shape: 1 256 54 54 (746496)
I1130 21:15:22.714355  3907 layer_factory.hpp:74] Creating layer RGB_feature_concat
I1130 21:15:22.714359  3907 net.cpp:84] Creating Layer RGB_feature_concat
I1130 21:15:22.714362  3907 net.cpp:381] RGB_feature_concat <- conv2_shrink
I1130 21:15:22.714365  3907 net.cpp:381] RGB_feature_concat <- conv3_shrink
I1130 21:15:22.714368  3907 net.cpp:381] RGB_feature_concat <- conv5_3_relu5_3_0_split_1
I1130 21:15:22.714372  3907 net.cpp:339] RGB_feature_concat -> RGB_feature_concat
I1130 21:15:22.714377  3907 net.cpp:113] Setting up RGB_feature_concat
I1130 21:15:22.714382  3907 net.cpp:120] Top shape: 1 896 54 54 (2612736)
I1130 21:15:22.714385  3907 layer_factory.hpp:74] Creating layer label_shrink
I1130 21:15:22.714390  3907 net.cpp:84] Creating Layer label_shrink
I1130 21:15:22.714391  3907 net.cpp:381] label_shrink <- label
I1130 21:15:22.714395  3907 net.cpp:339] label_shrink -> label_shrink
I1130 21:15:22.714398  3907 net.cpp:113] Setting up label_shrink
I1130 21:15:22.714403  3907 net.cpp:120] Top shape: 1 1 54 54 (2916)
I1130 21:15:22.714406  3907 layer_factory.hpp:74] Creating layer label_shrink_label_shrink_0_split
I1130 21:15:22.714409  3907 net.cpp:84] Creating Layer label_shrink_label_shrink_0_split
I1130 21:15:22.714411  3907 net.cpp:381] label_shrink_label_shrink_0_split <- label_shrink
I1130 21:15:22.714416  3907 net.cpp:339] label_shrink_label_shrink_0_split -> label_shrink_label_shrink_0_split_0
I1130 21:15:22.714419  3907 net.cpp:339] label_shrink_label_shrink_0_split -> label_shrink_label_shrink_0_split_1
I1130 21:15:22.714423  3907 net.cpp:113] Setting up label_shrink_label_shrink_0_split
I1130 21:15:22.714427  3907 net.cpp:120] Top shape: 1 1 54 54 (2916)
I1130 21:15:22.714431  3907 net.cpp:120] Top shape: 1 1 54 54 (2916)
I1130 21:15:22.714433  3907 layer_factory.hpp:74] Creating layer mask_54_54_vertical_1
I1130 21:15:22.714438  3907 net.cpp:84] Creating Layer mask_54_54_vertical_1
I1130 21:15:22.714442  3907 net.cpp:339] mask_54_54_vertical_1 -> mask_54_54_vertical_1
I1130 21:15:22.714447  3907 net.cpp:113] Setting up mask_54_54_vertical_1
I1130 21:15:22.714452  3907 net.cpp:120] Top shape: 54 54 (2916)
I1130 21:15:22.714453  3907 layer_factory.hpp:74] Creating layer mask_54_54_vertical_1_mask_54_54_vertical_1_0_split
I1130 21:15:22.714457  3907 net.cpp:84] Creating Layer mask_54_54_vertical_1_mask_54_54_vertical_1_0_split
I1130 21:15:22.714459  3907 net.cpp:381] mask_54_54_vertical_1_mask_54_54_vertical_1_0_split <- mask_54_54_vertical_1
I1130 21:15:22.714462  3907 net.cpp:339] mask_54_54_vertical_1_mask_54_54_vertical_1_0_split -> mask_54_54_vertical_1_mask_54_54_vertical_1_0_split_0
I1130 21:15:22.714478  3907 net.cpp:339] mask_54_54_vertical_1_mask_54_54_vertical_1_0_split -> mask_54_54_vertical_1_mask_54_54_vertical_1_0_split_1
I1130 21:15:22.714483  3907 net.cpp:113] Setting up mask_54_54_vertical_1_mask_54_54_vertical_1_0_split
I1130 21:15:22.714486  3907 net.cpp:120] Top shape: 54 54 (2916)
I1130 21:15:22.714489  3907 net.cpp:120] Top shape: 54 54 (2916)
I1130 21:15:22.714493  3907 layer_factory.hpp:74] Creating layer mask_54_54_vertical_2
I1130 21:15:22.714495  3907 net.cpp:84] Creating Layer mask_54_54_vertical_2
I1130 21:15:22.714498  3907 net.cpp:339] mask_54_54_vertical_2 -> mask_54_54_vertical_2
I1130 21:15:22.714503  3907 net.cpp:113] Setting up mask_54_54_vertical_2
I1130 21:15:22.714506  3907 net.cpp:120] Top shape: 54 54 (2916)
I1130 21:15:22.714509  3907 layer_factory.hpp:74] Creating layer mask_54_54_vertical_2_mask_54_54_vertical_2_0_split
I1130 21:15:22.714511  3907 net.cpp:84] Creating Layer mask_54_54_vertical_2_mask_54_54_vertical_2_0_split
I1130 21:15:22.714514  3907 net.cpp:381] mask_54_54_vertical_2_mask_54_54_vertical_2_0_split <- mask_54_54_vertical_2
I1130 21:15:22.714517  3907 net.cpp:339] mask_54_54_vertical_2_mask_54_54_vertical_2_0_split -> mask_54_54_vertical_2_mask_54_54_vertical_2_0_split_0
I1130 21:15:22.714522  3907 net.cpp:339] mask_54_54_vertical_2_mask_54_54_vertical_2_0_split -> mask_54_54_vertical_2_mask_54_54_vertical_2_0_split_1
I1130 21:15:22.714526  3907 net.cpp:113] Setting up mask_54_54_vertical_2_mask_54_54_vertical_2_0_split
I1130 21:15:22.714530  3907 net.cpp:120] Top shape: 54 54 (2916)
I1130 21:15:22.714534  3907 net.cpp:120] Top shape: 54 54 (2916)
I1130 21:15:22.714535  3907 layer_factory.hpp:74] Creating layer mask_54_54_horizontal_1
I1130 21:15:22.714538  3907 net.cpp:84] Creating Layer mask_54_54_horizontal_1
I1130 21:15:22.714542  3907 net.cpp:339] mask_54_54_horizontal_1 -> mask_54_54_horizontal_1
I1130 21:15:22.714546  3907 net.cpp:113] Setting up mask_54_54_horizontal_1
I1130 21:15:22.714550  3907 net.cpp:120] Top shape: 54 54 (2916)
I1130 21:15:22.714552  3907 layer_factory.hpp:74] Creating layer mask_54_54_horizontal_2
I1130 21:15:22.714555  3907 net.cpp:84] Creating Layer mask_54_54_horizontal_2
I1130 21:15:22.714558  3907 net.cpp:339] mask_54_54_horizontal_2 -> mask_54_54_horizontal_2
I1130 21:15:22.714562  3907 net.cpp:113] Setting up mask_54_54_horizontal_2
I1130 21:15:22.714565  3907 net.cpp:120] Top shape: 54 54 (2916)
I1130 21:15:22.714568  3907 layer_factory.hpp:74] Creating layer HHA_conv1
I1130 21:15:22.714573  3907 net.cpp:84] Creating Layer HHA_conv1
I1130 21:15:22.714576  3907 net.cpp:381] HHA_conv1 <- HHAData
I1130 21:15:22.714581  3907 net.cpp:339] HHA_conv1 -> HHA_conv1
I1130 21:15:22.714586  3907 net.cpp:113] Setting up HHA_conv1
I1130 21:15:22.714818  3907 net.cpp:120] Top shape: 1 64 432 432 (11943936)
I1130 21:15:22.714828  3907 layer_factory.hpp:74] Creating layer HHA_relu1
I1130 21:15:22.714833  3907 net.cpp:84] Creating Layer HHA_relu1
I1130 21:15:22.714836  3907 net.cpp:381] HHA_relu1 <- HHA_conv1
I1130 21:15:22.714839  3907 net.cpp:328] HHA_relu1 -> HHA_conv1 (in-place)
I1130 21:15:22.714843  3907 net.cpp:113] Setting up HHA_relu1
I1130 21:15:22.714848  3907 net.cpp:120] Top shape: 1 64 432 432 (11943936)
I1130 21:15:22.714850  3907 layer_factory.hpp:74] Creating layer HHA_pool1
I1130 21:15:22.714854  3907 net.cpp:84] Creating Layer HHA_pool1
I1130 21:15:22.714856  3907 net.cpp:381] HHA_pool1 <- HHA_conv1
I1130 21:15:22.714859  3907 net.cpp:339] HHA_pool1 -> HHA_pool1
I1130 21:15:22.714864  3907 net.cpp:113] Setting up HHA_pool1
I1130 21:15:22.714870  3907 net.cpp:120] Top shape: 1 64 216 216 (2985984)
I1130 21:15:22.714872  3907 layer_factory.hpp:74] Creating layer HHA_conv2
I1130 21:15:22.714877  3907 net.cpp:84] Creating Layer HHA_conv2
I1130 21:15:22.714880  3907 net.cpp:381] HHA_conv2 <- HHA_pool1
I1130 21:15:22.714885  3907 net.cpp:339] HHA_conv2 -> HHA_conv2
I1130 21:15:22.714890  3907 net.cpp:113] Setting up HHA_conv2
I1130 21:15:22.715909  3907 net.cpp:120] Top shape: 1 128 216 216 (5971968)
I1130 21:15:22.715919  3907 layer_factory.hpp:74] Creating layer HHA_relu2
I1130 21:15:22.715922  3907 net.cpp:84] Creating Layer HHA_relu2
I1130 21:15:22.715924  3907 net.cpp:381] HHA_relu2 <- HHA_conv2
I1130 21:15:22.715927  3907 net.cpp:328] HHA_relu2 -> HHA_conv2 (in-place)
I1130 21:15:22.715931  3907 net.cpp:113] Setting up HHA_relu2
I1130 21:15:22.715935  3907 net.cpp:120] Top shape: 1 128 216 216 (5971968)
I1130 21:15:22.715937  3907 layer_factory.hpp:74] Creating layer HHA_pool2
I1130 21:15:22.715940  3907 net.cpp:84] Creating Layer HHA_pool2
I1130 21:15:22.715943  3907 net.cpp:381] HHA_pool2 <- HHA_conv2
I1130 21:15:22.715947  3907 net.cpp:339] HHA_pool2 -> HHA_pool2
I1130 21:15:22.715951  3907 net.cpp:113] Setting up HHA_pool2
I1130 21:15:22.715955  3907 net.cpp:120] Top shape: 1 128 108 108 (1492992)
I1130 21:15:22.715958  3907 layer_factory.hpp:74] Creating layer HHA_conv3
I1130 21:15:22.715962  3907 net.cpp:84] Creating Layer HHA_conv3
I1130 21:15:22.715965  3907 net.cpp:381] HHA_conv3 <- HHA_pool2
I1130 21:15:22.715968  3907 net.cpp:339] HHA_conv3 -> HHA_conv3
I1130 21:15:22.715976  3907 net.cpp:113] Setting up HHA_conv3
I1130 21:15:22.717892  3907 net.cpp:120] Top shape: 1 128 108 108 (1492992)
I1130 21:15:22.717898  3907 layer_factory.hpp:74] Creating layer HHA_relu3
I1130 21:15:22.717901  3907 net.cpp:84] Creating Layer HHA_relu3
I1130 21:15:22.717905  3907 net.cpp:381] HHA_relu3 <- HHA_conv3
I1130 21:15:22.717907  3907 net.cpp:328] HHA_relu3 -> HHA_conv3 (in-place)
I1130 21:15:22.717911  3907 net.cpp:113] Setting up HHA_relu3
I1130 21:15:22.717914  3907 net.cpp:120] Top shape: 1 128 108 108 (1492992)
I1130 21:15:22.717917  3907 layer_factory.hpp:74] Creating layer HHA_pool3
I1130 21:15:22.717921  3907 net.cpp:84] Creating Layer HHA_pool3
I1130 21:15:22.717923  3907 net.cpp:381] HHA_pool3 <- HHA_conv3
I1130 21:15:22.717926  3907 net.cpp:339] HHA_pool3 -> HHA_pool3
I1130 21:15:22.717931  3907 net.cpp:113] Setting up HHA_pool3
I1130 21:15:22.717934  3907 net.cpp:120] Top shape: 1 128 54 54 (373248)
I1130 21:15:22.717937  3907 layer_factory.hpp:74] Creating layer HHA_pool3_trans
I1130 21:15:22.717943  3907 net.cpp:84] Creating Layer HHA_pool3_trans
I1130 21:15:22.717947  3907 net.cpp:381] HHA_pool3_trans <- HHA_pool3
I1130 21:15:22.717949  3907 net.cpp:339] HHA_pool3_trans -> HHA_pool3_trans
I1130 21:15:22.717955  3907 net.cpp:113] Setting up HHA_pool3_trans
I1130 21:15:22.717959  3907 net.cpp:120] Top shape: 54 54 128 (373248)
I1130 21:15:22.717962  3907 layer_factory.hpp:74] Creating layer HHA_pool3_trans_HHA_pool3_trans_0_split
I1130 21:15:22.717972  3907 net.cpp:84] Creating Layer HHA_pool3_trans_HHA_pool3_trans_0_split
I1130 21:15:22.717977  3907 net.cpp:381] HHA_pool3_trans_HHA_pool3_trans_0_split <- HHA_pool3_trans
I1130 21:15:22.717979  3907 net.cpp:339] HHA_pool3_trans_HHA_pool3_trans_0_split -> HHA_pool3_trans_HHA_pool3_trans_0_split_0
I1130 21:15:22.717984  3907 net.cpp:339] HHA_pool3_trans_HHA_pool3_trans_0_split -> HHA_pool3_trans_HHA_pool3_trans_0_split_1
I1130 21:15:22.717988  3907 net.cpp:113] Setting up HHA_pool3_trans_HHA_pool3_trans_0_split
I1130 21:15:22.717993  3907 net.cpp:120] Top shape: 54 54 128 (373248)
I1130 21:15:22.717995  3907 net.cpp:120] Top shape: 54 54 128 (373248)
I1130 21:15:22.717998  3907 layer_factory.hpp:74] Creating layer HHA_lstm1
I1130 21:15:22.718003  3907 net.cpp:84] Creating Layer HHA_lstm1
I1130 21:15:22.718005  3907 net.cpp:381] HHA_lstm1 <- HHA_pool3_trans_HHA_pool3_trans_0_split_0
I1130 21:15:22.718009  3907 net.cpp:381] HHA_lstm1 <- mask_54_54_vertical_1_mask_54_54_vertical_1_0_split_0
I1130 21:15:22.718014  3907 net.cpp:339] HHA_lstm1 -> HHA_lstm1
I1130 21:15:22.718019  3907 net.cpp:113] Setting up HHA_lstm1
I1130 21:15:22.718021  3907 recurrent_layer.cpp:27] Initializing recurrent layer: assuming input batch contains 54 timesteps of 54 independent streams.
I1130 21:15:22.719118  3907 net.cpp:42] Initializing net from parameters: 
input: "x"
input: "cont"
input: "c_0"
input: "h_0"
force_backward: true
input_shape {
  dim: 54
  dim: 54
  dim: 128
}
input_shape {
  dim: 1
  dim: 54
  dim: 54
}
input_shape {
  dim: 1
  dim: 54
  dim: 100
}
input_shape {
  dim: 1
  dim: 54
  dim: 100
}
layer {
  name: "HHA_lstm1_cont_slice"
  type: "Slice"
  bottom: "cont"
  top: "cont_1"
  top: "cont_2"
  top: "cont_3"
  top: "cont_4"
  top: "cont_5"
  top: "cont_6"
  top: "cont_7"
  top: "cont_8"
  top: "cont_9"
  top: "cont_10"
  top: "cont_11"
  top: "cont_12"
  top: "cont_13"
  top: "cont_14"
  top: "cont_15"
  top: "cont_16"
  top: "cont_17"
  top: "cont_18"
  top: "cont_19"
  top: "cont_20"
  top: "cont_21"
  top: "cont_22"
  top: "cont_23"
  top: "cont_24"
  top: "cont_25"
  top: "cont_26"
  top: "cont_27"
  top: "cont_28"
  top: "cont_29"
  top: "cont_30"
  top: "cont_31"
  top: "cont_32"
  top: "cont_33"
  top: "cont_34"
  top: "cont_35"
  top: "cont_36"
  top: "cont_37"
  top: "cont_38"
  top: "cont_39"
  top: "cont_40"
  top: "cont_41"
  top: "cont_42"
  top: "cont_43"
  top: "cont_44"
  top: "cont_45"
  top: "cont_46"
  top: "cont_47"
  top: "cont_48"
  top: "cont_49"
  top: "cont_50"
  top: "cont_51"
  top: "cont_52"
  top: "cont_53"
  top: "cont_54"
  slice_param {
    axis: 1
  }
}
layer {
  name: "HHA_lstm1_x_transform"
  type: "InnerProduct"
  bottom: "x"
  top: "W_xc_x"
  param {
    name: "W_xc"
  }
  param {
    name: "b_c"
  }
  inner_product_param {
    num_output: 400
    bias_term: true
    weight_filler {
      type: "uniform"
      min: -0.01
      max: 0.01
    }
    bias_filler {
      type: "constant"
      value: 0
    }
    axis: 2
  }
}
layer {
  name: "HHA_lstm1_W_xc_x_slice"
  type: "Slice"
  bottom: "W_xc_x"
  top: "W_xc_x_1"
  top: "W_xc_x_2"
  top: "W_xc_x_3"
  top: "W_xc_x_4"
  top: "W_xc_x_5"
  top: "W_xc_x_6"
  top: "W_xc_x_7"
  top: "W_xc_x_8"
  top: "W_xc_x_9"
  top: "W_xc_x_10"
  top: "W_xc_x_11"
  top: "W_xc_x_12"
  top: "W_xc_x_13"
  top: "W_xc_x_14"
  top: "W_xc_x_15"
  top: "W_xc_x_16"
  top: "W_xc_x_17"
  top: "W_xc_x_18"
  top: "W_xc_x_19"
  top: "W_xc_x_20"
  top: "W_xc_x_21"
  top: "W_xc_x_22"
  top: "W_xc_x_23"
  top: "W_xc_x_24"
  top: "W_xc_x_25"
  top: "W_xc_x_26"
  top: "W_xc_x_27"
  top: "W_xc_x_28"
  top: "W_xc_x_29"
  top: "W_xc_x_30"
  top: "W_xc_x_31"
  top: "W_xc_x_32"
  top: "W_xc_x_33"
  top: "W_xc_x_34"
  top: "W_xc_x_35"
  top: "W_xc_x_36"
  top: "W_xc_x_37"
  top: "W_xc_x_38"
  top: "W_xc_x_39"
  top: "W_xc_x_40"
  top: "W_xc_x_41"
  top: "W_xc_x_42"
  top: "W_xc_x_43"
  top: "W_xc_x_44"
  top: "W_xc_x_45"
  top: "W_xc_x_46"
  top: "W_xc_x_47"
  top: "W_xc_x_48"
  top: "W_xc_x_49"
  top: "W_xc_x_50"
  top: "W_xc_x_51"
  top: "W_xc_x_52"
  top: "W_xc_x_53"
  top: "W_xc_x_54"
  slice_param {
    axis: 0
  }
}
layer {
  name: "HHA_lstm1_h_conted_0"
  type: "Eltwise"
  bottom: "h_0"
  bottom: "cont_1"
  top: "h_conted_0"
  eltwise_param {
    operation: SUM
    coeff_blob: true
  }
}
layer {
  name: "HHA_lstm1_transform_1"
  type: "InnerProduct"
  bottom: "h_conted_0"
  top: "W_hc_h_0"
  param {
    name: "W_hc"
  }
  inner_product_param {
    num_output: 400
    bias_term: false
    weight_filler {
      type: "uniform"
      min: -0.01
      max: 0.01
    }
    axis: 2
  }
}
layer {
  name: "HHA_lstm1_gate_input_1"
  type: "Eltwise"
  bottom: "W_hc_h_0"
  bottom: "W_xc_x_1"
  top: "gate_input_1"
  eltwise_param {
    operation: SUM
  }
}
layer {
  name: "HHA_lstm1_unit_1"
  type: "LSTMUnit"
  bottom: "c_0"
  bottom: "gate_input_1"
  bottom: "cont_1"
  top: "c_1"
  top: "h_1"
}
layer {
  name: "HHA_lstm1_h_conted_1"
  type: "Eltwise"
  bottom: "h_1"
  bottom: "cont_2"
  top: "h_conted_1"
  eltwise_param {
    operation: SUM
    coeff_blob: true
  }
}
layer {
  name: "HHA_lstm1_transform_2"
  type: "InnerProduct"
  bottom: "h_conted_1"
  top: "W_hc_h_1"
  param {
    name: "W_hc"
  }
  inner_product_param {
    num_output: 400
    bias_term: false
    weight_filler {
      type: "uniform"
      min: -0.01
      max: 0.01
    }
    axis: 2
  }
}
layer {
  name: "HHA_lstm1_gate_input_2"
  type: "Eltwise"
  bottom: "W_hc_h_1"
  bottom: "W_xc_x_2"
  top: "gate_input_2"
  eltwise_param {
    operation: SUM
  }
}
layer {
  name: "HHA_lstm1_unit_2"
  type: "LSTMUnit"
  bottom: "c_1"
  bottom: "gate_input_2"
  bottom: "cont_2"
  top: "c_2"
  top: "h_2"
}
layer {
  name: "HHA_lstm1_h_conted_2"
  type: "Eltwise"
  bottom: "h_2"
  bottom: "cont_3"
  top: "h_conted_2"
  eltwise_param {
    operation: SUM
    coeff_blob: true
  }
}
layer {
  name: "HHA_lstm1_transform_3"
  type: "InnerProduct"
  bottom: "h_conted_2"
  top: "W_hc_h_2"
  param {
    name: "W_hc"
  }
  inner_product_param {
    num_output: 400
    bias_term: false
    weight_filler {
      type: "uniform"
      min: -0.01
      max: 0.01
    }
    axis: 2
  }
}
layer {
  name: "HHA_lstm1_gate_input_3"
  type: "Eltwise"
  bottom: "W_hc_h_2"
  bottom: "W_xc_x_3"
  top: "gate_input_3"
  eltwise_param {
    operation: SUM
  }
}
layer {
  name: "HHA_lstm1_unit_3"
  type: "LSTMUnit"
  bottom: "c_2"
  bottom: "gate_input_3"
  bottom: "cont_3"
  top: "c_3"
  top: "h_3"
}
layer {
  name: "HHA_lstm1_h_conted_3"
  type: "Eltwise"
  bottom: "h_3"
  bottom: "cont_4"
  top: "h_conted_3"
  eltwise_param {
    operation: SUM
    coeff_blob: true
  }
}
layer {
  name: "HHA_lstm1_transform_4"
  type: "InnerProduct"
  bottom: "h_conted_3"
  top: "W_hc_h_3"
  param {
    name: "W_hc"
  }
  inner_product_param {
    num_output: 400
    bias_term: false
    weight_filler {
      type: "uniform"
      min: -0.01
      max: 0.01
    }
    axis: 2
  }
}
layer {
  name: "HHA_lstm1_gate_input_4"
  type: "Eltwise"
  bottom: "W_hc_h_3"
  bottom: "W_xc_x_4"
  top: "gate_input_4"
  eltwise_param {
    operation: SUM
  }
}
layer {
  name: "HHA_lstm1_unit_4"
  type: "LSTMUnit"
  bottom: "c_3"
  bottom: "gate_input_4"
  bottom: "cont_4"
  top: "c_4"
  top: "h_4"
}
layer {
  name: "HHA_lstm1_h_conted_4"
  type: "Eltwise"
  bottom: "h_4"
  bottom: "cont_5"
  top: "h_conted_4"
  eltwise_param {
    operation: SUM
    coeff_blob: true
  }
}
layer {
  name: "HHA_lstm1_transform_5"
  type: "InnerProduct"
  bottom: "h_conted_4"
  top: "W_hc_h_4"
  param {
    name: "W_hc"
  }
  inner_product_param {
    num_output: 400
    bias_term: false
    weight_filler {
      type: "uniform"
      min: -0.01
      max: 0.01
    }
    axis: 2
  }
}
layer {
  name: "HHA_lstm1_gate_input_5"
  type: "Eltwise"
  bottom: "W_hc_h_4"
  bottom: "W_xc_x_5"
  top: "gate_input_5"
  eltwise_param {
    operation: SUM
  }
}
layer {
  name: "HHA_lstm1_unit_5"
  type: "LSTMUnit"
  bottom: "c_4"
  bottom: "gate_input_5"
  bottom: "cont_5"
  top: "c_5"
  top: "h_5"
}
layer {
  name: "HHA_lstm1_h_conted_5"
  type: "Eltwise"
  bottom: "h_5"
  bottom: "cont_6"
  top: "h_conted_5"
  eltwise_param {
    operation: SUM
    coeff_blob: true
  }
}
layer {
  name: "HHA_lstm1_transform_6"
  type: "InnerProduct"
  bottom: "h_conted_5"
  top: "W_hc_h_5"
  param {
    name: "W_hc"
  }
  inner_product_param {
    num_output: 400
    bias_term: false
    weight_filler {
      type: "uniform"
      min: -0.01
      max: 0.01
    }
    axis: 2
  }
}
layer {
  name: "HHA_lstm1_gate_input_6"
  type: "Eltwise"
  bottom: "W_hc_h_5"
  bottom: "W_xc_x_6"
  top: "gate_input_6"
  eltwise_param {
    operation: SUM
  }
}
layer {
  name: "HHA_lstm1_unit_6"
  type: "LSTMUnit"
  bottom: "c_5"
  bottom: "gate_input_6"
  bottom: "cont_6"
  top: "c_6"
  top: "h_6"
}
layer {
  name: "HHA_lstm1_h_conted_6"
  type: "Eltwise"
  bottom: "h_6"
  bottom: "cont_7"
  top: "h_conted_6"
  eltwise_param {
    operation: SUM
    coeff_blob: true
  }
}
layer {
  name: "HHA_lstm1_transform_7"
  type: "InnerProduct"
  bottom: "h_conted_6"
  top: "W_hc_h_6"
  param {
    name: "W_hc"
  }
  inner_product_param {
    num_output: 400
    bias_term: false
    weight_filler {
      type: "uniform"
      min: -0.01
      max: 0.01
    }
    axis: 2
  }
}
layer {
  name: "HHA_lstm1_gate_input_7"
  type: "Eltwise"
  bottom: "W_hc_h_6"
  bottom: "W_xc_x_7"
  top: "gate_input_7"
  eltwise_param {
    operation: SUM
  }
}
layer {
  name: "HHA_lstm1_unit_7"
  type: "LSTMUnit"
  bottom: "c_6"
  bottom: "gate_input_7"
  bottom: "cont_7"
  top: "c_7"
  top: "h_7"
}
layer {
  name: "HHA_lstm1_h_conted_7"
  type: "Eltwise"
  bottom: "h_7"
  bottom: "cont_8"
  top: "h_conted_7"
  eltwise_param {
    operation: SUM
    coeff_blob: true
  }
}
layer {
  name: "HHA_lstm1_transform_8"
  type: "InnerProduct"
  bottom: "h_conted_7"
  top: "W_hc_h_7"
  param {
    name: "W_hc"
  }
  inner_product_param {
    num_output: 400
    bias_term: false
    weight_filler {
      type: "uniform"
      min: -0.01
      max: 0.01
    }
    axis: 2
  }
}
layer {
  name: "HHA_lstm1_gate_input_8"
  type: "Eltwise"
  bottom: "W_hc_h_7"
  bottom: "W_xc_x_8"
  top: "gate_input_8"
  eltwise_param {
    operation: SUM
  }
}
layer {
  name: "HHA_lstm1_unit_8"
  type: "LSTMUnit"
  bottom: "c_7"
  bottom: "gate_input_8"
  bottom: "cont_8"
  top: "c_8"
  top: "h_8"
}
layer {
  name: "HHA_lstm1_h_conted_8"
  type: "Eltwise"
  bottom: "h_8"
  bottom: "cont_9"
  top: "h_conted_8"
  eltwise_param {
    operation: SUM
    coeff_blob: true
  }
}
layer {
  name: "HHA_lstm1_transform_9"
  type: "InnerProduct"
  bottom: "h_conted_8"
  top: "W_hc_h_8"
  param {
    name: "W_hc"
  }
  inner_product_param {
    num_output: 400
    bias_term: false
    weight_filler {
      type: "uniform"
      min: -0.01
      max: 0.01
    }
    axis: 2
  }
}
layer {
  name: "HHA_lstm1_gate_input_9"
  type: "Eltwise"
  bottom: "W_hc_h_8"
  bottom: "W_xc_x_9"
  top: "gate_input_9"
  eltwise_param {
    operation: SUM
  }
}
layer {
  name: "HHA_lstm1_unit_9"
  type: "LSTMUnit"
  bottom: "c_8"
  bottom: "gate_input_9"
  bottom: "cont_9"
  top: "c_9"
  top: "h_9"
}
layer {
  name: "HHA_lstm1_h_conted_9"
  type: "Eltwise"
  bottom: "h_9"
  bottom: "cont_10"
  top: "h_conted_9"
  eltwise_param {
    operation: SUM
    coeff_blob: true
  }
}
layer {
  name: "HHA_lstm1_transform_10"
  type: "InnerProduct"
  bottom: "h_conted_9"
  top: "W_hc_h_9"
  param {
    name: "W_hc"
  }
  inner_product_param {
    num_output: 400
    bias_term: false
    weight_filler {
      type: "uniform"
      min: -0.01
      max: 0.01
    }
    axis: 2
  }
}
layer {
  name: "HHA_lstm1_gate_input_10"
  type: "Eltwise"
  bottom: "W_hc_h_9"
  bottom: "W_xc_x_10"
  top: "gate_input_10"
  eltwise_param {
    operation: SUM
  }
}
layer {
  name: "HHA_lstm1_unit_10"
  type: "LSTMUnit"
  bottom: "c_9"
  bottom: "gate_input_10"
  bottom: "cont_10"
  top: "c_10"
  top: "h_10"
}
layer {
  name: "HHA_lstm1_h_conted_10"
  type: "Eltwise"
  bottom: "h_10"
  bottom: "cont_11"
  top: "h_conted_10"
  eltwise_param {
    operation: SUM
    coeff_blob: true
  }
}
layer {
  name: "HHA_lstm1_transform_11"
  type: "InnerProduct"
  bottom: "h_conted_10"
  top: "W_hc_h_10"
  param {
    name: "W_hc"
  }
  inner_product_param {
    num_output: 400
    bias_term: false
    weight_filler {
      type: "uniform"
      min: -0.01
      max: 0.01
    }
    axis: 2
  }
}
layer {
  name: "HHA_lstm1_gate_input_11"
  type: "Eltwise"
  bottom: "W_hc_h_10"
  bottom: "W_xc_x_11"
  top: "gate_input_11"
  eltwise_param {
    operation: SUM
  }
}
layer {
  name: "HHA_lstm1_unit_11"
  type: "LSTMUnit"
  bottom: "c_10"
  bottom: "gate_input_11"
  bottom: "cont_11"
  top: "c_11"
  top: "h_11"
}
layer {
  name: "HHA_lstm1_h_conted_11"
  type: "Eltwise"
  bottom: "h_11"
  bottom: "cont_12"
  top: "h_conted_11"
  eltwise_param {
    operation: SUM
    coeff_blob: true
  }
}
layer {
  name: "HHA_lstm1_transform_12"
  type: "InnerProduct"
  bottom: "h_conted_11"
  top: "W_hc_h_11"
  param {
    name: "W_hc"
  }
  inner_product_param {
    num_output: 400
    bias_term: false
    weight_filler {
      type: "uniform"
      min: -0.01
      max: 0.01
    }
    axis: 2
  }
}
layer {
  name: "HHA_lstm1_gate_input_12"
  type: "Eltwise"
  bottom: "W_hc_h_11"
  bottom: "W_xc_x_12"
  top: "gate_input_12"
  eltwise_param {
    operation: SUM
  }
}
layer {
  name: "HHA_lstm1_unit_12"
  type: "LSTMUnit"
  bottom: "c_11"
  bottom: "gate_input_12"
  bottom: "cont_12"
  top: "c_12"
  top: "h_12"
}
layer {
  name: "HHA_lstm1_h_conted_12"
  type: "Eltwise"
  bottom: "h_12"
  bottom: "cont_13"
  top: "h_conted_12"
  eltwise_param {
    operation: SUM
    coeff_blob: true
  }
}
layer {
  name: "HHA_lstm1_transform_13"
  type: "InnerProduct"
  bottom: "h_conted_12"
  top: "W_hc_h_12"
  param {
    name: "W_hc"
  }
  inner_product_param {
    num_output: 400
    bias_term: false
    weight_filler {
      type: "uniform"
      min: -0.01
      max: 0.01
    }
    axis: 2
  }
}
layer {
  name: "HHA_lstm1_gate_input_13"
  type: "Eltwise"
  bottom: "W_hc_h_12"
  bottom: "W_xc_x_13"
  top: "gate_input_13"
  eltwise_param {
    operation: SUM
  }
}
layer {
  name: "HHA_lstm1_unit_13"
  type: "LSTMUnit"
  bottom: "c_12"
  bottom: "gate_input_13"
  bottom: "cont_13"
  top: "c_13"
  top: "h_13"
}
layer {
  name: "HHA_lstm1_h_conted_13"
  type: "Eltwise"
  bottom: "h_13"
  bottom: "cont_14"
  top: "h_conted_13"
  eltwise_param {
    operation: SUM
    coeff_blob: true
  }
}
layer {
  name: "HHA_lstm1_transform_14"
  type: "InnerProduct"
  bottom: "h_conted_13"
  top: "W_hc_h_13"
  param {
    name: "W_hc"
  }
  inner_product_param {
    num_output: 400
    bias_term: false
    weight_filler {
      type: "uniform"
      min: -0.01
      max: 0.01
    }
    axis: 2
  }
}
layer {
  name: "HHA_lstm1_gate_input_14"
  type: "Eltwise"
  bottom: "W_hc_h_13"
  bottom: "W_xc_x_14"
  top: "gate_input_14"
  eltwise_param {
    operation: SUM
  }
}
layer {
  name: "HHA_lstm1_unit_14"
  type: "LSTMUnit"
  bottom: "c_13"
  bottom: "gate_input_14"
  bottom: "cont_14"
  top: "c_14"
  top: "h_14"
}
layer {
  name: "HHA_lstm1_h_conted_14"
  type: "Eltwise"
  bottom: "h_14"
  bottom: "cont_15"
  top: "h_conted_14"
  eltwise_param {
    operation: SUM
    coeff_blob: true
  }
}
layer {
  name: "HHA_lstm1_transform_15"
  type: "InnerProduct"
  bottom: "h_conted_14"
  top: "W_hc_h_14"
  param {
    name: "W_hc"
  }
  inner_product_param {
    num_output: 400
    bias_term: false
    weight_filler {
      type: "uniform"
      min: -0.01
      max: 0.01
    }
    axis: 2
  }
}
layer {
  name: "HHA_lstm1_gate_input_15"
  type: "Eltwise"
  bottom: "W_hc_h_14"
  bottom: "W_xc_x_15"
  top: "gate_input_15"
  eltwise_param {
    operation: SUM
  }
}
layer {
  name: "HHA_lstm1_unit_15"
  type: "LSTMUnit"
  bottom: "c_14"
  bottom: "gate_input_15"
  bottom: "cont_15"
  top: "c_15"
  top: "h_15"
}
layer {
  name: "HHA_lstm1_h_conted_15"
  type: "Eltwise"
  bottom: "h_15"
  bottom: "cont_16"
  top: "h_conted_15"
  eltwise_param {
    operation: SUM
    coeff_blob: true
  }
}
layer {
  name: "HHA_lstm1_transform_16"
  type: "InnerProduct"
  bottom: "h_conted_15"
  top: "W_hc_h_15"
  param {
    name: "W_hc"
  }
  inner_product_param {
    num_output: 400
    bias_term: false
    weight_filler {
      type: "uniform"
      min: -0.01
      max: 0.01
    }
    axis: 2
  }
}
layer {
  name: "HHA_lstm1_gate_input_16"
  type: "Eltwise"
  bottom: "W_hc_h_15"
  bottom: "W_xc_x_16"
  top: "gate_input_16"
  eltwise_param {
    operation: SUM
  }
}
layer {
  name: "HHA_lstm1_unit_16"
  type: "LSTMUnit"
  bottom: "c_15"
  bottom: "gate_input_16"
  bottom: "cont_16"
  top: "c_16"
  top: "h_16"
}
layer {
  name: "HHA_lstm1_h_conted_16"
  type: "Eltwise"
  bottom: "h_16"
  bottom: "cont_17"
  top: "h_conted_16"
  eltwise_param {
    operation: SUM
    coeff_blob: true
  }
}
layer {
  name: "HHA_lstm1_transform_17"
  type: "InnerProduct"
  bottom: "h_conted_16"
  top: "W_hc_h_16"
  param {
    name: "W_hc"
  }
  inner_product_param {
    num_output: 400
    bias_term: false
    weight_filler {
      type: "uniform"
      min: -0.01
      max: 0.01
    }
    axis: 2
  }
}
layer {
  name: "HHA_lstm1_gate_input_17"
  type: "Eltwise"
  bottom: "W_hc_h_16"
  bottom: "W_xc_x_17"
  top: "gate_input_17"
  eltwise_param {
    operation: SUM
  }
}
layer {
  name: "HHA_lstm1_unit_17"
  type: "LSTMUnit"
  bottom: "c_16"
  bottom: "gate_input_17"
  bottom: "cont_17"
  top: "c_17"
  top: "h_17"
}
layer {
  name: "HHA_lstm1_h_conted_17"
  type: "Eltwise"
  bottom: "h_17"
  bottom: "cont_18"
  top: "h_conted_17"
  eltwise_param {
    operation: SUM
    coeff_blob: true
  }
}
layer {
  name: "HHA_lstm1_transform_18"
  type: "InnerProduct"
  bottom: "h_conted_17"
  top: "W_hc_h_17"
  param {
    name: "W_hc"
  }
  inner_product_param {
    num_output: 400
    bias_term: false
    weight_filler {
      type: "uniform"
      min: -0.01
      max: 0.01
    }
    axis: 2
  }
}
layer {
  name: "HHA_lstm1_gate_input_18"
  type: "Eltwise"
  bottom: "W_hc_h_17"
  bottom: "W_xc_x_18"
  top: "gate_input_18"
  eltwise_param {
    operation: SUM
  }
}
layer {
  name: "HHA_lstm1_unit_18"
  type: "LSTMUnit"
  bottom: "c_17"
  bottom: "gate_input_18"
  bottom: "cont_18"
  top: "c_18"
  top: "h_18"
}
layer {
  name: "HHA_lstm1_h_conted_18"
  type: "Eltwise"
  bottom: "h_18"
  bottom: "cont_19"
  top: "h_conted_18"
  eltwise_param {
    operation: SUM
    coeff_blob: true
  }
}
layer {
  name: "HHA_lstm1_transform_19"
  type: "InnerProduct"
  bottom: "h_conted_18"
  top: "W_hc_h_18"
  param {
    name: "W_hc"
  }
  inner_product_param {
    num_output: 400
    bias_term: false
    weight_filler {
      type: "uniform"
      min: -0.01
      max: 0.01
    }
    axis: 2
  }
}
layer {
  name: "HHA_lstm1_gate_input_19"
  type: "Eltwise"
  bottom: "W_hc_h_18"
  bottom: "W_xc_x_19"
  top: "gate_input_19"
  eltwise_param {
    operation: SUM
  }
}
layer {
  name: "HHA_lstm1_unit_19"
  type: "LSTMUnit"
  bottom: "c_18"
  bottom: "gate_input_19"
  bottom: "cont_19"
  top: "c_19"
  top: "h_19"
}
layer {
  name: "HHA_lstm1_h_conted_19"
  type: "Eltwise"
  bottom: "h_19"
  bottom: "cont_20"
  top: "h_conted_19"
  eltwise_param {
    operation: SUM
    coeff_blob: true
  }
}
layer {
  name: "HHA_lstm1_transform_20"
  type: "InnerProduct"
  bottom: "h_conted_19"
  top: "W_hc_h_19"
  param {
    name: "W_hc"
  }
  inner_product_param {
    num_output: 400
    bias_term: false
    weight_filler {
      type: "uniform"
      min: -0.01
      max: 0.01
    }
    axis: 2
  }
}
layer {
  name: "HHA_lstm1_gate_input_20"
  type: "Eltwise"
  bottom: "W_hc_h_19"
  bottom: "W_xc_x_20"
  top: "gate_input_20"
  eltwise_param {
    operation: SUM
  }
}
layer {
  name: "HHA_lstm1_unit_20"
  type: "LSTMUnit"
  bottom: "c_19"
  bottom: "gate_input_20"
  bottom: "cont_20"
  top: "c_20"
  top: "h_20"
}
layer {
  name: "HHA_lstm1_h_conted_20"
  type: "Eltwise"
  bottom: "h_20"
  bottom: "cont_21"
  top: "h_conted_20"
  eltwise_param {
    operation: SUM
    coeff_blob: true
  }
}
layer {
  name: "HHA_lstm1_transform_21"
  type: "InnerProduct"
  bottom: "h_conted_20"
  top: "W_hc_h_20"
  param {
    name: "W_hc"
  }
  inner_product_param {
    num_output: 400
    bias_term: false
    weight_filler {
      type: "uniform"
      min: -0.01
      max: 0.01
    }
    axis: 2
  }
}
layer {
  name: "HHA_lstm1_gate_input_21"
  type: "Eltwise"
  bottom: "W_hc_h_20"
  bottom: "W_xc_x_21"
  top: "gate_input_21"
  eltwise_param {
    operation: SUM
  }
}
layer {
  name: "HHA_lstm1_unit_21"
  type: "LSTMUnit"
  bottom: "c_20"
  bottom: "gate_input_21"
  bottom: "cont_21"
  top: "c_21"
  top: "h_21"
}
layer {
  name: "HHA_lstm1_h_conted_21"
  type: "Eltwise"
  bottom: "h_21"
  bottom: "cont_22"
  top: "h_conted_21"
  eltwise_param {
    operation: SUM
    coeff_blob: true
  }
}
layer {
  name: "HHA_lstm1_transform_22"
  type: "InnerProduct"
  bottom: "h_conted_21"
  top: "W_hc_h_21"
  param {
    name: "W_hc"
  }
  inner_product_param {
    num_output: 400
    bias_term: false
    weight_filler {
      type: "uniform"
      min: -0.01
      max: 0.01
    }
    axis: 2
  }
}
layer {
  name: "HHA_lstm1_gate_input_22"
  type: "Eltwise"
  bottom: "W_hc_h_21"
  bottom: "W_xc_x_22"
  top: "gate_input_22"
  eltwise_param {
    operation: SUM
  }
}
layer {
  name: "HHA_lstm1_unit_22"
  type: "LSTMUnit"
  bottom: "c_21"
  bottom: "gate_input_22"
  bottom: "cont_22"
  top: "c_22"
  top: "h_22"
}
layer {
  name: "HHA_lstm1_h_conted_22"
  type: "Eltwise"
  bottom: "h_22"
  bottom: "cont_23"
  top: "h_conted_22"
  eltwise_param {
    operation: SUM
    coeff_blob: true
  }
}
layer {
  name: "HHA_lstm1_transform_23"
  type: "InnerProduct"
  bottom: "h_conted_22"
  top: "W_hc_h_22"
  param {
    name: "W_hc"
  }
  inner_product_param {
    num_output: 400
    bias_term: false
    weight_filler {
      type: "uniform"
      min: -0.01
      max: 0.01
    }
    axis: 2
  }
}
layer {
  name: "HHA_lstm1_gate_input_23"
  type: "Eltwise"
  bottom: "W_hc_h_22"
  bottom: "W_xc_x_23"
  top: "gate_input_23"
  eltwise_param {
    operation: SUM
  }
}
layer {
  name: "HHA_lstm1_unit_23"
  type: "LSTMUnit"
  bottom: "c_22"
  bottom: "gate_input_23"
  bottom: "cont_23"
  top: "c_23"
  top: "h_23"
}
layer {
  name: "HHA_lstm1_h_conted_23"
  type: "Eltwise"
  bottom: "h_23"
  bottom: "cont_24"
  top: "h_conted_23"
  eltwise_param {
    operation: SUM
    coeff_blob: true
  }
}
layer {
  name: "HHA_lstm1_transform_24"
  type: "InnerProduct"
  bottom: "h_conted_23"
  top: "W_hc_h_23"
  param {
    name: "W_hc"
  }
  inner_product_param {
    num_output: 400
    bias_term: false
    weight_filler {
      type: "uniform"
      min: -0.01
      max: 0.01
    }
    axis: 2
  }
}
layer {
  name: "HHA_lstm1_gate_input_24"
  type: "Eltwise"
  bottom: "W_hc_h_23"
  bottom: "W_xc_x_24"
  top: "gate_input_24"
  eltwise_param {
    operation: SUM
  }
}
layer {
  name: "HHA_lstm1_unit_24"
  type: "LSTMUnit"
  bottom: "c_23"
  bottom: "gate_input_24"
  bottom: "cont_24"
  top: "c_24"
  top: "h_24"
}
layer {
  name: "HHA_lstm1_h_conted_24"
  type: "Eltwise"
  bottom: "h_24"
  bottom: "cont_25"
  top: "h_conted_24"
  eltwise_param {
    operation: SUM
    coeff_blob: true
  }
}
layer {
  name: "HHA_lstm1_transform_25"
  type: "InnerProduct"
  bottom: "h_conted_24"
  top: "W_hc_h_24"
  param {
    name: "W_hc"
  }
  inner_product_param {
    num_output: 400
    bias_term: false
    weight_filler {
      type: "uniform"
      min: -0.01
      max: 0.01
    }
    axis: 2
  }
}
layer {
  name: "HHA_lstm1_gate_input_25"
  type: "Eltwise"
  bottom: "W_hc_h_24"
  bottom: "W_xc_x_25"
  top: "gate_input_25"
  eltwise_param {
    operation: SUM
  }
}
layer {
  name: "HHA_lstm1_unit_25"
  type: "LSTMUnit"
  bottom: "c_24"
  bottom: "gate_input_25"
  bottom: "cont_25"
  top: "c_25"
  top: "h_25"
}
layer {
  name: "HHA_lstm1_h_conted_25"
  type: "Eltwise"
  bottom: "h_25"
  bottom: "cont_26"
  top: "h_conted_25"
  eltwise_param {
    operation: SUM
    coeff_blob: true
  }
}
layer {
  name: "HHA_lstm1_transform_26"
  type: "InnerProduct"
  bottom: "h_conted_25"
  top: "W_hc_h_25"
  param {
    name: "W_hc"
  }
  inner_product_param {
    num_output: 400
    bias_term: false
    weight_filler {
      type: "uniform"
      min: -0.01
      max: 0.01
    }
    axis: 2
  }
}
layer {
  name: "HHA_lstm1_gate_input_26"
  type: "Eltwise"
  bottom: "W_hc_h_25"
  bottom: "W_xc_x_26"
  top: "gate_input_26"
  eltwise_param {
    operation: SUM
  }
}
layer {
  name: "HHA_lstm1_unit_26"
  type: "LSTMUnit"
  bottom: "c_25"
  bottom: "gate_input_26"
  bottom: "cont_26"
  top: "c_26"
  top: "h_26"
}
layer {
  name: "HHA_lstm1_h_conted_26"
  type: "Eltwise"
  bottom: "h_26"
  bottom: "cont_27"
  top: "h_conted_26"
  eltwise_param {
    operation: SUM
    coeff_blob: true
  }
}
layer {
  name: "HHA_lstm1_transform_27"
  type: "InnerProduct"
  bottom: "h_conted_26"
  top: "W_hc_h_26"
  param {
    name: "W_hc"
  }
  inner_product_param {
    num_output: 400
    bias_term: false
    weight_filler {
      type: "uniform"
      min: -0.01
      max: 0.01
    }
    axis: 2
  }
}
layer {
  name: "HHA_lstm1_gate_input_27"
  type: "Eltwise"
  bottom: "W_hc_h_26"
  bottom: "W_xc_x_27"
  top: "gate_input_27"
  eltwise_param {
    operation: SUM
  }
}
layer {
  name: "HHA_lstm1_unit_27"
  type: "LSTMUnit"
  bottom: "c_26"
  bottom: "gate_input_27"
  bottom: "cont_27"
  top: "c_27"
  top: "h_27"
}
layer {
  name: "HHA_lstm1_h_conted_27"
  type: "Eltwise"
  bottom: "h_27"
  bottom: "cont_28"
  top: "h_conted_27"
  eltwise_param {
    operation: SUM
    coeff_blob: true
  }
}
layer {
  name: "HHA_lstm1_transform_28"
  type: "InnerProduct"
  bottom: "h_conted_27"
  top: "W_hc_h_27"
  param {
    name: "W_hc"
  }
  inner_product_param {
    num_output: 400
    bias_term: false
    weight_filler {
      type: "uniform"
      min: -0.01
      max: 0.01
    }
    axis: 2
  }
}
layer {
  name: "HHA_lstm1_gate_input_28"
  type: "Eltwise"
  bottom: "W_hc_h_27"
  bottom: "W_xc_x_28"
  top: "gate_input_28"
  eltwise_param {
    operation: SUM
  }
}
layer {
  name: "HHA_lstm1_unit_28"
  type: "LSTMUnit"
  bottom: "c_27"
  bottom: "gate_input_28"
  bottom: "cont_28"
  top: "c_28"
  top: "h_28"
}
layer {
  name: "HHA_lstm1_h_conted_28"
  type: "Eltwise"
  bottom: "h_28"
  bottom: "cont_29"
  top: "h_conted_28"
  eltwise_param {
    operation: SUM
    coeff_blob: true
  }
}
layer {
  name: "HHA_lstm1_transform_29"
  type: "InnerProduct"
  bottom: "h_conted_28"
  top: "W_hc_h_28"
  param {
    name: "W_hc"
  }
  inner_product_param {
    num_output: 400
    bias_term: false
    weight_filler {
      type: "uniform"
      min: -0.01
      max: 0.01
    }
    axis: 2
  }
}
layer {
  name: "HHA_lstm1_gate_input_29"
  type: "Eltwise"
  bottom: "W_hc_h_28"
  bottom: "W_xc_x_29"
  top: "gate_input_29"
  eltwise_param {
    operation: SUM
  }
}
layer {
  name: "HHA_lstm1_unit_29"
  type: "LSTMUnit"
  bottom: "c_28"
  bottom: "gate_input_29"
  bottom: "cont_29"
  top: "c_29"
  top: "h_29"
}
layer {
  name: "HHA_lstm1_h_conted_29"
  type: "Eltwise"
  bottom: "h_29"
  bottom: "cont_30"
  top: "h_conted_29"
  eltwise_param {
    operation: SUM
    coeff_blob: true
  }
}
layer {
  name: "HHA_lstm1_transform_30"
  type: "InnerProduct"
  bottom: "h_conted_29"
  top: "W_hc_h_29"
  param {
    name: "W_hc"
  }
  inner_product_param {
    num_output: 400
    bias_term: false
    weight_filler {
      type: "uniform"
      min: -0.01
      max: 0.01
    }
    axis: 2
  }
}
layer {
  name: "HHA_lstm1_gate_input_30"
  type: "Eltwise"
  bottom: "W_hc_h_29"
  bottom: "W_xc_x_30"
  top: "gate_input_30"
  eltwise_param {
    operation: SUM
  }
}
layer {
  name: "HHA_lstm1_unit_30"
  type: "LSTMUnit"
  bottom: "c_29"
  bottom: "gate_input_30"
  bottom: "cont_30"
  top: "c_30"
  top: "h_30"
}
layer {
  name: "HHA_lstm1_h_conted_30"
  type: "Eltwise"
  bottom: "h_30"
  bottom: "cont_31"
  top: "h_conted_30"
  eltwise_param {
    operation: SUM
    coeff_blob: true
  }
}
layer {
  name: "HHA_lstm1_transform_31"
  type: "InnerProduct"
  bottom: "h_conted_30"
  top: "W_hc_h_30"
  param {
    name: "W_hc"
  }
  inner_product_param {
    num_output: 400
    bias_term: false
    weight_filler {
      type: "uniform"
      min: -0.01
      max: 0.01
    }
    axis: 2
  }
}
layer {
  name: "HHA_lstm1_gate_input_31"
  type: "Eltwise"
  bottom: "W_hc_h_30"
  bottom: "W_xc_x_31"
  top: "gate_input_31"
  eltwise_param {
    operation: SUM
  }
}
layer {
  name: "HHA_lstm1_unit_31"
  type: "LSTMUnit"
  bottom: "c_30"
  bottom: "gate_input_31"
  bottom: "cont_31"
  top: "c_31"
  top: "h_31"
}
layer {
  name: "HHA_lstm1_h_conted_31"
  type: "Eltwise"
  bottom: "h_31"
  bottom: "cont_32"
  top: "h_conted_31"
  eltwise_param {
    operation: SUM
    coeff_blob: true
  }
}
layer {
  name: "HHA_lstm1_transform_32"
  type: "InnerProduct"
  bottom: "h_conted_31"
  top: "W_hc_h_31"
  param {
    name: "W_hc"
  }
  inner_product_param {
    num_output: 400
    bias_term: false
    weight_filler {
      type: "uniform"
      min: -0.01
      max: 0.01
    }
    axis: 2
  }
}
layer {
  name: "HHA_lstm1_gate_input_32"
  type: "Eltwise"
  bottom: "W_hc_h_31"
  bottom: "W_xc_x_32"
  top: "gate_input_32"
  eltwise_param {
    operation: SUM
  }
}
layer {
  name: "HHA_lstm1_unit_32"
  type: "LSTMUnit"
  bottom: "c_31"
  bottom: "gate_input_32"
  bottom: "cont_32"
  top: "c_32"
  top: "h_32"
}
layer {
  name: "HHA_lstm1_h_conted_32"
  type: "Eltwise"
  bottom: "h_32"
  bottom: "cont_33"
  top: "h_conted_32"
  eltwise_param {
    operation: SUM
    coeff_blob: true
  }
}
layer {
  name: "HHA_lstm1_transform_33"
  type: "InnerProduct"
  bottom: "h_conted_32"
  top: "W_hc_h_32"
  param {
    name: "W_hc"
  }
  inner_product_param {
    num_output: 400
    bias_term: false
    weight_filler {
      type: "uniform"
      min: -0.01
      max: 0.01
    }
    axis: 2
  }
}
layer {
  name: "HHA_lstm1_gate_input_33"
  type: "Eltwise"
  bottom: "W_hc_h_32"
  bottom: "W_xc_x_33"
  top: "gate_input_33"
  eltwise_param {
    operation: SUM
  }
}
layer {
  name: "HHA_lstm1_unit_33"
  type: "LSTMUnit"
  bottom: "c_32"
  bottom: "gate_input_33"
  bottom: "cont_33"
  top: "c_33"
  top: "h_33"
}
layer {
  name: "HHA_lstm1_h_conted_33"
  type: "Eltwise"
  bottom: "h_33"
  bottom: "cont_34"
  top: "h_conted_33"
  eltwise_param {
    operation: SUM
    coeff_blob: true
  }
}
layer {
  name: "HHA_lstm1_transform_34"
  type: "InnerProduct"
  bottom: "h_conted_33"
  top: "W_hc_h_33"
  param {
    name: "W_hc"
  }
  inner_product_param {
    num_output: 400
    bias_term: false
    weight_filler {
      type: "uniform"
      min: -0.01
      max: 0.01
    }
    axis: 2
  }
}
layer {
  name: "HHA_lstm1_gate_input_34"
  type: "Eltwise"
  bottom: "W_hc_h_33"
  bottom: "W_xc_x_34"
  top: "gate_input_34"
  eltwise_param {
    operation: SUM
  }
}
layer {
  name: "HHA_lstm1_unit_34"
  type: "LSTMUnit"
  bottom: "c_33"
  bottom: "gate_input_34"
  bottom: "cont_34"
  top: "c_34"
  top: "h_34"
}
layer {
  name: "HHA_lstm1_h_conted_34"
  type: "Eltwise"
  bottom: "h_34"
  bottom: "cont_35"
  top: "h_c
I1130 21:15:22.720157  3907 net.cpp:341] Input 0 -> x
I1130 21:15:22.720167  3907 net.cpp:341] Input 1 -> cont
I1130 21:15:22.720171  3907 net.cpp:341] Input 2 -> c_0
I1130 21:15:22.720175  3907 net.cpp:341] Input 3 -> h_0
I1130 21:15:22.720196  3907 layer_factory.hpp:74] Creating layer HHA_lstm1_cont_slice
I1130 21:15:22.720203  3907 net.cpp:84] Creating Layer HHA_lstm1_cont_slice
…
I1130 21:15:22.720528  3907 net.cpp:339] HHA_lstm1_cont_slice -> cont_48
I1130 21:15:22.720535  3907 net.cpp:339] HHA_lstm1_cont_slice -> cont_49
I1130 21:15:22.720541  3907 net.cpp:339] HHA_lstm1_cont_slice -> cont_50
I1130 21:15:22.720548  3907 net.cpp:339] HHA_lstm1_cont_slice -> cont_51
I1130 21:15:22.720554  3907 net.cpp:339] HHA_lstm1_cont_slice -> cont_52
I1130 21:15:22.720561  3907 net.cpp:339] HHA_lstm1_cont_slice -> cont_53
I1130 21:15:22.720567  3907 net.cpp:339] HHA_lstm1_cont_slice -> cont_54
I1130 21:15:22.720572  3907 net.cpp:113] Setting up HHA_lstm1_cont_slice
I1130 21:15:22.720585  3907 net.cpp:120] Top shape: 1 1 54 (54)
I1130 21:15:22.720588  3907 net.cpp:120] Top shape: 1 1 54 (54)
I1130 21:15:22.720592  3907 net.cpp:120] Top shape: 1 1 54 (54)
I1130 21:15:22.720595  3907 net.cpp:120] Top shape: 1 1 54 (54)
I1130 21:15:22.720598  3907 net.cpp:120] Top shape: 1 1 54 (54)
I1130 21:15:22.720600  3907 net.cpp:120] Top shape: 1 1 54 (54)
I1130 21:15:22.720604  3907 net.cpp:120] Top shape: 1 1 54 (54)
I1130 21:15:22.720607  3907 net.cpp:120] Top shape: 1 1 54 (54)
I1130 21:15:22.720610  3907 net.cpp:120] Top shape: 1 1 54 (54)
I1130 21:15:22.720613  3907 net.cpp:120] Top shape: 1 1 54 (54)
I1130 21:15:22.720615  3907 net.cpp:120] Top shape: 1 1 54 (54)
I1130 21:15:22.720618  3907 net.cpp:120] Top shape: 1 1 54 (54)
I1130 21:15:22.720621  3907 net.cpp:120] Top shape: 1 1 54 (54)
I1130 21:15:22.720624  3907 net.cpp:120] Top shape: 1 1 54 (54)
I1130 21:15:22.720628  3907 net.cpp:120] Top shape: 1 1 54 (54)
I1130 21:15:22.720630  3907 net.cpp:120] Top shape: 1 1 54 (54)
I1130 21:15:22.720633  3907 net.cpp:120] Top shape: 1 1 54 (54)
I1130 21:15:22.720636  3907 net.cpp:120] Top shape: 1 1 54 (54)
I1130 21:15:22.720639  3907 net.cpp:120] Top shape: 1 1 54 (54)
I1130 21:15:22.720643  3907 net.cpp:120] Top shape: 1 1 54 (54)
I1130 21:15:22.720644  3907 net.cpp:120] Top shape: 1 1 54 (54)
I1130 21:15:22.720648  3907 net.cpp:120] Top shape: 1 1 54 (54)
I1130 21:15:22.720650  3907 net.cpp:120] Top shape: 1 1 54 (54)
I1130 21:15:22.720654  3907 net.cpp:120] Top shape: 1 1 54 (54)
I1130 21:15:22.720656  3907 net.cpp:120] Top shape: 1 1 54 (54)
I1130 21:15:22.720659  3907 net.cpp:120] Top shape: 1 1 54 (54)
I1130 21:15:22.720662  3907 net.cpp:120] Top shape: 1 1 54 (54)
I1130 21:15:22.720664  3907 net.cpp:120] Top shape: 1 1 54 (54)
I1130 21:15:22.720667  3907 net.cpp:120] Top shape: 1 1 54 (54)
I1130 21:15:22.720670  3907 net.cpp:120] Top shape: 1 1 54 (54)
I1130 21:15:22.720674  3907 net.cpp:120] Top shape: 1 1 54 (54)
I1130 21:15:22.720676  3907 net.cpp:120] Top shape: 1 1 54 (54)
I1130 21:15:22.720679  3907 net.cpp:120] Top shape: 1 1 54 (54)
I1130 21:15:22.720681  3907 net.cpp:120] Top shape: 1 1 54 (54)
I1130 21:15:22.720685  3907 net.cpp:120] Top shape: 1 1 54 (54)
I1130 21:15:22.720687  3907 net.cpp:120] Top shape: 1 1 54 (54)
I1130 21:15:22.720690  3907 net.cpp:120] Top shape: 1 1 54 (54)
I1130 21:15:22.720693  3907 net.cpp:120] Top shape: 1 1 54 (54)
I1130 21:15:22.720696  3907 net.cpp:120] Top shape: 1 1 54 (54)
I1130 21:15:22.720701  3907 net.cpp:120] Top shape: 1 1 54 (54)
I1130 21:15:22.720706  3907 net.cpp:120] Top shape: 1 1 54 (54)
I1130 21:15:22.720710  3907 net.cpp:120] Top shape: 1 1 54 (54)
I1130 21:15:22.720713  3907 net.cpp:120] Top shape: 1 1 54 (54)
I1130 21:15:22.720715  3907 net.cpp:120] Top shape: 1 1 54 (54)
I1130 21:15:22.720718  3907 net.cpp:120] Top shape: 1 1 54 (54)
I1130 21:15:22.720721  3907 net.cpp:120] Top shape: 1 1 54 (54)
I1130 21:15:22.720724  3907 net.cpp:120] Top shape: 1 1 54 (54)
I1130 21:15:22.720727  3907 net.cpp:120] Top shape: 1 1 54 (54)
I1130 21:15:22.720731  3907 net.cpp:120] Top shape: 1 1 54 (54)
I1130 21:15:22.720733  3907 net.cpp:120] Top shape: 1 1 54 (54)
I1130 21:15:22.720736  3907 net.cpp:120] Top shape: 1 1 54 (54)
I1130 21:15:22.720739  3907 net.cpp:120] Top shape: 1 1 54 (54)
I1130 21:15:22.720741  3907 net.cpp:120] Top shape: 1 1 54 (54)
I1130 21:15:22.720744  3907 net.cpp:120] Top shape: 1 1 54 (54)
I1130 21:15:22.720747  3907 layer_factory.hpp:74] Creating layer cont_1_HHA_lstm1_cont_slice_0_split
I1130 21:15:22.720752  3907 net.cpp:84] Creating Layer cont_1_HHA_lstm1_cont_slice_0_split
I1130 21:15:22.720754  3907 net.cpp:381] cont_1_HHA_lstm1_cont_slice_0_split <- cont_1
I1130 21:15:22.720758  3907 net.cpp:339] cont_1_HHA_lstm1_cont_slice_0_split -> cont_1_HHA_lstm1_cont_slice_0_split_0
I1130 21:15:22.720763  3907 net.cpp:339] cont_1_HHA_lstm1_cont_slice_0_split -> cont_1_HHA_lstm1_cont_slice_0_split_1
I1130 21:15:22.720767  3907 net.cpp:113] Setting up cont_1_HHA_lstm1_cont_slice_0_split
I1130 21:15:22.720772  3907 net.cpp:120] Top shape: 1 1 54 (54)
I1130 21:15:22.720774  3907 net.cpp:120] Top shape: 1 1 54 (54)
I1130 21:15:22.720777  3907 layer_factory.hpp:74] Creating layer cont_2_HHA_lstm1_cont_slice_1_split
I1130 21:15:22.720782  3907 net.cpp:84] Creating Layer cont_2_HHA_lstm1_cont_slice_1_split
I1130 21:15:22.720783  3907 net.cpp:381] cont_2_HHA_lstm1_cont_slice_1_split <- cont_2
I1130 21:15:22.720788  3907 net.cpp:339] cont_2_HHA_lstm1_cont_slice_1_split -> cont_2_HHA_lstm1_cont_slice_1_split_0
I1130 21:15:22.720793  3907 net.cpp:339] cont_2_HHA_lstm1_cont_slice_1_split -> cont_2_HHA_lstm1_cont_slice_1_split_1
I1130 21:15:22.720796  3907 net.cpp:113] Setting up cont_2_HHA_lstm1_cont_slice_1_split
I1130 21:15:22.720799  3907 net.cpp:120] Top shape: 1 1 54 (54)
I1130 21:15:22.720803  3907 net.cpp:120] Top shape: 1 1 54 (54)
I1130 21:15:22.720805  3907 layer_factory.hpp:74] Creating layer cont_3_HHA_lstm1_cont_slice_2_split
I1130 21:15:22.720808  3907 net.cpp:84] Creating Layer cont_3_HHA_lstm1_cont_slice_2_split
I1130 21:15:22.720811  3907 net.cpp:381] cont_3_HHA_lstm1_cont_slice_2_split <- cont_3
I1130 21:15:22.720814  3907 net.cpp:339] cont_3_HHA_lstm1_cont_slice_2_split -> cont_3_HHA_lstm1_cont_slice_2_split_0
I1130 21:15:22.720819  3907 net.cpp:339] cont_3_HHA_lstm1_cont_slice_2_split -> cont_3_HHA_lstm1_cont_slice_2_split_1
I1130 21:15:22.720824  3907 net.cpp:113] Setting up cont_3_HHA_lstm1_cont_slice_2_split
I1130 21:15:22.720826  3907 net.cpp:120] Top shape: 1 1 54 (54)
I1130 21:15:22.720829  3907 net.cpp:120] Top shape: 1 1 54 (54)
I1130 21:15:22.720831  3907 layer_factory.hpp:74] Creating layer cont_4_HHA_lstm1_cont_slice_3_split
I1130 21:15:22.720835  3907 net.cpp:84] Creating Layer cont_4_HHA_lstm1_cont_slice_3_split
I1130 21:15:22.720839  3907 net.cpp:381] cont_4_HHA_lstm1_cont_slice_3_split <- cont_4
I1130 21:15:22.720841  3907 net.cpp:339] cont_4_HHA_lstm1_cont_slice_3_split -> cont_4_HHA_lstm1_cont_slice_3_split_0
I1130 21:15:22.720849  3907 net.cpp:339] cont_4_HHA_lstm1_cont_slice_3_split -> cont_4_HHA_lstm1_cont_slice_3_split_1
I1130 21:15:22.720852  3907 net.cpp:113] Setting up cont_4_HHA_lstm1_cont_slice_3_split
I1130 21:15:22.720856  3907 net.cpp:120] Top shape: 1 1 54 (54)
I1130 21:15:22.720860  3907 net.cpp:120] Top shape: 1 1 54 (54)
I1130 21:15:22.720861  3907 layer_factory.hpp:74] Creating layer cont_5_HHA_lstm1_cont_slice_4_split
I1130 21:15:22.720865  3907 net.cpp:84] Creating Layer cont_5_HHA_lstm1_cont_slice_4_split
I1130 21:15:22.720867  3907 net.cpp:381] cont_5_HHA_lstm1_cont_slice_4_split <- cont_5
I1130 21:15:22.720875  3907 net.cpp:339] cont_5_HHA_lstm1_cont_slice_4_split -> cont_5_HHA_lstm1_cont_slice_4_split_0
I1130 21:15:22.720880  3907 net.cpp:339] cont_5_HHA_lstm1_cont_slice_4_split -> cont_5_HHA_lstm1_cont_slice_4_split_1
I1130 21:15:22.720885  3907 net.cpp:113] Setting up cont_5_HHA_lstm1_cont_slice_4_split
I1130 21:15:22.720887  3907 net.cpp:120] Top shape: 1 1 54 (54)
I1130 21:15:22.720890  3907 net.cpp:120] Top shape: 1 1 54 (54)
I1130 21:15:22.720892  3907 layer_factory.hpp:74] Creating layer cont_6_HHA_lstm1_cont_slice_5_split
I1130 21:15:22.720896  3907 net.cpp:84] Creating Layer cont_6_HHA_lstm1_cont_slice_5_split
I1130 21:15:22.720899  3907 net.cpp:381] cont_6_HHA_lstm1_cont_slice_5_split <- cont_6
I1130 21:15:22.720902  3907 net.cpp:339] cont_6_HHA_lstm1_cont_slice_5_split -> cont_6_HHA_lstm1_cont_slice_5_split_0
I1130 21:15:22.720906  3907 net.cpp:339] cont_6_HHA_lstm1_cont_slice_5_split -> cont_6_HHA_lstm1_cont_slice_5_split_1
I1130 21:15:22.720911  3907 net.cpp:113] Setting up cont_6_HHA_lstm1_cont_slice_5_split
I1130 21:15:22.720913  3907 net.cpp:120] Top shape: 1 1 54 (54)
I1130 21:15:22.720916  3907 net.cpp:120] Top shape: 1 1 54 (54)
I1130 21:15:22.720919  3907 layer_factory.hpp:74] Creating layer cont_7_HHA_lstm1_cont_slice_6_split
I1130 21:15:22.720922  3907 net.cpp:84] Creating Layer cont_7_HHA_lstm1_cont_slice_6_split
I1130 21:15:22.720924  3907 net.cpp:381] cont_7_HHA_lstm1_cont_slice_6_split <- cont_7
I1130 21:15:22.720928  3907 net.cpp:339] cont_7_HHA_lstm1_cont_slice_6_split -> cont_7_HHA_lstm1_cont_slice_6_split_0
I1130 21:15:22.720932  3907 net.cpp:339] cont_7_HHA_lstm1_cont_slice_6_split -> cont_7_HHA_lstm1_cont_slice_6_split_1
I1130 21:15:22.720937  3907 net.cpp:113] Setting up cont_7_HHA_lstm1_cont_slice_6_split
I1130 21:15:22.720939  3907 net.cpp:120] Top shape: 1 1 54 (54)
I1130 21:15:22.720942  3907 net.cpp:120] Top shape: 1 1 54 (54)
I1130 21:15:22.720944  3907 layer_factory.hpp:74] Creating layer cont_8_HHA_lstm1_cont_slice_7_split
I1130 21:15:22.720949  3907 net.cpp:84] Creating Layer cont_8_HHA_lstm1_cont_slice_7_split
I1130 21:15:22.720952  3907 net.cpp:381] cont_8_HHA_lstm1_cont_slice_7_split <- cont_8
I1130 21:15:22.720955  3907 net.cpp:339] cont_8_HHA_lstm1_cont_slice_7_split -> cont_8_HHA_lstm1_cont_slice_7_split_0
I1130 21:15:22.720959  3907 net.cpp:339] cont_8_HHA_lstm1_cont_slice_7_split -> cont_8_HHA_lstm1_cont_slice_7_split_1
I1130 21:15:22.720963  3907 net.cpp:113] Setting up cont_8_HHA_lstm1_cont_slice_7_split
I1130 21:15:22.720968  3907 net.cpp:120] Top shape: 1 1 54 (54)
I1130 21:15:22.720969  3907 net.cpp:120] Top shape: 1 1 54 (54)
I1130 21:15:22.720973  3907 layer_factory.hpp:74] Creating layer cont_9_HHA_lstm1_cont_slice_8_split
I1130 21:15:22.720975  3907 net.cpp:84] Creating Layer cont_9_HHA_lstm1_cont_slice_8_split
I1130 21:15:22.720978  3907 net.cpp:381] cont_9_HHA_lstm1_cont_slice_8_split <- cont_9
I1130 21:15:22.720981  3907 net.cpp:339] cont_9_HHA_lstm1_cont_slice_8_split -> cont_9_HHA_lstm1_cont_slice_8_split_0
I1130 21:15:22.720986  3907 net.cpp:339] cont_9_HHA_lstm1_cont_slice_8_split -> cont_9_HHA_lstm1_cont_slice_8_split_1
I1130 21:15:22.720989  3907 net.cpp:113] Setting up cont_9_HHA_lstm1_cont_slice_8_split
I1130 21:15:22.720993  3907 net.cpp:120] Top shape: 1 1 54 (54)
I1130 21:15:22.720996  3907 net.cpp:120] Top shape: 1 1 54 (54)
I1130 21:15:22.720999  3907 layer_factory.hpp:74] Creating layer cont_10_HHA_lstm1_cont_slice_9_split
I1130 21:15:22.721001  3907 net.cpp:84] Creating Layer cont_10_HHA_lstm1_cont_slice_9_split
I1130 21:15:22.721004  3907 net.cpp:381] cont_10_HHA_lstm1_cont_slice_9_split <- cont_10
I1130 21:15:22.721009  3907 net.cpp:339] cont_10_HHA_lstm1_cont_slice_9_split -> cont_10_HHA_lstm1_cont_slice_9_split_0
I1130 21:15:22.721012  3907 net.cpp:339] cont_10_HHA_lstm1_cont_slice_9_split -> cont_10_HHA_lstm1_cont_slice_9_split_1
I1130 21:15:22.721016  3907 net.cpp:113] Setting up cont_10_HHA_lstm1_cont_slice_9_split
I1130 21:15:22.721019  3907 net.cpp:120] Top shape: 1 1 54 (54)
I1130 21:15:22.721025  3907 net.cpp:120] Top shape: 1 1 54 (54)
I1130 21:15:22.721030  3907 layer_factory.hpp:74] Creating layer cont_11_HHA_lstm1_cont_slice_10_split
I1130 21:15:22.721034  3907 net.cpp:84] Creating Layer cont_11_HHA_lstm1_cont_slice_10_split
I1130 21:15:22.721036  3907 net.cpp:381] cont_11_HHA_lstm1_cont_slice_10_split <- cont_11
I1130 21:15:22.721040  3907 net.cpp:339] cont_11_HHA_lstm1_cont_slice_10_split -> cont_11_HHA_lstm1_cont_slice_10_split_0
I1130 21:15:22.721045  3907 net.cpp:339] cont_11_HHA_lstm1_cont_slice_10_split -> cont_11_HHA_lstm1_cont_slice_10_split_1
I1130 21:15:22.721048  3907 net.cpp:113] Setting up cont_11_HHA_lstm1_cont_slice_10_split
I1130 21:15:22.721052  3907 net.cpp:120] Top shape: 1 1 54 (54)
I1130 21:15:22.721055  3907 net.cpp:120] Top shape: 1 1 54 (54)
I1130 21:15:22.721057  3907 layer_factory.hpp:74] Creating layer cont_12_HHA_lstm1_cont_slice_11_split
I1130 21:15:22.721060  3907 net.cpp:84] Creating Layer cont_12_HHA_lstm1_cont_slice_11_split
I1130 21:15:22.721063  3907 net.cpp:381] cont_12_HHA_lstm1_cont_slice_11_split <- cont_12
I1130 21:15:22.721067  3907 net.cpp:339] cont_12_HHA_lstm1_cont_slice_11_split -> cont_12_HHA_lstm1_cont_slice_11_split_0
I1130 21:15:22.721072  3907 net.cpp:339] cont_12_HHA_lstm1_cont_slice_11_split -> cont_12_HHA_lstm1_cont_slice_11_split_1
I1130 21:15:22.721076  3907 net.cpp:113] Setting up cont_12_HHA_lstm1_cont_slice_11_split
I1130 21:15:22.721079  3907 net.cpp:120] Top shape: 1 1 54 (54)
I1130 21:15:22.721082  3907 net.cpp:120] Top shape: 1 1 54 (54)
I1130 21:15:22.721086  3907 layer_factory.hpp:74] Creating layer cont_13_HHA_lstm1_cont_slice_12_split
I1130 21:15:22.721088  3907 net.cpp:84] Creating Layer cont_13_HHA_lstm1_cont_slice_12_split
I1130 21:15:22.721091  3907 net.cpp:381] cont_13_HHA_lstm1_cont_slice_12_split <- cont_13
I1130 21:15:22.721096  3907 net.cpp:339] cont_13_HHA_lstm1_cont_slice_12_split -> cont_13_HHA_lstm1_cont_slice_12_split_0
I1130 21:15:22.721101  3907 net.cpp:339] cont_13_HHA_lstm1_cont_slice_12_split -> cont_13_HHA_lstm1_cont_slice_12_split_1
I1130 21:15:22.721104  3907 net.cpp:113] Setting up cont_13_HHA_lstm1_cont_slice_12_split
I1130 21:15:22.721107  3907 net.cpp:120] Top shape: 1 1 54 (54)
I1130 21:15:22.721112  3907 net.cpp:120] Top shape: 1 1 54 (54)
I1130 21:15:22.721113  3907 layer_factory.hpp:74] Creating layer cont_14_HHA_lstm1_cont_slice_13_split
I1130 21:15:22.721117  3907 net.cpp:84] Creating Layer cont_14_HHA_lstm1_cont_slice_13_split
I1130 21:15:22.721118  3907 net.cpp:381] cont_14_HHA_lstm1_cont_slice_13_split <- cont_14
I1130 21:15:22.721123  3907 net.cpp:339] cont_14_HHA_lstm1_cont_slice_13_split -> cont_14_HHA_lstm1_cont_slice_13_split_0
I1130 21:15:22.721127  3907 net.cpp:339] cont_14_HHA_lstm1_cont_slice_13_split -> cont_14_HHA_lstm1_cont_slice_13_split_1
I1130 21:15:22.721132  3907 net.cpp:113] Setting up cont_14_HHA_lstm1_cont_slice_13_split
I1130 21:15:22.721135  3907 net.cpp:120] Top shape: 1 1 54 (54)
I1130 21:15:22.721138  3907 net.cpp:120] Top shape: 1 1 54 (54)
I1130 21:15:22.721141  3907 layer_factory.hpp:74] Creating layer cont_15_HHA_lstm1_cont_slice_14_split
I1130 21:15:22.721143  3907 net.cpp:84] Creating Layer cont_15_HHA_lstm1_cont_slice_14_split
I1130 21:15:22.721146  3907 net.cpp:381] cont_15_HHA_lstm1_cont_slice_14_split <- cont_15
I1130 21:15:22.721150  3907 net.cpp:339] cont_15_HHA_lstm1_cont_slice_14_split -> cont_15_HHA_lstm1_cont_slice_14_split_0
I1130 21:15:22.721154  3907 net.cpp:339] cont_15_HHA_lstm1_cont_slice_14_split -> cont_15_HHA_lstm1_cont_slice_14_split_1
I1130 21:15:22.721158  3907 net.cpp:113] Setting up cont_15_HHA_lstm1_cont_slice_14_split
I1130 21:15:22.721161  3907 net.cpp:120] Top shape: 1 1 54 (54)
I1130 21:15:22.721165  3907 net.cpp:120] Top shape: 1 1 54 (54)
I1130 21:15:22.721168  3907 layer_factory.hpp:74] Creating layer cont_16_HHA_lstm1_cont_slice_15_split
I1130 21:15:22.721173  3907 net.cpp:84] Creating Layer cont_16_HHA_lstm1_cont_slice_15_split
I1130 21:15:22.721175  3907 net.cpp:381] cont_16_HHA_lstm1_cont_slice_15_split <- cont_16
I1130 21:15:22.721181  3907 net.cpp:339] cont_16_HHA_lstm1_cont_slice_15_split -> cont_16_HHA_lstm1_cont_slice_15_split_0
I1130 21:15:22.721189  3907 net.cpp:339] cont_16_HHA_lstm1_cont_slice_15_split -> cont_16_HHA_lstm1_cont_slice_15_split_1
I1130 21:15:22.721192  3907 net.cpp:113] Setting up cont_16_HHA_lstm1_cont_slice_15_split
I1130 21:15:22.721195  3907 net.cpp:120] Top shape: 1 1 54 (54)
I1130 21:15:22.721199  3907 net.cpp:120] Top shape: 1 1 54 (54)
I1130 21:15:22.721201  3907 layer_factory.hpp:74] Creating layer cont_17_HHA_lstm1_cont_slice_16_split
I1130 21:15:22.721205  3907 net.cpp:84] Creating Layer cont_17_HHA_lstm1_cont_slice_16_split
I1130 21:15:22.721207  3907 net.cpp:381] cont_17_HHA_lstm1_cont_slice_16_split <- cont_17
I1130 21:15:22.721211  3907 net.cpp:339] cont_17_HHA_lstm1_cont_slice_16_split -> cont_17_HHA_lstm1_cont_slice_16_split_0
I1130 21:15:22.721215  3907 net.cpp:339] cont_17_HHA_lstm1_cont_slice_16_split -> cont_17_HHA_lstm1_cont_slice_16_split_1
I1130 21:15:22.721220  3907 net.cpp:113] Setting up cont_17_HHA_lstm1_cont_slice_16_split
I1130 21:15:22.721223  3907 net.cpp:120] Top shape: 1 1 54 (54)
I1130 21:15:22.721226  3907 net.cpp:120] Top shape: 1 1 54 (54)
I1130 21:15:22.721230  3907 layer_factory.hpp:74] Creating layer cont_18_HHA_lstm1_cont_slice_17_split
I1130 21:15:22.721231  3907 net.cpp:84] Creating Layer cont_18_HHA_lstm1_cont_slice_17_split
I1130 21:15:22.721235  3907 net.cpp:381] cont_18_HHA_lstm1_cont_slice_17_split <- cont_18
I1130 21:15:22.721238  3907 net.cpp:339] cont_18_HHA_lstm1_cont_slice_17_split -> cont_18_HHA_lstm1_cont_slice_17_split_0
I1130 21:15:22.721242  3907 net.cpp:339] cont_18_HHA_lstm1_cont_slice_17_split -> cont_18_HHA_lstm1_cont_slice_17_split_1
I1130 21:15:22.721246  3907 net.cpp:113] Setting up cont_18_HHA_lstm1_cont_slice_17_split
I1130 21:15:22.721249  3907 net.cpp:120] Top shape: 1 1 54 (54)
I1130 21:15:22.721253  3907 net.cpp:120] Top shape: 1 1 54 (54)
I1130 21:15:22.721256  3907 layer_factory.hpp:74] Creating layer cont_19_HHA_lstm1_cont_slice_18_split
I1130 21:15:22.721258  3907 net.cpp:84] Creating Layer cont_19_HHA_lstm1_cont_slice_18_split
I1130 21:15:22.721261  3907 net.cpp:381] cont_19_HHA_lstm1_cont_slice_18_split <- cont_19
I1130 21:15:22.721264  3907 net.cpp:339] cont_19_HHA_lstm1_cont_slice_18_split -> cont_19_HHA_lstm1_cont_slice_18_split_0
I1130 21:15:22.721269  3907 net.cpp:339] cont_19_HHA_lstm1_cont_slice_18_split -> cont_19_HHA_lstm1_cont_slice_18_split_1
I1130 21:15:22.721272  3907 net.cpp:113] Setting up cont_19_HHA_lstm1_cont_slice_18_split
I1130 21:15:22.721276  3907 net.cpp:120] Top shape: 1 1 54 (54)
I1130 21:15:22.721279  3907 net.cpp:120] Top shape: 1 1 54 (54)
I1130 21:15:22.721282  3907 layer_factory.hpp:74] Creating layer cont_20_HHA_lstm1_cont_slice_19_split
I1130 21:15:22.721284  3907 net.cpp:84] Creating Layer cont_20_HHA_lstm1_cont_slice_19_split
I1130 21:15:22.721287  3907 net.cpp:381] cont_20_HHA_lstm1_cont_slice_19_split <- cont_20
I1130 21:15:22.721292  3907 net.cpp:339] cont_20_HHA_lstm1_cont_slice_19_split -> cont_20_HHA_lstm1_cont_slice_19_split_0
I1130 21:15:22.721295  3907 net.cpp:339] cont_20_HHA_lstm1_cont_slice_19_split -> cont_20_HHA_lstm1_cont_slice_19_split_1
I1130 21:15:22.721299  3907 net.cpp:113] Setting up cont_20_HHA_lstm1_cont_slice_19_split
I1130 21:15:22.721302  3907 net.cpp:120] Top shape: 1 1 54 (54)
I1130 21:15:22.721305  3907 net.cpp:120] Top shape: 1 1 54 (54)
I1130 21:15:22.721308  3907 layer_factory.hpp:74] Creating layer cont_21_HHA_lstm1_cont_slice_20_split
I1130 21:15:22.721312  3907 net.cpp:84] Creating Layer cont_21_HHA_lstm1_cont_slice_20_split
I1130 21:15:22.721314  3907 net.cpp:381] cont_21_HHA_lstm1_cont_slice_20_split <- cont_21
I1130 21:15:22.721318  3907 net.cpp:339] cont_21_HHA_lstm1_cont_slice_20_split -> cont_21_HHA_lstm1_cont_slice_20_split_0
I1130 21:15:22.721323  3907 net.cpp:339] cont_21_HHA_lstm1_cont_slice_20_split -> cont_21_HHA_lstm1_cont_slice_20_split_1
I1130 21:15:22.721325  3907 net.cpp:113] Setting up cont_21_HHA_lstm1_cont_slice_20_split
I1130 21:15:22.721330  3907 net.cpp:120] Top shape: 1 1 54 (54)
I1130 21:15:22.721338  3907 net.cpp:120] Top shape: 1 1 54 (54)
I1130 21:15:22.721339  3907 layer_factory.hpp:74] Creating layer cont_22_HHA_lstm1_cont_slice_21_split
I1130 21:15:22.721343  3907 net.cpp:84] Creating Layer cont_22_HHA_lstm1_cont_slice_21_split
I1130 21:15:22.721346  3907 net.cpp:381] cont_22_HHA_lstm1_cont_slice_21_split <- cont_22
I1130 21:15:22.721350  3907 net.cpp:339] cont_22_HHA_lstm1_cont_slice_21_split -> cont_22_HHA_lstm1_cont_slice_21_split_0
I1130 21:15:22.721354  3907 net.cpp:339] cont_22_HHA_lstm1_cont_slice_21_split -> cont_22_HHA_lstm1_cont_slice_21_split_1
I1130 21:15:22.721357  3907 net.cpp:113] Setting up cont_22_HHA_lstm1_cont_slice_21_split
I1130 21:15:22.721361  3907 net.cpp:120] Top shape: 1 1 54 (54)
I1130 21:15:22.721364  3907 net.cpp:120] Top shape: 1 1 54 (54)
I1130 21:15:22.721366  3907 layer_factory.hpp:74] Creating layer cont_23_HHA_lstm1_cont_slice_22_split
I1130 21:15:22.721369  3907 net.cpp:84] Creating Layer cont_23_HHA_lstm1_cont_slice_22_split
I1130 21:15:22.721371  3907 net.cpp:381] cont_23_HHA_lstm1_cont_slice_22_split <- cont_23
I1130 21:15:22.721375  3907 net.cpp:339] cont_23_HHA_lstm1_cont_slice_22_split -> cont_23_HHA_lstm1_cont_slice_22_split_0
I1130 21:15:22.721380  3907 net.cpp:339] cont_23_HHA_lstm1_cont_slice_22_split -> cont_23_HHA_lstm1_cont_slice_22_split_1
I1130 21:15:22.721384  3907 net.cpp:113] Setting up cont_23_HHA_lstm1_cont_slice_22_split
I1130 21:15:22.721387  3907 net.cpp:120] Top shape: 1 1 54 (54)
I1130 21:15:22.721390  3907 net.cpp:120] Top shape: 1 1 54 (54)
I1130 21:15:22.721392  3907 layer_factory.hpp:74] Creating layer cont_24_HHA_lstm1_cont_slice_23_split
I1130 21:15:22.721395  3907 net.cpp:84] Creating Layer cont_24_HHA_lstm1_cont_slice_23_split
I1130 21:15:22.721398  3907 net.cpp:381] cont_24_HHA_lstm1_cont_slice_23_split <- cont_24
I1130 21:15:22.721401  3907 net.cpp:339] cont_24_HHA_lstm1_cont_slice_23_split -> cont_24_HHA_lstm1_cont_slice_23_split_0
I1130 21:15:22.721405  3907 net.cpp:339] cont_24_HHA_lstm1_cont_slice_23_split -> cont_24_HHA_lstm1_cont_slice_23_split_1
I1130 21:15:22.721410  3907 net.cpp:113] Setting up cont_24_HHA_lstm1_cont_slice_23_split
I1130 21:15:22.721412  3907 net.cpp:120] Top shape: 1 1 54 (54)
I1130 21:15:22.721415  3907 net.cpp:120] Top shape: 1 1 54 (54)
I1130 21:15:22.721418  3907 layer_factory.hpp:74] Creating layer cont_25_HHA_lstm1_cont_slice_24_split
I1130 21:15:22.721421  3907 net.cpp:84] Creating Layer cont_25_HHA_lstm1_cont_slice_24_split
I1130 21:15:22.721423  3907 net.cpp:381] cont_25_HHA_lstm1_cont_slice_24_split <- cont_25
I1130 21:15:22.721428  3907 net.cpp:339] cont_25_HHA_lstm1_cont_slice_24_split -> cont_25_HHA_lstm1_cont_slice_24_split_0
I1130 21:15:22.721432  3907 net.cpp:339] cont_25_HHA_lstm1_cont_slice_24_split -> cont_25_HHA_lstm1_cont_slice_24_split_1
I1130 21:15:22.721436  3907 net.cpp:113] Setting up cont_25_HHA_lstm1_cont_slice_24_split
I1130 21:15:22.721439  3907 net.cpp:120] Top shape: 1 1 54 (54)
I1130 21:15:22.721442  3907 net.cpp:120] Top shape: 1 1 54 (54)
I1130 21:15:22.721446  3907 layer_factory.hpp:74] Creating layer cont_26_HHA_lstm1_cont_slice_25_split
I1130 21:15:22.721447  3907 net.cpp:84] Creating Layer cont_26_HHA_lstm1_cont_slice_25_split
I1130 21:15:22.721451  3907 net.cpp:381] cont_26_HHA_lstm1_cont_slice_25_split <- cont_26
I1130 21:15:22.721454  3907 net.cpp:339] cont_26_HHA_lstm1_cont_slice_25_split -> cont_26_HHA_lstm1_cont_slice_25_split_0
I1130 21:15:22.721458  3907 net.cpp:339] cont_26_HHA_lstm1_cont_slice_25_split -> cont_26_HHA_lstm1_cont_slice_25_split_1
I1130 21:15:22.721462  3907 net.cpp:113] Setting up cont_26_HHA_lstm1_cont_slice_25_split
I1130 21:15:22.721465  3907 net.cpp:120] Top shape: 1 1 54 (54)
I1130 21:15:22.721468  3907 net.cpp:120] Top shape: 1 1 54 (54)
I1130 21:15:22.721472  3907 layer_factory.hpp:74] Creating layer cont_27_HHA_lstm1_cont_slice_26_split
I1130 21:15:22.721474  3907 net.cpp:84] Creating Layer cont_27_HHA_lstm1_cont_slice_26_split
I1130 21:15:22.721477  3907 net.cpp:381] cont_27_HHA_lstm1_cont_slice_26_split <- cont_27
I1130 21:15:22.721484  3907 net.cpp:339] cont_27_HHA_lstm1_cont_slice_26_split -> cont_27_HHA_lstm1_cont_slice_26_split_0
I1130 21:15:22.721489  3907 net.cpp:339] cont_27_HHA_lstm1_cont_slice_26_split -> cont_27_HHA_lstm1_cont_slice_26_split_1
I1130 21:15:22.721493  3907 net.cpp:113] Setting up cont_27_HHA_lstm1_cont_slice_26_split
I1130 21:15:22.721495  3907 net.cpp:120] Top shape: 1 1 54 (54)
I1130 21:15:22.721498  3907 net.cpp:120] Top shape: 1 1 54 (54)
I1130 21:15:22.721501  3907 layer_factory.hpp:74] Creating layer cont_28_HHA_lstm1_cont_slice_27_split
I1130 21:15:22.721504  3907 net.cpp:84] Creating Layer cont_28_HHA_lstm1_cont_slice_27_split
I1130 21:15:22.721506  3907 net.cpp:381] cont_28_HHA_lstm1_cont_slice_27_split <- cont_28
I1130 21:15:22.721510  3907 net.cpp:339] cont_28_HHA_lstm1_cont_slice_27_split -> cont_28_HHA_lstm1_cont_slice_27_split_0
I1130 21:15:22.721515  3907 net.cpp:339] cont_28_HHA_lstm1_cont_slice_27_split -> cont_28_HHA_lstm1_cont_slice_27_split_1
I1130 21:15:22.721519  3907 net.cpp:113] Setting up cont_28_HHA_lstm1_cont_slice_27_split
I1130 21:15:22.721523  3907 net.cpp:120] Top shape: 1 1 54 (54)
I1130 21:15:22.721525  3907 net.cpp:120] Top shape: 1 1 54 (54)
I1130 21:15:22.721527  3907 layer_factory.hpp:74] Creating layer cont_29_HHA_lstm1_cont_slice_28_split
I1130 21:15:22.721531  3907 net.cpp:84] Creating Layer cont_29_HHA_lstm1_cont_slice_28_split
I1130 21:15:22.721534  3907 net.cpp:381] cont_29_HHA_lstm1_cont_slice_28_split <- cont_29
I1130 21:15:22.721536  3907 net.cpp:339] cont_29_HHA_lstm1_cont_slice_28_split -> cont_29_HHA_lstm1_cont_slice_28_split_0
I1130 21:15:22.721540  3907 net.cpp:339] cont_29_HHA_lstm1_cont_slice_28_split -> cont_29_HHA_lstm1_cont_slice_28_split_1
I1130 21:15:22.721544  3907 net.cpp:113] Setting up cont_29_HHA_lstm1_cont_slice_28_split
I1130 21:15:22.721549  3907 net.cpp:120] Top shape: 1 1 54 (54)
I1130 21:15:22.721550  3907 net.cpp:120] Top shape: 1 1 54 (54)
I1130 21:15:22.721554  3907 layer_factory.hpp:74] Creating layer cont_30_HHA_lstm1_cont_slice_29_split
I1130 21:15:22.721556  3907 net.cpp:84] Creating Layer cont_30_HHA_lstm1_cont_slice_29_split
I1130 21:15:22.721560  3907 net.cpp:381] cont_30_HHA_lstm1_cont_slice_29_split <- cont_30
I1130 21:15:22.721563  3907 net.cpp:339] cont_30_HHA_lstm1_cont_slice_29_split -> cont_30_HHA_lstm1_cont_slice_29_split_0
I1130 21:15:22.721567  3907 net.cpp:339] cont_30_HHA_lstm1_cont_slice_29_split -> cont_30_HHA_lstm1_cont_slice_29_split_1
I1130 21:15:22.721571  3907 net.cpp:113] Setting up cont_30_HHA_lstm1_cont_slice_29_split
I1130 21:15:22.721575  3907 net.cpp:120] Top shape: 1 1 54 (54)
I1130 21:15:22.721577  3907 net.cpp:120] Top shape: 1 1 54 (54)
I1130 21:15:22.721580  3907 layer_factory.hpp:74] Creating layer cont_31_HHA_lstm1_cont_slice_30_split
I1130 21:15:22.721582  3907 net.cpp:84] Creating Layer cont_31_HHA_lstm1_cont_slice_30_split
I1130 21:15:22.721585  3907 net.cpp:381] cont_31_HHA_lstm1_cont_slice_30_split <- cont_31
I1130 21:15:22.721588  3907 net.cpp:339] cont_31_HHA_lstm1_cont_slice_30_split -> cont_31_HHA_lstm1_cont_slice_30_split_0
I1130 21:15:22.721592  3907 net.cpp:339] cont_31_HHA_lstm1_cont_slice_30_split -> cont_31_HHA_lstm1_cont_slice_30_split_1
I1130 21:15:22.721597  3907 net.cpp:113] Setting up cont_31_HHA_lstm1_cont_slice_30_split
I1130 21:15:22.721601  3907 net.cpp:120] Top shape: 1 1 54 (54)
I1130 21:15:22.721603  3907 net.cpp:120] Top shape: 1 1 54 (54)
I1130 21:15:22.721606  3907 layer_factory.hpp:74] Creating layer cont_32_HHA_lstm1_cont_slice_31_split
I1130 21:15:22.721612  3907 net.cpp:84] Creating Layer cont_32_HHA_lstm1_cont_slice_31_split
I1130 21:15:22.721616  3907 net.cpp:381] cont_32_HHA_lstm1_cont_slice_31_split <- cont_32
I1130 21:15:22.721618  3907 net.cpp:339] cont_32_HHA_lstm1_cont_slice_31_split -> cont_32_HHA_lstm1_cont_slice_31_split_0
I1130 21:15:22.721623  3907 net.cpp:339] cont_32_HHA_lstm1_cont_slice_31_split -> cont_32_HHA_lstm1_cont_slice_31_split_1
I1130 21:15:22.721627  3907 net.cpp:113] Setting up cont_32_HHA_lstm1_cont_slice_31_split
I1130 21:15:22.721632  3907 net.cpp:120] Top shape: 1 1 54 (54)
I1130 21:15:22.721638  3907 net.cpp:120] Top shape: 1 1 54 (54)
I1130 21:15:22.721640  3907 layer_factory.hpp:74] Creating layer cont_33_HHA_lstm1_cont_slice_32_split
I1130 21:15:22.721644  3907 net.cpp:84] Creating Layer cont_33_HHA_lstm1_cont_slice_32_split
I1130 21:15:22.721647  3907 net.cpp:381] cont_33_HHA_lstm1_cont_slice_32_split <- cont_33
I1130 21:15:22.721650  3907 net.cpp:339] cont_33_HHA_lstm1_cont_slice_32_split -> cont_33_HHA_lstm1_cont_slice_32_split_0
I1130 21:15:22.721654  3907 net.cpp:339] cont_33_HHA_lstm1_cont_slice_32_split -> cont_33_HHA_lstm1_cont_slice_32_split_1
I1130 21:15:22.721658  3907 net.cpp:113] Setting up cont_33_HHA_lstm1_cont_slice_32_split
I1130 21:15:22.721662  3907 net.cpp:120] Top shape: 1 1 54 (54)
I1130 21:15:22.721664  3907 net.cpp:120] Top shape: 1 1 54 (54)
I1130 21:15:22.721668  3907 layer_factory.hpp:74] Creating layer cont_34_HHA_lstm1_cont_slice_33_split
I1130 21:15:22.721670  3907 net.cpp:84] Creating Layer cont_34_HHA_lstm1_cont_slice_33_split
I1130 21:15:22.721673  3907 net.cpp:381] cont_34_HHA_lstm1_cont_slice_33_split <- cont_34
I1130 21:15:22.721678  3907 net.cpp:339] cont_34_HHA_lstm1_cont_slice_33_split -> cont_34_HHA_lstm1_cont_slice_33_split_0
I1130 21:15:22.721681  3907 net.cpp:339] cont_34_HHA_lstm1_cont_slice_33_split -> cont_34_HHA_lstm1_cont_slice_33_split_1
I1130 21:15:22.721685  3907 net.cpp:113] Setting up cont_34_HHA_lstm1_cont_slice_33_split
I1130 21:15:22.721688  3907 net.cpp:120] Top shape: 1 1 54 (54)
I1130 21:15:22.721691  3907 net.cpp:120] Top shape: 1 1 54 (54)
I1130 21:15:22.721693  3907 layer_factory.hpp:74] Creating layer cont_35_HHA_lstm1_cont_slice_34_split
I1130 21:15:22.721696  3907 net.cpp:84] Creating Layer cont_35_HHA_lstm1_cont_slice_34_split
I1130 21:15:22.721699  3907 net.cpp:381] cont_35_HHA_lstm1_cont_slice_34_split <- cont_35
I1130 21:15:22.721704  3907 net.cpp:339] cont_35_HHA_lstm1_cont_slice_34_split -> cont_35_HHA_lstm1_cont_slice_34_split_0
I1130 21:15:22.721706  3907 net.cpp:339] cont_35_HHA_lstm1_cont_slice_34_split -> cont_35_HHA_lstm1_cont_slice_34_split_1
I1130 21:15:22.721710  3907 net.cpp:113] Setting up cont_35_HHA_lstm1_cont_slice_34_split
I1130 21:15:22.721714  3907 net.cpp:120] Top shape: 1 1 54 (54)
I1130 21:15:22.721717  3907 net.cpp:120] Top shape: 1 1 54 (54)
I1130 21:15:22.721719  3907 layer_factory.hpp:74] Creating layer cont_36_HHA_lstm1_cont_slice_35_split
I1130 21:15:22.721724  3907 net.cpp:84] Creating Layer cont_36_HHA_lstm1_cont_slice_35_split
I1130 21:15:22.721726  3907 net.cpp:381] cont_36_HHA_lstm1_cont_slice_35_split <- cont_36
I1130 21:15:22.721729  3907 net.cpp:339] cont_36_HHA_lstm1_cont_slice_35_split -> cont_36_HHA_lstm1_cont_slice_35_split_0
I1130 21:15:22.721741  3907 net.cpp:339] cont_36_HHA_lstm1_cont_slice_35_split -> cont_36_HHA_lstm1_cont_slice_35_split_1
I1130 21:15:22.721745  3907 net.cpp:113] Setting up cont_36_HHA_lstm1_cont_slice_35_split
I1130 21:15:22.721750  3907 net.cpp:120] Top shape: 1 1 54 (54)
I1130 21:15:22.721752  3907 net.cpp:120] Top shape: 1 1 54 (54)
I1130 21:15:22.721755  3907 layer_factory.hpp:74] Creating layer cont_37_HHA_lstm1_cont_slice_36_split
I1130 21:15:22.721757  3907 net.cpp:84] Creating Layer cont_37_HHA_lstm1_cont_slice_36_split
I1130 21:15:22.721760  3907 net.cpp:381] cont_37_HHA_lstm1_cont_slice_36_split <- cont_37
I1130 21:15:22.721765  3907 net.cpp:339] cont_37_HHA_lstm1_cont_slice_36_split -> cont_37_HHA_lstm1_cont_slice_36_split_0
I1130 21:15:22.721768  3907 net.cpp:339] cont_37_HHA_lstm1_cont_slice_36_split -> cont_37_HHA_lstm1_cont_slice_36_split_1
I1130 21:15:22.721772  3907 net.cpp:113] Setting up cont_37_HHA_lstm1_cont_slice_36_split
I1130 21:15:22.721776  3907 net.cpp:120] Top shape: 1 1 54 (54)
I1130 21:15:22.721778  3907 net.cpp:120] Top shape: 1 1 54 (54)
I1130 21:15:22.721781  3907 layer_factory.hpp:74] Creating layer cont_38_HHA_lstm1_cont_slice_37_split
I1130 21:15:22.721784  3907 net.cpp:84] Creating Layer cont_38_HHA_lstm1_cont_slice_37_split
I1130 21:15:22.721788  3907 net.cpp:381] cont_38_HHA_lstm1_cont_slice_37_split <- cont_38
I1130 21:15:22.721796  3907 net.cpp:339] cont_38_HHA_lstm1_cont_slice_37_split -> cont_38_HHA_lstm1_cont_slice_37_split_0
I1130 21:15:22.721801  3907 net.cpp:339] cont_38_HHA_lstm1_cont_slice_37_split -> cont_38_HHA_lstm1_cont_slice_37_split_1
I1130 21:15:22.721803  3907 net.cpp:113] Setting up cont_38_HHA_lstm1_cont_slice_37_split
I1130 21:15:22.721807  3907 net.cpp:120] Top shape: 1 1 54 (54)
I1130 21:15:22.721810  3907 net.cpp:120] Top shape: 1 1 54 (54)
I1130 21:15:22.721812  3907 layer_factory.hpp:74] Creating layer cont_39_HHA_lstm1_cont_slice_38_split
I1130 21:15:22.721815  3907 net.cpp:84] Creating Layer cont_39_HHA_lstm1_cont_slice_38_split
I1130 21:15:22.721818  3907 net.cpp:381] cont_39_HHA_lstm1_cont_slice_38_split <- cont_39
I1130 21:15:22.721822  3907 net.cpp:339] cont_39_HHA_lstm1_cont_slice_38_split -> cont_39_HHA_lstm1_cont_slice_38_split_0
I1130 21:15:22.721827  3907 net.cpp:339] cont_39_HHA_lstm1_cont_slice_38_split -> cont_39_HHA_lstm1_cont_slice_38_split_1
I1130 21:15:22.721830  3907 net.cpp:113] Setting up cont_39_HHA_lstm1_cont_slice_38_split
I1130 21:15:22.721834  3907 net.cpp:120] Top shape: 1 1 54 (54)
I1130 21:15:22.721837  3907 net.cpp:120] Top shape: 1 1 54 (54)
I1130 21:15:22.721839  3907 layer_factory.hpp:74] Creating layer cont_40_HHA_lstm1_cont_slice_39_split
I1130 21:15:22.721843  3907 net.cpp:84] Creating Layer cont_40_HHA_lstm1_cont_slice_39_split
I1130 21:15:22.721845  3907 net.cpp:381] cont_40_HHA_lstm1_cont_slice_39_split <- cont_40
I1130 21:15:22.721848  3907 net.cpp:339] cont_40_HHA_lstm1_cont_slice_39_split -> cont_40_HHA_lstm1_cont_slice_39_split_0
I1130 21:15:22.721853  3907 net.cpp:339] cont_40_HHA_lstm1_cont_slice_39_split -> cont_40_HHA_lstm1_cont_slice_39_split_1
I1130 21:15:22.721856  3907 net.cpp:113] Setting up cont_40_HHA_lstm1_cont_slice_39_split
I1130 21:15:22.721860  3907 net.cpp:120] Top shape: 1 1 54 (54)
I1130 21:15:22.721863  3907 net.cpp:120] Top shape: 1 1 54 (54)
I1130 21:15:22.721865  3907 layer_factory.hpp:74] Creating layer cont_41_HHA_lstm1_cont_slice_40_split
I1130 21:15:22.721868  3907 net.cpp:84] Creating Layer cont_41_HHA_lstm1_cont_slice_40_split
I1130 21:15:22.721870  3907 net.cpp:381] cont_41_HHA_lstm1_cont_slice_40_split <- cont_41
I1130 21:15:22.721875  3907 net.cpp:339] cont_41_HHA_lstm1_cont_slice_40_split -> cont_41_HHA_lstm1_cont_slice_40_split_0
I1130 21:15:22.721879  3907 net.cpp:339] cont_41_HHA_lstm1_cont_slice_40_split -> cont_41_HHA_lstm1_cont_slice_40_split_1
I1130 21:15:22.721882  3907 net.cpp:113] Setting up cont_41_HHA_lstm1_cont_slice_40_split
I1130 21:15:22.721886  3907 net.cpp:120] Top shape: 1 1 54 (54)
I1130 21:15:22.721889  3907 net.cpp:120] Top shape: 1 1 54 (54)
I1130 21:15:22.721891  3907 layer_factory.hpp:74] Creating layer cont_42_HHA_lstm1_cont_slice_41_split
I1130 21:15:22.721894  3907 net.cpp:84] Creating Layer cont_42_HHA_lstm1_cont_slice_41_split
I1130 21:15:22.721896  3907 net.cpp:381] cont_42_HHA_lstm1_cont_slice_41_split <- cont_42
I1130 21:15:22.721900  3907 net.cpp:339] cont_42_HHA_lstm1_cont_slice_41_split -> cont_42_HHA_lstm1_cont_slice_41_split_0
I1130 21:15:22.721904  3907 net.cpp:339] cont_42_HHA_lstm1_cont_slice_41_split -> cont_42_HHA_lstm1_cont_slice_41_split_1
I1130 21:15:22.721907  3907 net.cpp:113] Setting up cont_42_HHA_lstm1_cont_slice_41_split
I1130 21:15:22.721911  3907 net.cpp:120] Top shape: 1 1 54 (54)
I1130 21:15:22.721915  3907 net.cpp:120] Top shape: 1 1 54 (54)
I1130 21:15:22.721916  3907 layer_factory.hpp:74] Creating layer cont_43_HHA_lstm1_cont_slice_42_split
I1130 21:15:22.721920  3907 net.cpp:84] Creating Layer cont_43_HHA_lstm1_cont_slice_42_split
I1130 21:15:22.721921  3907 net.cpp:381] cont_43_HHA_lstm1_cont_slice_42_split <- cont_43
I1130 21:15:22.721927  3907 net.cpp:339] cont_43_HHA_lstm1_cont_slice_42_split -> cont_43_HHA_lstm1_cont_slice_42_split_0
I1130 21:15:22.721931  3907 net.cpp:339] cont_43_HHA_lstm1_cont_slice_42_split -> cont_43_HHA_lstm1_cont_slice_42_split_1
I1130 21:15:22.721935  3907 net.cpp:113] Setting up cont_43_HHA_lstm1_cont_slice_42_split
I1130 21:15:22.721943  3907 net.cpp:120] Top shape: 1 1 54 (54)
I1130 21:15:22.721946  3907 net.cpp:120] Top shape: 1 1 54 (54)
I1130 21:15:22.721949  3907 layer_factory.hpp:74] Creating layer cont_44_HHA_lstm1_cont_slice_43_split
I1130 21:15:22.721952  3907 net.cpp:84] Creating Layer cont_44_HHA_lstm1_cont_slice_43_split
I1130 21:15:22.721954  3907 net.cpp:381] cont_44_HHA_lstm1_cont_slice_43_split <- cont_44
I1130 21:15:22.721958  3907 net.cpp:339] cont_44_HHA_lstm1_cont_slice_43_split -> cont_44_HHA_lstm1_cont_slice_43_split_0
I1130 21:15:22.721962  3907 net.cpp:339] cont_44_HHA_lstm1_cont_slice_43_split -> cont_44_HHA_lstm1_cont_slice_43_split_1
I1130 21:15:22.721966  3907 net.cpp:113] Setting up cont_44_HHA_lstm1_cont_slice_43_split
I1130 21:15:22.721971  3907 net.cpp:120] Top shape: 1 1 54 (54)
I1130 21:15:22.721973  3907 net.cpp:120] Top shape: 1 1 54 (54)
I1130 21:15:22.721976  3907 layer_factory.hpp:74] Creating layer cont_45_HHA_lstm1_cont_slice_44_split
I1130 21:15:22.721978  3907 net.cpp:84] Creating Layer cont_45_HHA_lstm1_cont_slice_44_split
I1130 21:15:22.721982  3907 net.cpp:381] cont_45_HHA_lstm1_cont_slice_44_split <- cont_45
I1130 21:15:22.721984  3907 net.cpp:339] cont_45_HHA_lstm1_cont_slice_44_split -> cont_45_HHA_lstm1_cont_slice_44_split_0
I1130 21:15:22.721988  3907 net.cpp:339] cont_45_HHA_lstm1_cont_slice_44_split -> cont_45_HHA_lstm1_cont_slice_44_split_1
I1130 21:15:22.721992  3907 net.cpp:113] Setting up cont_45_HHA_lstm1_cont_slice_44_split
I1130 21:15:22.721995  3907 net.cpp:120] Top shape: 1 1 54 (54)
I1130 21:15:22.721998  3907 net.cpp:120] Top shape: 1 1 54 (54)
I1130 21:15:22.722000  3907 layer_factory.hpp:74] Creating layer cont_46_HHA_lstm1_cont_slice_45_split
I1130 21:15:22.722003  3907 net.cpp:84] Creating Layer cont_46_HHA_lstm1_cont_slice_45_split
I1130 21:15:22.722007  3907 net.cpp:381] cont_46_HHA_lstm1_cont_slice_45_split <- cont_46
I1130 21:15:22.722010  3907 net.cpp:339] cont_46_HHA_lstm1_cont_slice_45_split -> cont_46_HHA_lstm1_cont_slice_45_split_0
I1130 21:15:22.722014  3907 net.cpp:339] cont_46_HHA_lstm1_cont_slice_45_split -> cont_46_HHA_lstm1_cont_slice_45_split_1
I1130 21:15:22.722018  3907 net.cpp:113] Setting up cont_46_HHA_lstm1_cont_slice_45_split
I1130 21:15:22.722021  3907 net.cpp:120] Top shape: 1 1 54 (54)
I1130 21:15:22.722024  3907 net.cpp:120] Top shape: 1 1 54 (54)
I1130 21:15:22.722028  3907 layer_factory.hpp:74] Creating layer cont_47_HHA_lstm1_cont_slice_46_split
I1130 21:15:22.722029  3907 net.cpp:84] Creating Layer cont_47_HHA_lstm1_cont_slice_46_split
I1130 21:15:22.722033  3907 net.cpp:381] cont_47_HHA_lstm1_cont_slice_46_split <- cont_47
I1130 21:15:22.722036  3907 net.cpp:339] cont_47_HHA_lstm1_cont_slice_46_split -> cont_47_HHA_lstm1_cont_slice_46_split_0
I1130 21:15:22.722040  3907 net.cpp:339] cont_47_HHA_lstm1_cont_slice_46_split -> cont_47_HHA_lstm1_cont_slice_46_split_1
I1130 21:15:22.722044  3907 net.cpp:113] Setting up cont_47_HHA_lstm1_cont_slice_46_split
I1130 21:15:22.722048  3907 net.cpp:120] Top shape: 1 1 54 (54)
I1130 21:15:22.722050  3907 net.cpp:120] Top shape: 1 1 54 (54)
I1130 21:15:22.722054  3907 layer_factory.hpp:74] Creating layer cont_48_HHA_lstm1_cont_slice_47_split
I1130 21:15:22.722056  3907 net.cpp:84] Creating Layer cont_48_HHA_lstm1_cont_slice_47_split
I1130 21:15:22.722059  3907 net.cpp:381] cont_48_HHA_lstm1_cont_slice_47_split <- cont_48
I1130 21:15:22.722064  3907 net.cpp:339] cont_48_HHA_lstm1_cont_slice_47_split -> cont_48_HHA_lstm1_cont_slice_47_split_0
I1130 21:15:22.722067  3907 net.cpp:339] cont_48_HHA_lstm1_cont_slice_47_split -> cont_48_HHA_lstm1_cont_slice_47_split_1
I1130 21:15:22.722071  3907 net.cpp:113] Setting up cont_48_HHA_lstm1_cont_slice_47_split
I1130 21:15:22.722074  3907 net.cpp:120] Top shape: 1 1 54 (54)
I1130 21:15:22.722079  3907 net.cpp:120] Top shape: 1 1 54 (54)
I1130 21:15:22.722080  3907 layer_factory.hpp:74] Creating layer cont_49_HHA_lstm1_cont_slice_48_split
I1130 21:15:22.722084  3907 net.cpp:84] Creating Layer cont_49_HHA_lstm1_cont_slice_48_split
I1130 21:15:22.722088  3907 net.cpp:381] cont_49_HHA_lstm1_cont_slice_48_split <- cont_49
I1130 21:15:22.722095  3907 net.cpp:339] cont_49_HHA_lstm1_cont_slice_48_split -> cont_49_HHA_lstm1_cont_slice_48_split_0
I1130 21:15:22.722100  3907 net.cpp:339] cont_49_HHA_lstm1_cont_slice_48_split -> cont_49_HHA_lstm1_cont_slice_48_split_1
I1130 21:15:22.722103  3907 net.cpp:113] Setting up cont_49_HHA_lstm1_cont_slice_48_split
I1130 21:15:22.722107  3907 net.cpp:120] Top shape: 1 1 54 (54)
I1130 21:15:22.722110  3907 net.cpp:120] Top shape: 1 1 54 (54)
I1130 21:15:22.722112  3907 layer_factory.hpp:74] Creating layer cont_50_HHA_lstm1_cont_slice_49_split
I1130 21:15:22.722115  3907 net.cpp:84] Creating Layer cont_50_HHA_lstm1_cont_slice_49_split
I1130 21:15:22.722118  3907 net.cpp:381] cont_50_HHA_lstm1_cont_slice_49_split <- cont_50
I1130 21:15:22.722121  3907 net.cpp:339] cont_50_HHA_lstm1_cont_slice_49_split -> cont_50_HHA_lstm1_cont_slice_49_split_0
I1130 21:15:22.722126  3907 net.cpp:339] cont_50_HHA_lstm1_cont_slice_49_split -> cont_50_HHA_lstm1_cont_slice_49_split_1
I1130 21:15:22.722129  3907 net.cpp:113] Setting up cont_50_HHA_lstm1_cont_slice_49_split
I1130 21:15:22.722132  3907 net.cpp:120] Top shape: 1 1 54 (54)
I1130 21:15:22.722136  3907 net.cpp:120] Top shape: 1 1 54 (54)
I1130 21:15:22.722137  3907 layer_factory.hpp:74] Creating layer cont_51_HHA_lstm1_cont_slice_50_split
I1130 21:15:22.722141  3907 net.cpp:84] Creating Layer cont_51_HHA_lstm1_cont_slice_50_split
I1130 21:15:22.722143  3907 net.cpp:381] cont_51_HHA_lstm1_cont_slice_50_split <- cont_51
I1130 21:15:22.722147  3907 net.cpp:339] cont_51_HHA_lstm1_cont_slice_50_split -> cont_51_HHA_lstm1_cont_slice_50_split_0
I1130 21:15:22.722151  3907 net.cpp:339] cont_51_HHA_lstm1_cont_slice_50_split -> cont_51_HHA_lstm1_cont_slice_50_split_1
I1130 21:15:22.722156  3907 net.cpp:113] Setting up cont_51_HHA_lstm1_cont_slice_50_split
I1130 21:15:22.722158  3907 net.cpp:120] Top shape: 1 1 54 (54)
I1130 21:15:22.722162  3907 net.cpp:120] Top shape: 1 1 54 (54)
I1130 21:15:22.722164  3907 layer_factory.hpp:74] Creating layer cont_52_HHA_lstm1_cont_slice_51_split
I1130 21:15:22.722167  3907 net.cpp:84] Creating Layer cont_52_HHA_lstm1_cont_slice_51_split
I1130 21:15:22.722169  3907 net.cpp:381] cont_52_HHA_lstm1_cont_slice_51_split <- cont_52
I1130 21:15:22.722173  3907 net.cpp:339] cont_52_HHA_lstm1_cont_slice_51_split -> cont_52_HHA_lstm1_cont_slice_51_split_0
I1130 21:15:22.722177  3907 net.cpp:339] cont_52_HHA_lstm1_cont_slice_51_split -> cont_52_HHA_lstm1_cont_slice_51_split_1
I1130 21:15:22.722180  3907 net.cpp:113] Setting up cont_52_HHA_lstm1_cont_slice_51_split
I1130 21:15:22.722184  3907 net.cpp:120] Top shape: 1 1 54 (54)
I1130 21:15:22.722188  3907 net.cpp:120] Top shape: 1 1 54 (54)
I1130 21:15:22.722190  3907 layer_factory.hpp:74] Creating layer cont_53_HHA_lstm1_cont_slice_52_split
I1130 21:15:22.722193  3907 net.cpp:84] Creating Layer cont_53_HHA_lstm1_cont_slice_52_split
I1130 21:15:22.722195  3907 net.cpp:381] cont_53_HHA_lstm1_cont_slice_52_split <- cont_53
I1130 21:15:22.722199  3907 net.cpp:339] cont_53_HHA_lstm1_cont_slice_52_split -> cont_53_HHA_lstm1_cont_slice_52_split_0
I1130 21:15:22.722203  3907 net.cpp:339] cont_53_HHA_lstm1_cont_slice_52_split -> cont_53_HHA_lstm1_cont_slice_52_split_1
I1130 21:15:22.722206  3907 net.cpp:113] Setting up cont_53_HHA_lstm1_cont_slice_52_split
I1130 21:15:22.722210  3907 net.cpp:120] Top shape: 1 1 54 (54)
I1130 21:15:22.722213  3907 net.cpp:120] Top shape: 1 1 54 (54)
I1130 21:15:22.722215  3907 layer_factory.hpp:74] Creating layer cont_54_HHA_lstm1_cont_slice_53_split
I1130 21:15:22.722218  3907 net.cpp:84] Creating Layer cont_54_HHA_lstm1_cont_slice_53_split
I1130 21:15:22.722220  3907 net.cpp:381] cont_54_HHA_lstm1_cont_slice_53_split <- cont_54
I1130 21:15:22.722225  3907 net.cpp:339] cont_54_HHA_lstm1_cont_slice_53_split -> cont_54_HHA_lstm1_cont_slice_53_split_0
I1130 21:15:22.722229  3907 net.cpp:339] cont_54_HHA_lstm1_cont_slice_53_split -> cont_54_HHA_lstm1_cont_slice_53_split_1
I1130 21:15:22.722235  3907 net.cpp:113] Setting up cont_54_HHA_lstm1_cont_slice_53_split
I1130 21:15:22.722241  3907 net.cpp:120] Top shape: 1 1 54 (54)
I1130 21:15:22.722245  3907 net.cpp:120] Top shape: 1 1 54 (54)
I1130 21:15:22.722247  3907 layer_factory.hpp:74] Creating layer HHA_lstm1_x_transform
I1130 21:15:22.722251  3907 net.cpp:84] Creating Layer HHA_lstm1_x_transform
I1130 21:15:22.722254  3907 net.cpp:381] HHA_lstm1_x_transform <- x
I1130 21:15:22.722259  3907 net.cpp:339] HHA_lstm1_x_transform -> W_xc_x
I1130 21:15:22.722263  3907 net.cpp:113] Setting up HHA_lstm1_x_transform
I1130 21:15:22.722558  3907 net.cpp:120] Top shape: 54 54 400 (1166400)
I1130 21:15:22.722564  3907 layer_factory.hpp:74] Creating layer HHA_lstm1_W_xc_x_slice
I1130 21:15:22.722573  3907 net.cpp:84] Creating Layer HHA_lstm1_W_xc_x_slice
I1130 21:15:22.722575  3907 net.cpp:381] HHA_lstm1_W_xc_x_slice <- W_xc_x
I1130 21:15:22.722581  3907 net.cpp:339] HHA_lstm1_W_xc_x_slice -> W_xc_x_1
I1130 21:15:22.722589  3907 net.cpp:339] HHA_lstm1_W_xc_x_slice -> W_xc_x_2
…
I1130 21:15:22.722896  3907 net.cpp:339] HHA_lstm1_W_xc_x_slice -> W_xc_x_48
I1130 21:15:22.722903  3907 net.cpp:339] HHA_lstm1_W_xc_x_slice -> W_xc_x_49
I1130 21:15:22.722908  3907 net.cpp:339] HHA_lstm1_W_xc_x_slice -> W_xc_x_50
I1130 21:15:22.722915  3907 net.cpp:339] HHA_lstm1_W_xc_x_slice -> W_xc_x_51
I1130 21:15:22.722921  3907 net.cpp:339] HHA_lstm1_W_xc_x_slice -> W_xc_x_52
I1130 21:15:22.722928  3907 net.cpp:339] HHA_lstm1_W_xc_x_slice -> W_xc_x_53
I1130 21:15:22.722934  3907 net.cpp:339] HHA_lstm1_W_xc_x_slice -> W_xc_x_54
I1130 21:15:22.722940  3907 net.cpp:113] Setting up HHA_lstm1_W_xc_x_slice
I1130 21:15:22.722954  3907 net.cpp:120] Top shape: 1 54 400 (21600)
I1130 21:15:22.722957  3907 net.cpp:120] Top shape: 1 54 400 (21600)
I1130 21:15:22.722960  3907 net.cpp:120] Top shape: 1 54 400 (21600)
I1130 21:15:22.722965  3907 net.cpp:120] Top shape: 1 54 400 (21600)
I1130 21:15:22.722966  3907 net.cpp:120] Top shape: 1 54 400 (21600)
I1130 21:15:22.722970  3907 net.cpp:120] Top shape: 1 54 400 (21600)
I1130 21:15:22.722972  3907 net.cpp:120] Top shape: 1 54 400 (21600)
I1130 21:15:22.722976  3907 net.cpp:120] Top shape: 1 54 400 (21600)
I1130 21:15:22.722978  3907 net.cpp:120] Top shape: 1 54 400 (21600)
I1130 21:15:22.722981  3907 net.cpp:120] Top shape: 1 54 400 (21600)
I1130 21:15:22.722985  3907 net.cpp:120] Top shape: 1 54 400 (21600)
I1130 21:15:22.722988  3907 net.cpp:120] Top shape: 1 54 400 (21600)
I1130 21:15:22.722990  3907 net.cpp:120] Top shape: 1 54 400 (21600)
I1130 21:15:22.722993  3907 net.cpp:120] Top shape: 1 54 400 (21600)
I1130 21:15:22.722996  3907 net.cpp:120] Top shape: 1 54 400 (21600)
I1130 21:15:22.723001  3907 net.cpp:120] Top shape: 1 54 400 (21600)
I1130 21:15:22.723002  3907 net.cpp:120] Top shape: 1 54 400 (21600)
I1130 21:15:22.723006  3907 net.cpp:120] Top shape: 1 54 400 (21600)
I1130 21:15:22.723008  3907 net.cpp:120] Top shape: 1 54 400 (21600)
I1130 21:15:22.723011  3907 net.cpp:120] Top shape: 1 54 400 (21600)
I1130 21:15:22.723014  3907 net.cpp:120] Top shape: 1 54 400 (21600)
I1130 21:15:22.723017  3907 net.cpp:120] Top shape: 1 54 400 (21600)
I1130 21:15:22.723021  3907 net.cpp:120] Top shape: 1 54 400 (21600)
I1130 21:15:22.723023  3907 net.cpp:120] Top shape: 1 54 400 (21600)
I1130 21:15:22.723026  3907 net.cpp:120] Top shape: 1 54 400 (21600)
I1130 21:15:22.723029  3907 net.cpp:120] Top shape: 1 54 400 (21600)
I1130 21:15:22.723032  3907 net.cpp:120] Top shape: 1 54 400 (21600)
I1130 21:15:22.723035  3907 net.cpp:120] Top shape: 1 54 400 (21600)
I1130 21:15:22.723038  3907 net.cpp:120] Top shape: 1 54 400 (21600)
I1130 21:15:22.723042  3907 net.cpp:120] Top shape: 1 54 400 (21600)
I1130 21:15:22.723044  3907 net.cpp:120] Top shape: 1 54 400 (21600)
I1130 21:15:22.723047  3907 net.cpp:120] Top shape: 1 54 400 (21600)
I1130 21:15:22.723050  3907 net.cpp:120] Top shape: 1 54 400 (21600)
I1130 21:15:22.723053  3907 net.cpp:120] Top shape: 1 54 400 (21600)
I1130 21:15:22.723057  3907 net.cpp:120] Top shape: 1 54 400 (21600)
I1130 21:15:22.723059  3907 net.cpp:120] Top shape: 1 54 400 (21600)
I1130 21:15:22.723062  3907 net.cpp:120] Top shape: 1 54 400 (21600)
I1130 21:15:22.723065  3907 net.cpp:120] Top shape: 1 54 400 (21600)
I1130 21:15:22.723068  3907 net.cpp:120] Top shape: 1 54 400 (21600)
I1130 21:15:22.723071  3907 net.cpp:120] Top shape: 1 54 400 (21600)
I1130 21:15:22.723074  3907 net.cpp:120] Top shape: 1 54 400 (21600)
I1130 21:15:22.723078  3907 net.cpp:120] Top shape: 1 54 400 (21600)
I1130 21:15:22.723080  3907 net.cpp:120] Top shape: 1 54 400 (21600)
I1130 21:15:22.723083  3907 net.cpp:120] Top shape: 1 54 400 (21600)
I1130 21:15:22.723088  3907 net.cpp:120] Top shape: 1 54 400 (21600)
I1130 21:15:22.723093  3907 net.cpp:120] Top shape: 1 54 400 (21600)
I1130 21:15:22.723096  3907 net.cpp:120] Top shape: 1 54 400 (21600)
I1130 21:15:22.723100  3907 net.cpp:120] Top shape: 1 54 400 (21600)
I1130 21:15:22.723104  3907 net.cpp:120] Top shape: 1 54 400 (21600)
I1130 21:15:22.723106  3907 net.cpp:120] Top shape: 1 54 400 (21600)
I1130 21:15:22.723109  3907 net.cpp:120] Top shape: 1 54 400 (21600)
I1130 21:15:22.723112  3907 net.cpp:120] Top shape: 1 54 400 (21600)
I1130 21:15:22.723115  3907 net.cpp:120] Top shape: 1 54 400 (21600)
I1130 21:15:22.723117  3907 net.cpp:120] Top shape: 1 54 400 (21600)
I1130 21:15:22.723120  3907 layer_factory.hpp:74] Creating layer HHA_lstm1_h_conted_0
I1130 21:15:22.723124  3907 net.cpp:84] Creating Layer HHA_lstm1_h_conted_0
I1130 21:15:22.723127  3907 net.cpp:381] HHA_lstm1_h_conted_0 <- h_0
I1130 21:15:22.723131  3907 net.cpp:381] HHA_lstm1_h_conted_0 <- cont_1_HHA_lstm1_cont_slice_0_split_0
I1130 21:15:22.723135  3907 net.cpp:339] HHA_lstm1_h_conted_0 -> h_conted_0
I1130 21:15:22.723140  3907 net.cpp:113] Setting up HHA_lstm1_h_conted_0
I1130 21:15:22.723145  3907 net.cpp:120] Top shape: 1 54 100 (5400)
I1130 21:15:22.723147  3907 layer_factory.hpp:74] Creating layer HHA_lstm1_transform_1
I1130 21:15:22.723151  3907 net.cpp:84] Creating Layer HHA_lstm1_transform_1
I1130 21:15:22.723155  3907 net.cpp:381] HHA_lstm1_transform_1 <- h_conted_0
I1130 21:15:22.723157  3907 net.cpp:339] HHA_lstm1_transform_1 -> W_hc_h_0
I1130 21:15:22.723161  3907 net.cpp:113] Setting up HHA_lstm1_transform_1
I1130 21:15:22.723338  3907 net.cpp:120] Top shape: 1 54 400 (21600)
I1130 21:15:22.723343  3907 layer_factory.hpp:74] Creating layer HHA_lstm1_gate_input_1
I1130 21:15:22.723347  3907 net.cpp:84] Creating Layer HHA_lstm1_gate_input_1
I1130 21:15:22.723351  3907 net.cpp:381] HHA_lstm1_gate_input_1 <- W_hc_h_0
I1130 21:15:22.723353  3907 net.cpp:381] HHA_lstm1_gate_input_1 <- W_xc_x_1
I1130 21:15:22.723358  3907 net.cpp:339] HHA_lstm1_gate_input_1 -> gate_input_1
I1130 21:15:22.723362  3907 net.cpp:113] Setting up HHA_lstm1_gate_input_1
I1130 21:15:22.723366  3907 net.cpp:120] Top shape: 1 54 400 (21600)
I1130 21:15:22.723368  3907 layer_factory.hpp:74] Creating layer HHA_lstm1_unit_1
I1130 21:15:22.723372  3907 net.cpp:84] Creating Layer HHA_lstm1_unit_1
I1130 21:15:22.723376  3907 net.cpp:381] HHA_lstm1_unit_1 <- c_0
I1130 21:15:22.723379  3907 net.cpp:381] HHA_lstm1_unit_1 <- gate_input_1
I1130 21:15:22.723382  3907 net.cpp:381] HHA_lstm1_unit_1 <- cont_1_HHA_lstm1_cont_slice_0_split_1
I1130 21:15:22.723387  3907 net.cpp:339] HHA_lstm1_unit_1 -> c_1
I1130 21:15:22.723392  3907 net.cpp:339] HHA_lstm1_unit_1 -> h_1
I1130 21:15:22.723395  3907 net.cpp:113] Setting up HHA_lstm1_unit_1
I1130 21:15:22.723399  3907 net.cpp:120] Top shape: 1 54 100 (5400)
I1130 21:15:22.723402  3907 net.cpp:120] Top shape: 1 54 100 (5400)
I1130 21:15:22.723404  3907 layer_factory.hpp:74] Creating layer h_1_HHA_lstm1_unit_1_1_split
I1130 21:15:22.723409  3907 net.cpp:84] Creating Layer h_1_HHA_lstm1_unit_1_1_split
I1130 21:15:22.723412  3907 net.cpp:381] h_1_HHA_lstm1_unit_1_1_split <- h_1
I1130 21:15:22.723415  3907 net.cpp:339] h_1_HHA_lstm1_unit_1_1_split -> h_1_HHA_lstm1_unit_1_1_split_0
I1130 21:15:22.723419  3907 net.cpp:339] h_1_HHA_lstm1_unit_1_1_split -> h_1_HHA_lstm1_unit_1_1_split_1
I1130 21:15:22.723424  3907 net.cpp:113] Setting up h_1_HHA_lstm1_unit_1_1_split
I1130 21:15:22.723428  3907 net.cpp:120] Top shape: 1 54 100 (5400)
I1130 21:15:22.723431  3907 net.cpp:120] Top shape: 1 54 100 (5400)
I1130 21:15:22.723433  3907 layer_factory.hpp:74] Creating layer HHA_lstm1_h_conted_1
I1130 21:15:22.723438  3907 net.cpp:84] Creating Layer HHA_lstm1_h_conted_1
I1130 21:15:22.723440  3907 net.cpp:381] HHA_lstm1_h_conted_1 <- h_1_HHA_lstm1_unit_1_1_split_0
I1130 21:15:22.723443  3907 net.cpp:381] HHA_lstm1_h_conted_1 <- cont_2_HHA_lstm1_cont_slice_1_split_0
I1130 21:15:22.723448  3907 net.cpp:339] HHA_lstm1_h_conted_1 -> h_conted_1
I1130 21:15:22.723451  3907 net.cpp:113] Setting up HHA_lstm1_h_conted_1
I1130 21:15:22.723460  3907 net.cpp:120] Top shape: 1 54 100 (5400)
I1130 21:15:22.723462  3907 layer_factory.hpp:74] Creating layer HHA_lstm1_transform_2
I1130 21:15:22.723467  3907 net.cpp:84] Creating Layer HHA_lstm1_transform_2
I1130 21:15:22.723470  3907 net.cpp:381] HHA_lstm1_transform_2 <- h_conted_1
I1130 21:15:22.723475  3907 net.cpp:339] HHA_lstm1_transform_2 -> W_hc_h_1
I1130 21:15:22.723479  3907 net.cpp:113] Setting up HHA_lstm1_transform_2
I1130 21:15:22.723656  3907 net.cpp:120] Top shape: 1 54 400 (21600)
I1130 21:15:22.723660  3907 net.cpp:425] Sharing parameters 'W_hc' owned by layer 'HHA_lstm1_transform_1', param index 0
I1130 21:15:22.723664  3907 layer_factory.hpp:74] Creating layer HHA_lstm1_gate_input_2
I1130 21:15:22.723675  3907 net.cpp:84] Creating Layer HHA_lstm1_gate_input_2
I1130 21:15:22.723677  3907 net.cpp:381] HHA_lstm1_gate_input_2 <- W_hc_h_1
I1130 21:15:22.723681  3907 net.cpp:381] HHA_lstm1_gate_input_2 <- W_xc_x_2
I1130 21:15:22.723685  3907 net.cpp:339] HHA_lstm1_gate_input_2 -> gate_input_2
I1130 21:15:22.723690  3907 net.cpp:113] Setting up HHA_lstm1_gate_input_2
I1130 21:15:22.723693  3907 net.cpp:120] Top shape: 1 54 400 (21600)
I1130 21:15:22.723696  3907 layer_factory.hpp:74] Creating layer HHA_lstm1_unit_2
I1130 21:15:22.723700  3907 net.cpp:84] Creating Layer HHA_lstm1_unit_2
I1130 21:15:22.723702  3907 net.cpp:381] HHA_lstm1_unit_2 <- c_1
I1130 21:15:22.723706  3907 net.cpp:381] HHA_lstm1_unit_2 <- gate_input_2
I1130 21:15:22.723709  3907 net.cpp:381] HHA_lstm1_unit_2 <- cont_2_HHA_lstm1_cont_slice_1_split_1
I1130 21:15:22.723712  3907 net.cpp:339] HHA_lstm1_unit_2 -> c_2
I1130 21:15:22.723717  3907 net.cpp:339] HHA_lstm1_unit_2 -> h_2
I1130 21:15:22.723721  3907 net.cpp:113] Setting up HHA_lstm1_unit_2
I1130 21:15:22.723726  3907 net.cpp:120] Top shape: 1 54 100 (5400)
I1130 21:15:22.723728  3907 net.cpp:120] Top shape: 1 54 100 (5400)
I1130 21:15:22.723731  3907 layer_factory.hpp:74] Creating layer h_2_HHA_lstm1_unit_2_1_split
I1130 21:15:22.723733  3907 net.cpp:84] Creating Layer h_2_HHA_lstm1_unit_2_1_split
I1130 21:15:22.723737  3907 net.cpp:381] h_2_HHA_lstm1_unit_2_1_split <- h_2
I1130 21:15:22.723740  3907 net.cpp:339] h_2_HHA_lstm1_unit_2_1_split -> h_2_HHA_lstm1_unit_2_1_split_0
I1130 21:15:22.723744  3907 net.cpp:339] h_2_HHA_lstm1_unit_2_1_split -> h_2_HHA_lstm1_unit_2_1_split_1
I1130 21:15:22.723749  3907 net.cpp:113] Setting up h_2_HHA_lstm1_unit_2_1_split
I1130 21:15:22.723754  3907 net.cpp:120] Top shape: 1 54 100 (5400)
I1130 21:15:22.723757  3907 net.cpp:120] Top shape: 1 54 100 (5400)
I1130 21:15:22.723759  3907 layer_factory.hpp:74] Creating layer HHA_lstm1_h_conted_2
I1130 21:15:22.723762  3907 net.cpp:84] Creating Layer HHA_lstm1_h_conted_2
I1130 21:15:22.723767  3907 net.cpp:381] HHA_lstm1_h_conted_2 <- h_2_HHA_lstm1_unit_2_1_split_0
I1130 21:15:22.723769  3907 net.cpp:381] HHA_lstm1_h_conted_2 <- cont_3_HHA_lstm1_cont_slice_2_split_0
I1130 21:15:22.723773  3907 net.cpp:339] HHA_lstm1_h_conted_2 -> h_conted_2
I1130 21:15:22.723778  3907 net.cpp:113] Setting up HHA_lstm1_h_conted_2
I1130 21:15:22.723783  3907 net.cpp:120] Top shape: 1 54 100 (5400)
I1130 21:15:22.723784  3907 layer_factory.hpp:74] Creating layer HHA_lstm1_transform_3
I1130 21:15:22.723788  3907 net.cpp:84] Creating Layer HHA_lstm1_transform_3
I1130 21:15:22.723790  3907 net.cpp:381] HHA_lstm1_transform_3 <- h_conted_2
I1130 21:15:22.723794  3907 net.cpp:339] HHA_lstm1_transform_3 -> W_hc_h_2
I1130 21:15:22.723799  3907 net.cpp:113] Setting up HHA_lstm1_transform_3
I1130 21:15:22.723980  3907 net.cpp:120] Top shape: 1 54 400 (21600)
I1130 21:15:22.723986  3907 net.cpp:425] Sharing parameters 'W_hc' owned by layer 'HHA_lstm1_transform_1', param index 0
I1130 21:15:22.723989  3907 layer_factory.hpp:74] Creating layer HHA_lstm1_gate_input_3
I1130 21:15:22.723994  3907 net.cpp:84] Creating Layer HHA_lstm1_gate_input_3
I1130 21:15:22.723996  3907 net.cpp:381] HHA_lstm1_gate_input_3 <- W_hc_h_2
I1130 21:15:22.723999  3907 net.cpp:381] HHA_lstm1_gate_input_3 <- W_xc_x_3
I1130 21:15:22.724006  3907 net.cpp:339] HHA_lstm1_gate_input_3 -> gate_input_3
I1130 21:15:22.724014  3907 net.cpp:113] Setting up HHA_lstm1_gate_input_3
I1130 21:15:22.724019  3907 net.cpp:120] Top shape: 1 54 400 (21600)
I1130 21:15:22.724020  3907 layer_factory.hpp:74] Creating layer HHA_lstm1_unit_3
I1130 21:15:22.724025  3907 net.cpp:84] Creating Layer HHA_lstm1_unit_3
I1130 21:15:22.724027  3907 net.cpp:381] HHA_lstm1_unit_3 <- c_2
I1130 21:15:22.724030  3907 net.cpp:381] HHA_lstm1_unit_3 <- gate_input_3
I1130 21:15:22.724033  3907 net.cpp:381] HHA_lstm1_unit_3 <- cont_3_HHA_lstm1_cont_slice_2_split_1
I1130 21:15:22.724038  3907 net.cpp:339] HHA_lstm1_unit_3 -> c_3
I1130 21:15:22.724043  3907 net.cpp:339] HHA_lstm1_unit_3 -> h_3
I1130 21:15:22.724046  3907 net.cpp:113] Setting up HHA_lstm1_unit_3
I1130 21:15:22.724050  3907 net.cpp:120] Top shape: 1 54 100 (5400)
I1130 21:15:22.724053  3907 net.cpp:120] Top shape: 1 54 100 (5400)
I1130 21:15:22.724056  3907 layer_factory.hpp:74] Creating layer h_3_HHA_lstm1_unit_3_1_split
I1130 21:15:22.724059  3907 net.cpp:84] Creating Layer h_3_HHA_lstm1_unit_3_1_split
I1130 21:15:22.724062  3907 net.cpp:381] h_3_HHA_lstm1_unit_3_1_split <- h_3
I1130 21:15:22.724066  3907 net.cpp:339] h_3_HHA_lstm1_unit_3_1_split -> h_3_HHA_lstm1_unit_3_1_split_0
I1130 21:15:22.724071  3907 net.cpp:339] h_3_HHA_lstm1_unit_3_1_split -> h_3_HHA_lstm1_unit_3_1_split_1
I1130 21:15:22.724076  3907 net.cpp:113] Setting up h_3_HHA_lstm1_unit_3_1_split
I1130 21:15:22.724078  3907 net.cpp:120] Top shape: 1 54 100 (5400)
I1130 21:15:22.724081  3907 net.cpp:120] Top shape: 1 54 100 (5400)
I1130 21:15:22.724084  3907 layer_factory.hpp:74] Creating layer HHA_lstm1_h_conted_3
I1130 21:15:22.724087  3907 net.cpp:84] Creating Layer HHA_lstm1_h_conted_3
I1130 21:15:22.724089  3907 net.cpp:381] HHA_lstm1_h_conted_3 <- h_3_HHA_lstm1_unit_3_1_split_0
I1130 21:15:22.724093  3907 net.cpp:381] HHA_lstm1_h_conted_3 <- cont_4_HHA_lstm1_cont_slice_3_split_0
I1130 21:15:22.724098  3907 net.cpp:339] HHA_lstm1_h_conted_3 -> h_conted_3
I1130 21:15:22.724102  3907 net.cpp:113] Setting up HHA_lstm1_h_conted_3
I1130 21:15:22.724105  3907 net.cpp:120] Top shape: 1 54 100 (5400)
I1130 21:15:22.724107  3907 layer_factory.hpp:74] Creating layer HHA_lstm1_transform_4
I1130 21:15:22.724112  3907 net.cpp:84] Creating Layer HHA_lstm1_transform_4
I1130 21:15:22.724114  3907 net.cpp:381] HHA_lstm1_transform_4 <- h_conted_3
I1130 21:15:22.724118  3907 net.cpp:339] HHA_lstm1_transform_4 -> W_hc_h_3
I1130 21:15:22.724123  3907 net.cpp:113] Setting up HHA_lstm1_transform_4
I1130 21:15:22.724301  3907 net.cpp:120] Top shape: 1 54 400 (21600)
I1130 21:15:22.724305  3907 net.cpp:425] Sharing parameters 'W_hc' owned by layer 'HHA_lstm1_transform_1', param index 0
I1130 21:15:22.724308  3907 layer_factory.hpp:74] Creating layer HHA_lstm1_gate_input_4
I1130 21:15:22.724313  3907 net.cpp:84] Creating Layer HHA_lstm1_gate_input_4
I1130 21:15:22.724315  3907 net.cpp:381] HHA_lstm1_gate_input_4 <- W_hc_h_3
I1130 21:15:22.724318  3907 net.cpp:381] HHA_lstm1_gate_input_4 <- W_xc_x_4
I1130 21:15:22.724323  3907 net.cpp:339] HHA_lstm1_gate_input_4 -> gate_input_4
I1130 21:15:22.724326  3907 net.cpp:113] Setting up HHA_lstm1_gate_input_4
I1130 21:15:22.724330  3907 net.cpp:120] Top shape: 1 54 400 (21600)
I1130 21:15:22.724333  3907 layer_factory.hpp:74] Creating layer HHA_lstm1_unit_4
I1130 21:15:22.724337  3907 net.cpp:84] Creating Layer HHA_lstm1_unit_4
I1130 21:15:22.724340  3907 net.cpp:381] HHA_lstm1_unit_4 <- c_3
I1130 21:15:22.724344  3907 net.cpp:381] HHA_lstm1_unit_4 <- gate_input_4
I1130 21:15:22.724346  3907 net.cpp:381] HHA_lstm1_unit_4 <- cont_4_HHA_lstm1_cont_slice_3_split_1
I1130 21:15:22.724350  3907 net.cpp:339] HHA_lstm1_unit_4 -> c_4
I1130 21:15:22.724354  3907 net.cpp:339] HHA_lstm1_unit_4 -> h_4
I1130 21:15:22.724359  3907 net.cpp:113] Setting up HHA_lstm1_unit_4
I1130 21:15:22.724361  3907 net.cpp:120] Top shape: 1 54 100 (5400)
I1130 21:15:22.724365  3907 net.cpp:120] Top shape: 1 54 100 (5400)
I1130 21:15:22.724370  3907 layer_factory.hpp:74] Creating layer h_4_HHA_lstm1_unit_4_1_split
I1130 21:15:22.724376  3907 net.cpp:84] Creating Layer h_4_HHA_lstm1_unit_4_1_split
I1130 21:15:22.724380  3907 net.cpp:381] h_4_HHA_lstm1_unit_4_1_split <- h_4
I1130 21:15:22.724383  3907 net.cpp:339] h_4_HHA_lstm1_unit_4_1_split -> h_4_HHA_lstm1_unit_4_1_split_0
I1130 21:15:22.724387  3907 net.cpp:339] h_4_HHA_lstm1_unit_4_1_split -> h_4_HHA_lstm1_unit_4_1_split_1
I1130 21:15:22.724391  3907 net.cpp:113] Setting up h_4_HHA_lstm1_unit_4_1_split
I1130 21:15:22.724395  3907 net.cpp:120] Top shape: 1 54 100 (5400)
I1130 21:15:22.724400  3907 net.cpp:120] Top shape: 1 54 100 (5400)
I1130 21:15:22.724401  3907 layer_factory.hpp:74] Creating layer HHA_lstm1_h_conted_4
I1130 21:15:22.724405  3907 net.cpp:84] Creating Layer HHA_lstm1_h_conted_4
I1130 21:15:22.724407  3907 net.cpp:381] HHA_lstm1_h_conted_4 <- h_4_HHA_lstm1_unit_4_1_split_0
I1130 21:15:22.724411  3907 net.cpp:381] HHA_lstm1_h_conted_4 <- cont_5_HHA_lstm1_cont_slice_4_split_0
I1130 21:15:22.724414  3907 net.cpp:339] HHA_lstm1_h_conted_4 -> h_conted_4
I1130 21:15:22.724417  3907 net.cpp:113] Setting up HHA_lstm1_h_conted_4
I1130 21:15:22.724421  3907 net.cpp:120] Top shape: 1 54 100 (5400)
I1130 21:15:22.724424  3907 layer_factory.hpp:74] Creating layer HHA_lstm1_transform_5
I1130 21:15:22.724428  3907 net.cpp:84] Creating Layer HHA_lstm1_transform_5
I1130 21:15:22.724431  3907 net.cpp:381] HHA_lstm1_transform_5 <- h_conted_4
I1130 21:15:22.724434  3907 net.cpp:339] HHA_lstm1_transform_5 -> W_hc_h_4
I1130 21:15:22.724440  3907 net.cpp:113] Setting up HHA_lstm1_transform_5
I1130 21:15:22.724618  3907 net.cpp:120] Top shape: 1 54 400 (21600)
I1130 21:15:22.724622  3907 net.cpp:425] Sharing parameters 'W_hc' owned by layer 'HHA_lstm1_transform_1', param index 0
I1130 21:15:22.724624  3907 layer_factory.hpp:74] Creating layer HHA_lstm1_gate_input_5
I1130 21:15:22.724628  3907 net.cpp:84] Creating Layer HHA_lstm1_gate_input_5
I1130 21:15:22.724632  3907 net.cpp:381] HHA_lstm1_gate_input_5 <- W_hc_h_4
I1130 21:15:22.724634  3907 net.cpp:381] HHA_lstm1_gate_input_5 <- W_xc_x_5
I1130 21:15:22.724637  3907 net.cpp:339] HHA_lstm1_gate_input_5 -> gate_input_5
I1130 21:15:22.724643  3907 net.cpp:113] Setting up HHA_lstm1_gate_input_5
I1130 21:15:22.724647  3907 net.cpp:120] Top shape: 1 54 400 (21600)
I1130 21:15:22.724649  3907 layer_factory.hpp:74] Creating layer HHA_lstm1_unit_5
I1130 21:15:22.724653  3907 net.cpp:84] Creating Layer HHA_lstm1_unit_5
I1130 21:15:22.724656  3907 net.cpp:381] HHA_lstm1_unit_5 <- c_4
I1130 21:15:22.724658  3907 net.cpp:381] HHA_lstm1_unit_5 <- gate_input_5
I1130 21:15:22.724661  3907 net.cpp:381] HHA_lstm1_unit_5 <- cont_5_HHA_lstm1_cont_slice_4_split_1
I1130 21:15:22.724665  3907 net.cpp:339] HHA_lstm1_unit_5 -> c_5
I1130 21:15:22.724671  3907 net.cpp:339] HHA_lstm1_unit_5 -> h_5
I1130 21:15:22.724675  3907 net.cpp:113] Setting up HHA_lstm1_unit_5
I1130 21:15:22.724678  3907 net.cpp:120] Top shape: 1 54 100 (5400)
I1130 21:15:22.724681  3907 net.cpp:120] Top shape: 1 54 100 (5400)
I1130 21:15:22.724684  3907 layer_factory.hpp:74] Creating layer h_5_HHA_lstm1_unit_5_1_split
I1130 21:15:22.724687  3907 net.cpp:84] Creating Layer h_5_HHA_lstm1_unit_5_1_split
I1130 21:15:22.724689  3907 net.cpp:381] h_5_HHA_lstm1_unit_5_1_split <- h_5
I1130 21:15:22.724694  3907 net.cpp:339] h_5_HHA_lstm1_unit_5_1_split -> h_5_HHA_lstm1_unit_5_1_split_0
I1130 21:15:22.724699  3907 net.cpp:339] h_5_HHA_lstm1_unit_5_1_split -> h_5_HHA_lstm1_unit_5_1_split_1
I1130 21:15:22.724702  3907 net.cpp:113] Setting up h_5_HHA_lstm1_unit_5_1_split
I1130 21:15:22.724706  3907 net.cpp:120] Top shape: 1 54 100 (5400)
I1130 21:15:22.724709  3907 net.cpp:120] Top shape: 1 54 100 (5400)
I1130 21:15:22.724711  3907 layer_factory.hpp:74] Creating layer HHA_lstm1_h_conted_5
I1130 21:15:22.724714  3907 net.cpp:84] Creating Layer HHA_lstm1_h_conted_5
I1130 21:15:22.724717  3907 net.cpp:381] HHA_lstm1_h_conted_5 <- h_5_HHA_lstm1_unit_5_1_split_0
I1130 21:15:22.724720  3907 net.cpp:381] HHA_lstm1_h_conted_5 <- cont_6_HHA_lstm1_cont_slice_5_split_0
I1130 21:15:22.724730  3907 net.cpp:339] HHA_lstm1_h_conted_5 -> h_conted_5
I1130 21:15:22.724750  3907 net.cpp:113] Setting up HHA_lstm1_h_conted_5
I1130 21:15:22.724756  3907 net.cpp:120] Top shape: 1 54 100 (5400)
I1130 21:15:22.724757  3907 layer_factory.hpp:74] Creating layer HHA_lstm1_transform_6
I1130 21:15:22.724761  3907 net.cpp:84] Creating Layer HHA_lstm1_transform_6
I1130 21:15:22.724764  3907 net.cpp:381] HHA_lstm1_transform_6 <- h_conted_5
I1130 21:15:22.724768  3907 net.cpp:339] HHA_lstm1_transform_6 -> W_hc_h_5
I1130 21:15:22.724772  3907 net.cpp:113] Setting up HHA_lstm1_transform_6
I1130 21:15:22.724951  3907 net.cpp:120] Top shape: 1 54 400 (21600)
I1130 21:15:22.724956  3907 net.cpp:425] Sharing parameters 'W_hc' owned by layer 'HHA_lstm1_transform_1', param index 0
I1130 21:15:22.724958  3907 layer_factory.hpp:74] Creating layer HHA_lstm1_gate_input_6
I1130 21:15:22.724961  3907 net.cpp:84] Creating Layer HHA_lstm1_gate_input_6
I1130 21:15:22.724964  3907 net.cpp:381] HHA_lstm1_gate_input_6 <- W_hc_h_5
I1130 21:15:22.724967  3907 net.cpp:381] HHA_lstm1_gate_input_6 <- W_xc_x_6
I1130 21:15:22.724972  3907 net.cpp:339] HHA_lstm1_gate_input_6 -> gate_input_6
I1130 21:15:22.724975  3907 net.cpp:113] Setting up HHA_lstm1_gate_input_6
I1130 21:15:22.724979  3907 net.cpp:120] Top shape: 1 54 400 (21600)
I1130 21:15:22.724982  3907 layer_factory.hpp:74] Creating layer HHA_lstm1_unit_6
I1130 21:15:22.724985  3907 net.cpp:84] Creating Layer HHA_lstm1_unit_6
I1130 21:15:22.724987  3907 net.cpp:381] HHA_lstm1_unit_6 <- c_5
I1130 21:15:22.724992  3907 net.cpp:381] HHA_lstm1_unit_6 <- gate_input_6
I1130 21:15:22.724994  3907 net.cpp:381] HHA_lstm1_unit_6 <- cont_6_HHA_lstm1_cont_slice_5_split_1
I1130 21:15:22.724997  3907 net.cpp:339] HHA_lstm1_unit_6 -> c_6
I1130 21:15:22.725003  3907 net.cpp:339] HHA_lstm1_unit_6 -> h_6
I1130 21:15:22.725006  3907 net.cpp:113] Setting up HHA_lstm1_unit_6
I1130 21:15:22.725010  3907 net.cpp:120] Top shape: 1 54 100 (5400)
I1130 21:15:22.725013  3907 net.cpp:120] Top shape: 1 54 100 (5400)
I1130 21:15:22.725015  3907 layer_factory.hpp:74] Creating layer h_6_HHA_lstm1_unit_6_1_split
I1130 21:15:22.725018  3907 net.cpp:84] Creating Layer h_6_HHA_lstm1_unit_6_1_split
I1130 21:15:22.725021  3907 net.cpp:381] h_6_HHA_lstm1_unit_6_1_split <- h_6
I1130 21:15:22.725024  3907 net.cpp:339] h_6_HHA_lstm1_unit_6_1_split -> h_6_HHA_lstm1_unit_6_1_split_0
I1130 21:15:22.725029  3907 net.cpp:339] h_6_HHA_lstm1_unit_6_1_split -> h_6_HHA_lstm1_unit_6_1_split_1
I1130 21:15:22.725033  3907 net.cpp:113] Setting up h_6_HHA_lstm1_unit_6_1_split
I1130 21:15:22.725036  3907 net.cpp:120] Top shape: 1 54 100 (5400)
I1130 21:15:22.725039  3907 net.cpp:120] Top shape: 1 54 100 (5400)
I1130 21:15:22.725041  3907 layer_factory.hpp:74] Creating layer HHA_lstm1_h_conted_6
I1130 21:15:22.725045  3907 net.cpp:84] Creating Layer HHA_lstm1_h_conted_6
I1130 21:15:22.725049  3907 net.cpp:381] HHA_lstm1_h_conted_6 <- h_6_HHA_lstm1_unit_6_1_split_0
I1130 21:15:22.725051  3907 net.cpp:381] HHA_lstm1_h_conted_6 <- cont_7_HHA_lstm1_cont_slice_6_split_0
I1130 21:15:22.725054  3907 net.cpp:339] HHA_lstm1_h_conted_6 -> h_conted_6
I1130 21:15:22.725059  3907 net.cpp:113] Setting up HHA_lstm1_h_conted_6
I1130 21:15:22.725062  3907 net.cpp:120] Top shape: 1 54 100 (5400)
I1130 21:15:22.725064  3907 layer_factory.hpp:74] Creating layer HHA_lstm1_transform_7
I1130 21:15:22.725069  3907 net.cpp:84] Creating Layer HHA_lstm1_transform_7
I1130 21:15:22.725071  3907 net.cpp:381] HHA_lstm1_transform_7 <- h_conted_6
I1130 21:15:22.725075  3907 net.cpp:339] HHA_lstm1_transform_7 -> W_hc_h_6
I1130 21:15:22.725078  3907 net.cpp:113] Setting up HHA_lstm1_transform_7
I1130 21:15:22.725258  3907 net.cpp:120] Top shape: 1 54 400 (21600)
I1130 21:15:22.725263  3907 net.cpp:425] Sharing parameters 'W_hc' owned by layer 'HHA_lstm1_transform_1', param index 0
I1130 21:15:22.725266  3907 layer_factory.hpp:74] Creating layer HHA_lstm1_gate_input_7
I1130 21:15:22.725270  3907 net.cpp:84] Creating Layer HHA_lstm1_gate_input_7
I1130 21:15:22.725275  3907 net.cpp:381] HHA_lstm1_gate_input_7 <- W_hc_h_6
I1130 21:15:22.725281  3907 net.cpp:381] HHA_lstm1_gate_input_7 <- W_xc_x_7
I1130 21:15:22.725286  3907 net.cpp:339] HHA_lstm1_gate_input_7 -> gate_input_7
I1130 21:15:22.725291  3907 net.cpp:113] Setting up HHA_lstm1_gate_input_7
I1130 21:15:22.725294  3907 net.cpp:120] Top shape: 1 54 400 (21600)
I1130 21:15:22.725297  3907 layer_factory.hpp:74] Creating layer HHA_lstm1_unit_7
I1130 21:15:22.725301  3907 net.cpp:84] Creating Layer HHA_lstm1_unit_7
I1130 21:15:22.725303  3907 net.cpp:381] HHA_lstm1_unit_7 <- c_6
I1130 21:15:22.725306  3907 net.cpp:381] HHA_lstm1_unit_7 <- gate_input_7
I1130 21:15:22.725309  3907 net.cpp:381] HHA_lstm1_unit_7 <- cont_7_HHA_lstm1_cont_slice_6_split_1
I1130 21:15:22.725313  3907 net.cpp:339] HHA_lstm1_unit_7 -> c_7
I1130 21:15:22.725317  3907 net.cpp:339] HHA_lstm1_unit_7 -> h_7
I1130 21:15:22.725322  3907 net.cpp:113] Setting up HHA_lstm1_unit_7
I1130 21:15:22.725325  3907 net.cpp:120] Top shape: 1 54 100 (5400)
I1130 21:15:22.725328  3907 net.cpp:120] Top shape: 1 54 100 (5400)
I1130 21:15:22.725330  3907 layer_factory.hpp:74] Creating layer h_7_HHA_lstm1_unit_7_1_split
I1130 21:15:22.725333  3907 net.cpp:84] Creating Layer h_7_HHA_lstm1_unit_7_1_split
I1130 21:15:22.725337  3907 net.cpp:381] h_7_HHA_lstm1_unit_7_1_split <- h_7
I1130 21:15:22.725340  3907 net.cpp:339] h_7_HHA_lstm1_unit_7_1_split -> h_7_HHA_lstm1_unit_7_1_split_0
I1130 21:15:22.725345  3907 net.cpp:339] h_7_HHA_lstm1_unit_7_1_split -> h_7_HHA_lstm1_unit_7_1_split_1
I1130 21:15:22.725349  3907 net.cpp:113] Setting up h_7_HHA_lstm1_unit_7_1_split
I1130 21:15:22.725353  3907 net.cpp:120] Top shape: 1 54 100 (5400)
I1130 21:15:22.725355  3907 net.cpp:120] Top shape: 1 54 100 (5400)
I1130 21:15:22.725358  3907 layer_factory.hpp:74] Creating layer HHA_lstm1_h_conted_7
I1130 21:15:22.725361  3907 net.cpp:84] Creating Layer HHA_lstm1_h_conted_7
I1130 21:15:22.725364  3907 net.cpp:381] HHA_lstm1_h_conted_7 <- h_7_HHA_lstm1_unit_7_1_split_0
I1130 21:15:22.725368  3907 net.cpp:381] HHA_lstm1_h_conted_7 <- cont_8_HHA_lstm1_cont_slice_7_split_0
I1130 21:15:22.725371  3907 net.cpp:339] HHA_lstm1_h_conted_7 -> h_conted_7
I1130 21:15:22.725375  3907 net.cpp:113] Setting up HHA_lstm1_h_conted_7
I1130 21:15:22.725379  3907 net.cpp:120] Top shape: 1 54 100 (5400)
I1130 21:15:22.725381  3907 layer_factory.hpp:74] Creating layer HHA_lstm1_transform_8
I1130 21:15:22.725385  3907 net.cpp:84] Creating Layer HHA_lstm1_transform_8
…
  name: "RGB_lstm1_h_conted_24"
  type: "Eltwise"
  bottom: "h_24"
  bottom: "cont_25"
  top: "h_conted_24"
  eltwise_param {
    operation: SUM
    coeff_blob: true
  }
}
layer {
  name: "RGB_lstm1_transform_25"
  type: "InnerProduct"
  bottom: "h_conted_24"
  top: "W_hc_h_24"
  param {
    name: "W_hc"
  }
  inner_product_param {
    num_output: 400
    bias_term: false
    weight_filler {
      type: "uniform"
      min: -0.01
      max: 0.01
    }
    axis: 2
  }
}
layer {
  name: "RGB_lstm1_gate_input_25"
  type: "Eltwise"
  bottom: "W_hc_h_24"
  bottom: "W_xc_x_25"
  top: "gate_input_25"
  eltwise_param {
    operation: SUM
  }
}
layer {
  name: "RGB_lstm1_unit_25"
  type: "LSTMUnit"
  bottom: "c_24"
  bottom: "gate_input_25"
  bottom: "cont_25"
  top: "c_25"
  top: "h_25"
}
layer {
  name: "RGB_lstm1_h_conted_25"
  type: "Eltwise"
  bottom: "h_25"
  bottom: "cont_26"
  top: "h_conted_25"
  eltwise_param {
    operation: SUM
    coeff_blob: true
  }
}
layer {
  name: "RGB_lstm1_transform_26"
  type: "InnerProduct"
  bottom: "h_conted_25"
  top: "W_hc_h_25"
  param {
    name: "W_hc"
  }
  inner_product_param {
    num_output: 400
    bias_term: false
    weight_filler {
      type: "uniform"
      min: -0.01
      max: 0.01
    }
    axis: 2
  }
}
layer {
  name: "RGB_lstm1_gate_input_26"
  type: "Eltwise"
  bottom: "W_hc_h_25"
  bottom: "W_xc_x_26"
  top: "gate_input_26"
  eltwise_param {
    operation: SUM
  }
}
layer {
  name: "RGB_lstm1_unit_26"
  type: "LSTMUnit"
  bottom: "c_25"
  bottom: "gate_input_26"
  bottom: "cont_26"
  top: "c_26"
  top: "h_26"
}
layer {
  name: "RGB_lstm1_h_conted_26"
  type: "Eltwise"
  bottom: "h_26"
  bottom: "cont_27"
  top: "h_conted_26"
  eltwise_param {
    operation: SUM
    coeff_blob: true
  }
}
layer {
  name: "RGB_lstm1_transform_27"
  type: "InnerProduct"
  bottom: "h_conted_26"
  top: "W_hc_h_26"
  param {
    name: "W_hc"
  }
  inner_product_param {
    num_output: 400
    bias_term: false
    weight_filler {
      type: "uniform"
      min: -0.01
      max: 0.01
    }
    axis: 2
  }
}
layer {
  name: "RGB_lstm1_gate_input_27"
  type: "Eltwise"
  bottom: "W_hc_h_26"
  bottom: "W_xc_x_27"
  top: "gate_input_27"
  eltwise_param {
    operation: SUM
  }
}
layer {
  name: "RGB_lstm1_unit_27"
  type: "LSTMUnit"
  bottom: "c_26"
  bottom: "gate_input_27"
  bottom: "cont_27"
  top: "c_27"
  top: "h_27"
}
layer {
  name: "RGB_lstm1_h_conted_27"
  type: "Eltwise"
  bottom: "h_27"
  bottom: "cont_28"
  top: "h_conted_27"
  eltwise_param {
    operation: SUM
    coeff_blob: true
  }
}
layer {
  name: "RGB_lstm1_transform_28"
  type: "InnerProduct"
  bottom: "h_conted_27"
  top: "W_hc_h_27"
  param {
    name: "W_hc"
  }
  inner_product_param {
    num_output: 400
    bias_term: false
    weight_filler {
      type: "uniform"
      min: -0.01
      max: 0.01
    }
    axis: 2
  }
}
layer {
  name: "RGB_lstm1_gate_input_28"
  type: "Eltwise"
  bottom: "W_hc_h_27"
  bottom: "W_xc_x_28"
  top: "gate_input_28"
  eltwise_param {
    operation: SUM
  }
}
layer {
  name: "RGB_lstm1_unit_28"
  type: "LSTMUnit"
  bottom: "c_27"
  bottom: "gate_input_28"
  bottom: "cont_28"
  top: "c_28"
  top: "h_28"
}
layer {
  name: "RGB_lstm1_h_conted_28"
  type: "Eltwise"
  bottom: "h_28"
  bottom: "cont_29"
  top: "h_conted_28"
  eltwise_param {
    operation: SUM
    coeff_blob: true
  }
}
layer {
  name: "RGB_lstm1_transform_29"
  type: "InnerProduct"
  bottom: "h_conted_28"
  top: "W_hc_h_28"
  param {
    name: "W_hc"
  }
  inner_product_param {
    num_output: 400
    bias_term: false
    weight_filler {
      type: "uniform"
      min: -0.01
      max: 0.01
    }
    axis: 2
  }
}
layer {
  name: "RGB_lstm1_gate_input_29"
  type: "Eltwise"
  bottom: "W_hc_h_28"
  bottom: "W_xc_x_29"
  top: "gate_input_29"
  eltwise_param {
    operation: SUM
  }
}
layer {
  name: "RGB_lstm1_unit_29"
  type: "LSTMUnit"
  bottom: "c_28"
  bottom: "gate_input_29"
  bottom: "cont_29"
  top: "c_29"
  top: "h_29"
}
layer {
  name: "RGB_lstm1_h_conted_29"
  type: "Eltwise"
  bottom: "h_29"
  bottom: "cont_30"
  top: "h_conted_29"
  eltwise_param {
    operation: SUM
    coeff_blob: true
  }
}
layer {
  name: "RGB_lstm1_transform_30"
  type: "InnerProduct"
  bottom: "h_conted_29"
  top: "W_hc_h_29"
  param {
    name: "W_hc"
  }
  inner_product_param {
    num_output: 400
    bias_term: false
    weight_filler {
      type: "uniform"
      min: -0.01
      max: 0.01
    }
    axis: 2
  }
}
layer {
  name: "RGB_lstm1_gate_input_30"
  type: "Eltwise"
  bottom: "W_hc_h_29"
  bottom: "W_xc_x_30"
  top: "gate_input_30"
  eltwise_param {
    operation: SUM
  }
}
layer {
  name: "RGB_lstm1_unit_30"
  type: "LSTMUnit"
  bottom: "c_29"
  bottom: "gate_input_30"
  bottom: "cont_30"
  top: "c_30"
  top: "h_30"
}
layer {
  name: "RGB_lstm1_h_conted_30"
  type: "Eltwise"
  bottom: "h_30"
  bottom: "cont_31"
  top: "h_conted_30"
  eltwise_param {
    operation: SUM
    coeff_blob: true
  }
}
layer {
  name: "RGB_lstm1_transform_31"
  type: "InnerProduct"
  bottom: "h_conted_30"
  top: "W_hc_h_30"
  param {
    name: "W_hc"
  }
  inner_product_param {
    num_output: 400
    bias_term: false
    weight_filler {
      type: "uniform"
      min: -0.01
      max: 0.01
    }
    axis: 2
  }
}
layer {
  name: "RGB_lstm1_gate_input_31"
  type: "Eltwise"
  bottom: "W_hc_h_30"
  bottom: "W_xc_x_31"
  top: "gate_input_31"
  eltwise_param {
    operation: SUM
  }
}
layer {
  name: "RGB_lstm1_unit_31"
  type: "LSTMUnit"
  bottom: "c_30"
  bottom: "gate_input_31"
  bottom: "cont_31"
  top: "c_31"
  top: "h_31"
}
layer {
  name: "RGB_lstm1_h_conted_31"
  type: "Eltwise"
  bottom: "h_31"
  bottom: "cont_32"
  top: "h_conted_31"
  eltwise_param {
    operation: SUM
    coeff_blob: true
  }
}
layer {
  name: "RGB_lstm1_transform_32"
  type: "InnerProduct"
  bottom: "h_conted_31"
  top: "W_hc_h_31"
  param {
    name: "W_hc"
  }
  inner_product_param {
    num_output: 400
    bias_term: false
    weight_filler {
      type: "uniform"
      min: -0.01
      max: 0.01
    }
    axis: 2
  }
}
layer {
  name: "RGB_lstm1_gate_input_32"
  type: "Eltwise"
  bottom: "W_hc_h_31"
  bottom: "W_xc_x_32"
  top: "gate_input_32"
  eltwise_param {
    operation: SUM
  }
}
layer {
  name: "RGB_lstm1_unit_32"
  type: "LSTMUnit"
  bottom: "c_31"
  bottom: "gate_input_32"
  bottom: "cont_32"
  top: "c_32"
  top: "h_32"
}
layer {
  name: "RGB_lstm1_h_conted_32"
  type: "Eltwise"
  bottom: "h_32"
  bottom: "cont_33"
  top: "h_conted_32"
  eltwise_param {
    operation: SUM
    coeff_blob: true
  }
}
layer {
  name: "RGB_lstm1_transform_33"
  type: "InnerProduct"
  bottom: "h_conted_32"
  top: "W_hc_h_32"
  param {
    name: "W_hc"
  }
  inner_product_param {
    num_output: 400
    bias_term: false
    weight_filler {
      type: "uniform"
      min: -0.01
      max: 0.01
    }
    axis: 2
  }
}
layer {
  name: "RGB_lstm1_gate_input_33"
  type: "Eltwise"
  bottom: "W_hc_h_32"
  bottom: "W_xc_x_33"
  top: "gate_input_33"
  eltwise_param {
    operation: SUM
  }
}
layer {
  name: "RGB_lstm1_unit_33"
  type: "LSTMUnit"
  bottom: "c_32"
  bottom: "gate_input_33"
  bottom: "cont_33"
  top: "c_33"
  top: "h_33"
}
layer {
  name: "RGB_lstm1_h_conted_33"
  type: "Eltwise"
  bottom: "h_33"
  bottom: "cont_34"
  top: "h_conted_33"
  eltwise_param {
    operation: SUM
    coeff_blob: true
  }
}
layer {
  name: "RGB_lstm1_transform_34"
  type: "InnerProduct"
  bottom: "h_conted_33"
  top: "W_hc_h_33"
  param {
    name: "W_hc"
  }
  inner_product_param {
    num_output: 400
    bias_term: false
    weight_filler {
      type: "uniform"
      min: -0.01
      max: 0.01
    }
    axis: 2
  }
}
layer {
  name: "RGB_lstm1_gate_input_34"
  type: "Eltwise"
  bottom: "W_hc_h_33"
  bottom: "W_xc_x_34"
  top: "gate_input_34"
  eltwise_param {
    operation: SUM
  }
}
layer {
  name: "RGB_lstm1_unit_34"
  type: "LSTMUnit"
  bottom: "c_33"
  bottom: "gate_input_34"
  bottom: "cont_34"
  top: "c_34"
  top: "h_34"
}
layer {
  name: "RGB_lstm1_h_conted_34"
  type: "Eltwise"
  bottom: "h_34"
  bottom: "cont_35"
  top: "h_c
I1130 21:15:22.766777  3907 net.cpp:341] Input 0 -> x
I1130 21:15:22.766784  3907 net.cpp:341] Input 1 -> cont
I1130 21:15:22.766788  3907 net.cpp:341] Input 2 -> c_0
I1130 21:15:22.766793  3907 net.cpp:341] Input 3 -> h_0
I1130 21:15:22.766811  3907 layer_factory.hpp:74] Creating layer RGB_lstm1_cont_slice
I1130 21:15:22.766819  3907 net.cpp:84] Creating Layer RGB_lstm1_cont_slice
…
I1130 21:15:22.813779  3907 net.cpp:205] This network produces output c_T
I1130 21:15:22.813783  3907 net.cpp:205] This network produces output h
I1130 21:15:22.813998  3907 net.cpp:446] Collecting Learning Rate and Weight Decay.
I1130 21:15:22.814024  3907 net.cpp:218] Network initialization done.
I1130 21:15:22.814028  3907 net.cpp:219] Memory required for data: 25674192
I1130 21:15:22.814355  3907 recurrent_layer.cpp:135] Adding parameter 0: W_xc
I1130 21:15:22.814360  3907 recurrent_layer.cpp:135] Adding parameter 1: b_c
I1130 21:15:22.814363  3907 recurrent_layer.cpp:135] Adding parameter 2: W_hc
I1130 21:15:22.814528  3907 net.cpp:120] Top shape: 54 54 100 (291600)
I1130 21:15:22.814535  3907 layer_factory.hpp:74] Creating layer RGB_lstm1_reshape
I1130 21:15:22.814541  3907 net.cpp:84] Creating Layer RGB_lstm1_reshape
I1130 21:15:22.814545  3907 net.cpp:381] RGB_lstm1_reshape <- RGB_lstm1
I1130 21:15:22.814549  3907 net.cpp:339] RGB_lstm1_reshape -> RGB_lstm1_reshape
I1130 21:15:22.814555  3907 net.cpp:113] Setting up RGB_lstm1_reshape
I1130 21:15:22.814563  3907 net.cpp:120] Top shape: 1 100 54 54 (291600)
I1130 21:15:22.814565  3907 layer_factory.hpp:74] Creating layer RGB_lstm1_trans
I1130 21:15:22.814569  3907 net.cpp:84] Creating Layer RGB_lstm1_trans
I1130 21:15:22.814573  3907 net.cpp:381] RGB_lstm1_trans <- RGB_lstm1_reshape
I1130 21:15:22.814576  3907 net.cpp:339] RGB_lstm1_trans -> RGB_lstm1_trans
I1130 21:15:22.814580  3907 net.cpp:113] Setting up RGB_lstm1_trans
I1130 21:15:22.814584  3907 net.cpp:120] Top shape: 1 100 54 54 (291600)
I1130 21:15:22.814587  3907 layer_factory.hpp:74] Creating layer RGB_lstm2_reshape
I1130 21:15:22.814590  3907 net.cpp:84] Creating Layer RGB_lstm2_reshape
I1130 21:15:22.814599  3907 net.cpp:381] RGB_lstm2_reshape <- RGB_lstm2
I1130 21:15:22.814601  3907 net.cpp:339] RGB_lstm2_reshape -> RGB_lstm2_reshape
I1130 21:15:22.814606  3907 net.cpp:113] Setting up RGB_lstm2_reshape
I1130 21:15:22.814610  3907 net.cpp:120] Top shape: 1 100 54 54 (291600)
I1130 21:15:22.814613  3907 layer_factory.hpp:74] Creating layer RGB_lstm2_trans
I1130 21:15:22.814616  3907 net.cpp:84] Creating Layer RGB_lstm2_trans
I1130 21:15:22.814620  3907 net.cpp:381] RGB_lstm2_trans <- RGB_lstm2_reshape
I1130 21:15:22.814622  3907 net.cpp:339] RGB_lstm2_trans -> RGB_lstm2_trans
I1130 21:15:22.814626  3907 net.cpp:113] Setting up RGB_lstm2_trans
I1130 21:15:22.814630  3907 net.cpp:120] Top shape: 1 100 54 54 (291600)
I1130 21:15:22.814633  3907 layer_factory.hpp:74] Creating layer RGB_global
I1130 21:15:22.814636  3907 net.cpp:84] Creating Layer RGB_global
I1130 21:15:22.814640  3907 net.cpp:381] RGB_global <- RGB_lstm1_trans
I1130 21:15:22.814642  3907 net.cpp:381] RGB_global <- RGB_lstm2_trans
I1130 21:15:22.814646  3907 net.cpp:339] RGB_global -> RGB_global
I1130 21:15:22.814649  3907 net.cpp:113] Setting up RGB_global
I1130 21:15:22.814653  3907 net.cpp:120] Top shape: 1 200 54 54 (583200)
I1130 21:15:22.814656  3907 layer_factory.hpp:74] Creating layer RGB_HHA_global
I1130 21:15:22.814659  3907 net.cpp:84] Creating Layer RGB_HHA_global
I1130 21:15:22.814661  3907 net.cpp:381] RGB_HHA_global <- RGB_global
I1130 21:15:22.814666  3907 net.cpp:381] RGB_HHA_global <- HHA_global
I1130 21:15:22.814668  3907 net.cpp:339] RGB_HHA_global -> RGB_HHA_global
I1130 21:15:22.814672  3907 net.cpp:113] Setting up RGB_HHA_global
I1130 21:15:22.814677  3907 net.cpp:120] Top shape: 1 400 54 54 (1166400)
I1130 21:15:22.814678  3907 layer_factory.hpp:74] Creating layer RGB_HHA_global_trans
I1130 21:15:22.814682  3907 net.cpp:84] Creating Layer RGB_HHA_global_trans
I1130 21:15:22.814684  3907 net.cpp:381] RGB_HHA_global_trans <- RGB_HHA_global
I1130 21:15:22.814688  3907 net.cpp:339] RGB_HHA_global_trans -> RGB_HHA_global_trans
I1130 21:15:22.814692  3907 net.cpp:113] Setting up RGB_HHA_global_trans
I1130 21:15:22.814695  3907 net.cpp:120] Top shape: 54 54 400 (1166400)
I1130 21:15:22.814698  3907 layer_factory.hpp:74] Creating layer RGB_HHA_global_trans_RGB_HHA_global_trans_0_split
I1130 21:15:22.814702  3907 net.cpp:84] Creating Layer RGB_HHA_global_trans_RGB_HHA_global_trans_0_split
I1130 21:15:22.814704  3907 net.cpp:381] RGB_HHA_global_trans_RGB_HHA_global_trans_0_split <- RGB_HHA_global_trans
I1130 21:15:22.814708  3907 net.cpp:339] RGB_HHA_global_trans_RGB_HHA_global_trans_0_split -> RGB_HHA_global_trans_RGB_HHA_global_trans_0_split_0
I1130 21:15:22.814713  3907 net.cpp:339] RGB_HHA_global_trans_RGB_HHA_global_trans_0_split -> RGB_HHA_global_trans_RGB_HHA_global_trans_0_split_1
I1130 21:15:22.814716  3907 net.cpp:113] Setting up RGB_HHA_global_trans_RGB_HHA_global_trans_0_split
I1130 21:15:22.814720  3907 net.cpp:120] Top shape: 54 54 400 (1166400)
I1130 21:15:22.814723  3907 net.cpp:120] Top shape: 54 54 400 (1166400)
I1130 21:15:22.814726  3907 layer_factory.hpp:74] Creating layer global1
I1130 21:15:22.814730  3907 net.cpp:84] Creating Layer global1
I1130 21:15:22.814733  3907 net.cpp:381] global1 <- RGB_HHA_global_trans_RGB_HHA_global_trans_0_split_0
I1130 21:15:22.814736  3907 net.cpp:381] global1 <- mask_54_54_horizontal_1
I1130 21:15:22.814743  3907 net.cpp:339] global1 -> global1
I1130 21:15:22.814748  3907 net.cpp:113] Setting up global1
I1130 21:15:22.814750  3907 recurrent_layer.cpp:27] Initializing recurrent layer: assuming input batch contains 54 timesteps of 54 independent streams.
I1130 21:15:22.815697  3907 net.cpp:42] Initializing net from parameters: 
input: "x"
input: "cont"
input: "c_0"
input: "h_0"
force_backward: true
input_shape {
  dim: 54
  dim: 54
  dim: 400
}
input_shape {
  dim: 1
  dim: 54
  dim: 54
}
input_shape {
  dim: 1
  dim: 54
  dim: 100
}
input_shape {
  dim: 1
  dim: 54
  dim: 100
}
layer {
  name: "global1_cont_slice"
  type: "Slice"
  bottom: "cont"
  top: "cont_1"
  top: "cont_2"
  top: "cont_3"
  top: "cont_4"
  top: "cont_5"
  top: "cont_6"
  top: "cont_7"
  top: "cont_8"
  top: "cont_9"
  top: "cont_10"
  top: "cont_11"
  top: "cont_12"
  top: "cont_13"
  top: "cont_14"
  top: "cont_15"
  top: "cont_16"
  top: "cont_17"
  top: "cont_18"
  top: "cont_19"
  top: "cont_20"
  top: "cont_21"
  top: "cont_22"
  top: "cont_23"
  top: "cont_24"
  top: "cont_25"
  top: "cont_26"
  top: "cont_27"
  top: "cont_28"
  top: "cont_29"
  top: "cont_30"
  top: "cont_31"
  top: "cont_32"
  top: "cont_33"
  top: "cont_34"
  top: "cont_35"
  top: "cont_36"
  top: "cont_37"
  top: "cont_38"
  top: "cont_39"
  top: "cont_40"
  top: "cont_41"
  top: "cont_42"
  top: "cont_43"
  top: "cont_44"
  top: "cont_45"
  top: "cont_46"
  top: "cont_47"
  top: "cont_48"
  top: "cont_49"
  top: "cont_50"
  top: "cont_51"
  top: "cont_52"
  top: "cont_53"
  top: "cont_54"
  slice_param {
    axis: 1
  }
}
layer {
  name: "global1_x_transform"
  type: "InnerProduct"
  bottom: "x"
  top: "W_xc_x"
  param {
    name: "W_xc"
  }
  param {
    name: "b_c"
  }
  inner_product_param {
    num_output: 400
    bias_term: true
    weight_filler {
      type: "uniform"
      min: -0.01
      max: 0.01
    }
    bias_filler {
      type: "constant"
      value: 0
    }
    axis: 2
  }
}
layer {
  name: "global1_W_xc_x_slice"
  type: "Slice"
  bottom: "W_xc_x"
  top: "W_xc_x_1"
  top: "W_xc_x_2"
  top: "W_xc_x_3"
  top: "W_xc_x_4"
  top: "W_xc_x_5"
  top: "W_xc_x_6"
  top: "W_xc_x_7"
  top: "W_xc_x_8"
  top: "W_xc_x_9"
  top: "W_xc_x_10"
  top: "W_xc_x_11"
  top: "W_xc_x_12"
  top: "W_xc_x_13"
  top: "W_xc_x_14"
  top: "W_xc_x_15"
  top: "W_xc_x_16"
  top: "W_xc_x_17"
  top: "W_xc_x_18"
  top: "W_xc_x_19"
  top: "W_xc_x_20"
  top: "W_xc_x_21"
  top: "W_xc_x_22"
  top: "W_xc_x_23"
  top: "W_xc_x_24"
  top: "W_xc_x_25"
  top: "W_xc_x_26"
  top: "W_xc_x_27"
  top: "W_xc_x_28"
  top: "W_xc_x_29"
  top: "W_xc_x_30"
  top: "W_xc_x_31"
  top: "W_xc_x_32"
  top: "W_xc_x_33"
  top: "W_xc_x_34"
  top: "W_xc_x_35"
  top: "W_xc_x_36"
  top: "W_xc_x_37"
  top: "W_xc_x_38"
  top: "W_xc_x_39"
  top: "W_xc_x_40"
  top: "W_xc_x_41"
  top: "W_xc_x_42"
  top: "W_xc_x_43"
  top: "W_xc_x_44"
  top: "W_xc_x_45"
  top: "W_xc_x_46"
  top: "W_xc_x_47"
  top: "W_xc_x_48"
  top: "W_xc_x_49"
  top: "W_xc_x_50"
  top: "W_xc_x_51"
  top: "W_xc_x_52"
  top: "W_xc_x_53"
  top: "W_xc_x_54"
  slice_param {
    axis: 0
  }
}
layer {
  name: "global1_h_conted_0"
  type: "Eltwise"
  bottom: "h_0"
  bottom: "cont_1"
  top: "h_conted_0"
  eltwise_param {
    operation: SUM
    coeff_blob: true
  }
}
layer {
  name: "global1_transform_1"
  type: "InnerProduct"
  bottom: "h_conted_0"
  top: "W_hc_h_0"
  param {
    name: "W_hc"
  }
  inner_product_param {
    num_output: 400
    bias_term: false
    weight_filler {
      type: "uniform"
      min: -0.01
      max: 0.01
    }
    axis: 2
  }
}
layer {
  name: "global1_gate_input_1"
  type: "Eltwise"
  bottom: "W_hc_h_0"
  bottom: "W_xc_x_1"
  top: "gate_input_1"
  eltwise_param {
    operation: SUM
  }
}
layer {
  name: "global1_unit_1"
  type: "LSTMUnit"
  bottom: "c_0"
  bottom: "gate_input_1"
  bottom: "cont_1"
  top: "c_1"
  top: "h_1"
}
layer {
  name: "global1_h_conted_1"
  type: "Eltwise"
  bottom: "h_1"
  bottom: "cont_2"
  top: "h_conted_1"
  eltwise_param {
    operation: SUM
    coeff_blob: true
  }
}
layer {
  name: "global1_transform_2"
  type: "InnerProduct"
  bottom: "h_conted_1"
  top: "W_hc_h_1"
  param {
    name: "W_hc"
  }
  inner_product_param {
    num_output: 400
    bias_term: false
    weight_filler {
      type: "uniform"
      min: -0.01
      max: 0.01
    }
    axis: 2
  }
}
layer {
  name: "global1_gate_input_2"
  type: "Eltwise"
  bottom: "W_hc_h_1"
  bottom: "W_xc_x_2"
  top: "gate_input_2"
  eltwise_param {
    operation: SUM
  }
}
layer {
  name: "global1_unit_2"
  type: "LSTMUnit"
  bottom: "c_1"
  bottom: "gate_input_2"
  bottom: "cont_2"
  top: "c_2"
  top: "h_2"
}
layer {
  name: "global1_h_conted_2"
  type: "Eltwise"
  bottom: "h_2"
  bottom: "cont_3"
  top: "h_conted_2"
  eltwise_param {
    operation: SUM
    coeff_blob: true
  }
}
layer {
  name: "global1_transform_3"
  type: "InnerProduct"
  bottom: "h_conted_2"
  top: "W_hc_h_2"
  param {
    name: "W_hc"
  }
  inner_product_param {
    num_output: 400
    bias_term: false
    weight_filler {
      type: "uniform"
      min: -0.01
      max: 0.01
    }
    axis: 2
  }
}
layer {
  name: "global1_gate_input_3"
  type: "Eltwise"
  bottom: "W_hc_h_2"
  bottom: "W_xc_x_3"
  top: "gate_input_3"
  eltwise_param {
    operation: SUM
  }
}
layer {
  name: "global1_unit_3"
  type: "LSTMUnit"
  bottom: "c_2"
  bottom: "gate_input_3"
  bottom: "cont_3"
  top: "c_3"
  top: "h_3"
}
layer {
  name: "global1_h_conted_3"
  type: "Eltwise"
  bottom: "h_3"
  bottom: "cont_4"
  top: "h_conted_3"
  eltwise_param {
    operation: SUM
    coeff_blob: true
  }
}
layer {
  name: "global1_transform_4"
  type: "InnerProduct"
  bottom: "h_conted_3"
  top: "W_hc_h_3"
  param {
    name: "W_hc"
  }
  inner_product_param {
    num_output: 400
    bias_term: false
    weight_filler {
      type: "uniform"
      min: -0.01
      max: 0.01
    }
    axis: 2
  }
}
layer {
  name: "global1_gate_input_4"
  type: "Eltwise"
  bottom: "W_hc_h_3"
  bottom: "W_xc_x_4"
  top: "gate_input_4"
  eltwise_param {
    operation: SUM
  }
}
layer {
  name: "global1_unit_4"
  type: "LSTMUnit"
  bottom: "c_3"
  bottom: "gate_input_4"
  bottom: "cont_4"
  top: "c_4"
  top: "h_4"
}
layer {
  name: "global1_h_conted_4"
  type: "Eltwise"
  bottom: "h_4"
  bottom: "cont_5"
  top: "h_conted_4"
  eltwise_param {
    operation: SUM
    coeff_blob: true
  }
}
layer {
  name: "global1_transform_5"
  type: "InnerProduct"
  bottom: "h_conted_4"
  top: "W_hc_h_4"
  param {
    name: "W_hc"
  }
  inner_product_param {
    num_output: 400
    bias_term: false
    weight_filler {
      type: "uniform"
      min: -0.01
      max: 0.01
    }
    axis: 2
  }
}
layer {
  name: "global1_gate_input_5"
  type: "Eltwise"
  bottom: "W_hc_h_4"
  bottom: "W_xc_x_5"
  top: "gate_input_5"
  eltwise_param {
    operation: SUM
  }
}
layer {
  name: "global1_unit_5"
  type: "LSTMUnit"
  bottom: "c_4"
  bottom: "gate_input_5"
  bottom: "cont_5"
  top: "c_5"
  top: "h_5"
}
layer {
  name: "global1_h_conted_5"
  type: "Eltwise"
  bottom: "h_5"
  bottom: "cont_6"
  top: "h_conted_5"
  eltwise_param {
    operation: SUM
    coeff_blob: true
  }
}
layer {
  name: "global1_transform_6"
  type: "InnerProduct"
  bottom: "h_conted_5"
  top: "W_hc_h_5"
  param {
    name: "W_hc"
  }
  inner_product_param {
    num_output: 400
    bias_term: false
    weight_filler {
      type: "uniform"
      min: -0.01
      max: 0.01
    }
    axis: 2
  }
}
layer {
  name: "global1_gate_input_6"
  type: "Eltwise"
  bottom: "W_hc_h_5"
  bottom: "W_xc_x_6"
  top: "gate_input_6"
  eltwise_param {
    operation: SUM
  }
}
layer {
  name: "global1_unit_6"
  type: "LSTMUnit"
  bottom: "c_5"
  bottom: "gate_input_6"
  bottom: "cont_6"
  top: "c_6"
  top: "h_6"
}
layer {
  name: "global1_h_conted_6"
  type: "Eltwise"
  bottom: "h_6"
  bottom: "cont_7"
  top: "h_conted_6"
  eltwise_param {
    operation: SUM
    coeff_blob: true
  }
}
layer {
  name: "global1_transform_7"
  type: "InnerProduct"
  bottom: "h_conted_6"
  top: "W_hc_h_6"
  param {
    name: "W_hc"
  }
  inner_product_param {
    num_output: 400
    bias_term: false
    weight_filler {
      type: "uniform"
      min: -0.01
      max: 0.01
    }
    axis: 2
  }
}
layer {
  name: "global1_gate_input_7"
  type: "Eltwise"
  bottom: "W_hc_h_6"
  bottom: "W_xc_x_7"
  top: "gate_input_7"
  eltwise_param {
    operation: SUM
  }
}
layer {
  name: "global1_unit_7"
  type: "LSTMUnit"
  bottom: "c_6"
  bottom: "gate_input_7"
  bottom: "cont_7"
  top: "c_7"
  top: "h_7"
}
layer {
  name: "global1_h_conted_7"
  type: "Eltwise"
  bottom: "h_7"
  bottom: "cont_8"
  top: "h_conted_7"
  eltwise_param {
    operation: SUM
    coeff_blob: true
  }
}
layer {
  name: "global1_transform_8"
  type: "InnerProduct"
  bottom: "h_conted_7"
  top: "W_hc_h_7"
  param {
    name: "W_hc"
  }
  inner_product_param {
    num_output: 400
    bias_term: false
    weight_filler {
      type: "uniform"
      min: -0.01
      max: 0.01
    }
    axis: 2
  }
}
layer {
  name: "global1_gate_input_8"
  type: "Eltwise"
  bottom: "W_hc_h_7"
  bottom: "W_xc_x_8"
  top: "gate_input_8"
  eltwise_param {
    operation: SUM
  }
}
layer {
  name: "global1_unit_8"
  type: "LSTMUnit"
  bottom: "c_7"
  bottom: "gate_input_8"
  bottom: "cont_8"
  top: "c_8"
  top: "h_8"
}
layer {
  name: "global1_h_conted_8"
  type: "Eltwise"
  bottom: "h_8"
  bottom: "cont_9"
  top: "h_conted_8"
  eltwise_param {
    operation: SUM
    coeff_blob: true
  }
}
layer {
  name: "global1_transform_9"
  type: "InnerProduct"
  bottom: "h_conted_8"
  top: "W_hc_h_8"
  param {
    name: "W_hc"
  }
  inner_product_param {
    num_output: 400
    bias_term: false
    weight_filler {
      type: "uniform"
      min: -0.01
      max: 0.01
    }
    axis: 2
  }
}
layer {
  name: "global1_gate_input_9"
  type: "Eltwise"
  bottom: "W_hc_h_8"
  bottom: "W_xc_x_9"
  top: "gate_input_9"
  eltwise_param {
    operation: SUM
  }
}
layer {
  name: "global1_unit_9"
  type: "LSTMUnit"
  bottom: "c_8"
  bottom: "gate_input_9"
  bottom: "cont_9"
  top: "c_9"
  top: "h_9"
}
layer {
  name: "global1_h_conted_9"
  type: "Eltwise"
  bottom: "h_9"
  bottom: "cont_10"
  top: "h_conted_9"
  eltwise_param {
    operation: SUM
    coeff_blob: true
  }
}
layer {
  name: "global1_transform_10"
  type: "InnerProduct"
  bottom: "h_conted_9"
  top: "W_hc_h_9"
  param {
    name: "W_hc"
  }
  inner_product_param {
    num_output: 400
    bias_term: false
    weight_filler {
      type: "uniform"
      min: -0.01
      max: 0.01
    }
    axis: 2
  }
}
layer {
  name: "global1_gate_input_10"
  type: "Eltwise"
  bottom: "W_hc_h_9"
  bottom: "W_xc_x_10"
  top: "gate_input_10"
  eltwise_param {
    operation: SUM
  }
}
layer {
  name: "global1_unit_10"
  type: "LSTMUnit"
  bottom: "c_9"
  bottom: "gate_input_10"
  bottom: "cont_10"
  top: "c_10"
  top: "h_10"
}
layer {
  name: "global1_h_conted_10"
  type: "Eltwise"
  bottom: "h_10"
  bottom: "cont_11"
  top: "h_conted_10"
  eltwise_param {
    operation: SUM
    coeff_blob: true
  }
}
layer {
  name: "global1_transform_11"
  type: "InnerProduct"
  bottom: "h_conted_10"
  top: "W_hc_h_10"
  param {
    name: "W_hc"
  }
  inner_product_param {
    num_output: 400
    bias_term: false
    weight_filler {
      type: "uniform"
      min: -0.01
      max: 0.01
    }
    axis: 2
  }
}
layer {
  name: "global1_gate_input_11"
  type: "Eltwise"
  bottom: "W_hc_h_10"
  bottom: "W_xc_x_11"
  top: "gate_input_11"
  eltwise_param {
    operation: SUM
  }
}
layer {
  name: "global1_unit_11"
  type: "LSTMUnit"
  bottom: "c_10"
  bottom: "gate_input_11"
  bottom: "cont_11"
  top: "c_11"
  top: "h_11"
}
layer {
  name: "global1_h_conted_11"
  type: "Eltwise"
  bottom: "h_11"
  bottom: "cont_12"
  top: "h_conted_11"
  eltwise_param {
    operation: SUM
    coeff_blob: true
  }
}
layer {
  name: "global1_transform_12"
  type: "InnerProduct"
  bottom: "h_conted_11"
  top: "W_hc_h_11"
  param {
    name: "W_hc"
  }
  inner_product_param {
    num_output: 400
    bias_term: false
    weight_filler {
      type: "uniform"
      min: -0.01
      max: 0.01
    }
    axis: 2
  }
}
layer {
  name: "global1_gate_input_12"
  type: "Eltwise"
  bottom: "W_hc_h_11"
  bottom: "W_xc_x_12"
  top: "gate_input_12"
  eltwise_param {
    operation: SUM
  }
}
layer {
  name: "global1_unit_12"
  type: "LSTMUnit"
  bottom: "c_11"
  bottom: "gate_input_12"
  bottom: "cont_12"
  top: "c_12"
  top: "h_12"
}
layer {
  name: "global1_h_conted_12"
  type: "Eltwise"
  bottom: "h_12"
  bottom: "cont_13"
  top: "h_conted_12"
  eltwise_param {
    operation: SUM
    coeff_blob: true
  }
}
layer {
  name: "global1_transform_13"
  type: "InnerProduct"
  bottom: "h_conted_12"
  top: "W_hc_h_12"
  param {
    name: "W_hc"
  }
  inner_product_param {
    num_output: 400
    bias_term: false
    weight_filler {
      type: "uniform"
      min: -0.01
      max: 0.01
    }
    axis: 2
  }
}
layer {
  name: "global1_gate_input_13"
  type: "Eltwise"
  bottom: "W_hc_h_12"
  bottom: "W_xc_x_13"
  top: "gate_input_13"
  eltwise_param {
    operation: SUM
  }
}
layer {
  name: "global1_unit_13"
  type: "LSTMUnit"
  bottom: "c_12"
  bottom: "gate_input_13"
  bottom: "cont_13"
  top: "c_13"
  top: "h_13"
}
layer {
  name: "global1_h_conted_13"
  type: "Eltwise"
  bottom: "h_13"
  bottom: "cont_14"
  top: "h_conted_13"
  eltwise_param {
    operation: SUM
    coeff_blob: true
  }
}
layer {
  name: "global1_transform_14"
  type: "InnerProduct"
  bottom: "h_conted_13"
  top: "W_hc_h_13"
  param {
    name: "W_hc"
  }
  inner_product_param {
    num_output: 400
    bias_term: false
    weight_filler {
      type: "uniform"
      min: -0.01
      max: 0.01
    }
    axis: 2
  }
}
layer {
  name: "global1_gate_input_14"
  type: "Eltwise"
  bottom: "W_hc_h_13"
  bottom: "W_xc_x_14"
  top: "gate_input_14"
  eltwise_param {
    operation: SUM
  }
}
layer {
  name: "global1_unit_14"
  type: "LSTMUnit"
  bottom: "c_13"
  bottom: "gate_input_14"
  bottom: "cont_14"
  top: "c_14"
  top: "h_14"
}
layer {
  name: "global1_h_conted_14"
  type: "Eltwise"
  bottom: "h_14"
  bottom: "cont_15"
  top: "h_conted_14"
  eltwise_param {
    operation: SUM
    coeff_blob: true
  }
}
layer {
  name: "global1_transform_15"
  type: "InnerProduct"
  bottom: "h_conted_14"
  top: "W_hc_h_14"
  param {
    name: "W_hc"
  }
  inner_product_param {
    num_output: 400
    bias_term: false
    weight_filler {
      type: "uniform"
      min: -0.01
      max: 0.01
    }
    axis: 2
  }
}
layer {
  name: "global1_gate_input_15"
  type: "Eltwise"
  bottom: "W_hc_h_14"
  bottom: "W_xc_x_15"
  top: "gate_input_15"
  eltwise_param {
    operation: SUM
  }
}
layer {
  name: "global1_unit_15"
  type: "LSTMUnit"
  bottom: "c_14"
  bottom: "gate_input_15"
  bottom: "cont_15"
  top: "c_15"
  top: "h_15"
}
layer {
  name: "global1_h_conted_15"
  type: "Eltwise"
  bottom: "h_15"
  bottom: "cont_16"
  top: "h_conted_15"
  eltwise_param {
    operation: SUM
    coeff_blob: true
  }
}
layer {
  name: "global1_transform_16"
  type: "InnerProduct"
  bottom: "h_conted_15"
  top: "W_hc_h_15"
  param {
    name: "W_hc"
  }
  inner_product_param {
    num_output: 400
    bias_term: false
    weight_filler {
      type: "uniform"
      min: -0.01
      max: 0.01
    }
    axis: 2
  }
}
layer {
  name: "global1_gate_input_16"
  type: "Eltwise"
  bottom: "W_hc_h_15"
  bottom: "W_xc_x_16"
  top: "gate_input_16"
  eltwise_param {
    operation: SUM
  }
}
layer {
  name: "global1_unit_16"
  type: "LSTMUnit"
  bottom: "c_15"
  bottom: "gate_input_16"
  bottom: "cont_16"
  top: "c_16"
  top: "h_16"
}
layer {
  name: "global1_h_conted_16"
  type: "Eltwise"
  bottom: "h_16"
  bottom: "cont_17"
  top: "h_conted_16"
  eltwise_param {
    operation: SUM
    coeff_blob: true
  }
}
layer {
  name: "global1_transform_17"
  type: "InnerProduct"
  bottom: "h_conted_16"
  top: "W_hc_h_16"
  param {
    name: "W_hc"
  }
  inner_product_param {
    num_output: 400
    bias_term: false
    weight_filler {
      type: "uniform"
      min: -0.01
      max: 0.01
    }
    axis: 2
  }
}
layer {
  name: "global1_gate_input_17"
  type: "Eltwise"
  bottom: "W_hc_h_16"
  bottom: "W_xc_x_17"
  top: "gate_input_17"
  eltwise_param {
    operation: SUM
  }
}
layer {
  name: "global1_unit_17"
  type: "LSTMUnit"
  bottom: "c_16"
  bottom: "gate_input_17"
  bottom: "cont_17"
  top: "c_17"
  top: "h_17"
}
layer {
  name: "global1_h_conted_17"
  type: "Eltwise"
  bottom: "h_17"
  bottom: "cont_18"
  top: "h_conted_17"
  eltwise_param {
    operation: SUM
    coeff_blob: true
  }
}
layer {
  name: "global1_transform_18"
  type: "InnerProduct"
  bottom: "h_conted_17"
  top: "W_hc_h_17"
  param {
    name: "W_hc"
  }
  inner_product_param {
    num_output: 400
    bias_term: false
    weight_filler {
      type: "uniform"
      min: -0.01
      max: 0.01
    }
    axis: 2
  }
}
layer {
  name: "global1_gate_input_18"
  type: "Eltwise"
  bottom: "W_hc_h_17"
  bottom: "W_xc_x_18"
  top: "gate_input_18"
  eltwise_param {
    operation: SUM
  }
}
layer {
  name: "global1_unit_18"
  type: "LSTMUnit"
  bottom: "c_17"
  bottom: "gate_input_18"
  bottom: "cont_18"
  top: "c_18"
  top: "h_18"
}
layer {
  name: "global1_h_conted_18"
  type: "Eltwise"
  bottom: "h_18"
  bottom: "cont_19"
  top: "h_conted_18"
  eltwise_param {
    operation: SUM
    coeff_blob: true
  }
}
layer {
  name: "global1_transform_19"
  type: "InnerProduct"
  bottom: "h_conted_18"
  top: "W_hc_h_18"
  param {
    name: "W_hc"
  }
  inner_product_param {
    num_output: 400
    bias_term: false
    weight_filler {
      type: "uniform"
      min: -0.01
      max: 0.01
    }
    axis: 2
  }
}
layer {
  name: "global1_gate_input_19"
  type: "Eltwise"
  bottom: "W_hc_h_18"
  bottom: "W_xc_x_19"
  top: "gate_input_19"
  eltwise_param {
    operation: SUM
  }
}
layer {
  name: "global1_unit_19"
  type: "LSTMUnit"
  bottom: "c_18"
  bottom: "gate_input_19"
  bottom: "cont_19"
  top: "c_19"
  top: "h_19"
}
layer {
  name: "global1_h_conted_19"
  type: "Eltwise"
  bottom: "h_19"
  bottom: "cont_20"
  top: "h_conted_19"
  eltwise_param {
    operation: SUM
    coeff_blob: true
  }
}
layer {
  name: "global1_transform_20"
  type: "InnerProduct"
  bottom: "h_conted_19"
  top: "W_hc_h_19"
  param {
    name: "W_hc"
  }
  inner_product_param {
    num_output: 400
    bias_term: false
    weight_filler {
      type: "uniform"
      min: -0.01
      max: 0.01
    }
    axis: 2
  }
}
layer {
  name: "global1_gate_input_20"
  type: "Eltwise"
  bottom: "W_hc_h_19"
  bottom: "W_xc_x_20"
  top: "gate_input_20"
  eltwise_param {
    operation: SUM
  }
}
layer {
  name: "global1_unit_20"
  type: "LSTMUnit"
  bottom: "c_19"
  bottom: "gate_input_20"
  bottom: "cont_20"
  top: "c_20"
  top: "h_20"
}
layer {
  name: "global1_h_conted_20"
  type: "Eltwise"
  bottom: "h_20"
  bottom: "cont_21"
  top: "h_conted_20"
  eltwise_param {
    operation: SUM
    coeff_blob: true
  }
}
layer {
  name: "global1_transform_21"
  type: "InnerProduct"
  bottom: "h_conted_20"
  top: "W_hc_h_20"
  param {
    name: "W_hc"
  }
  inner_product_param {
    num_output: 400
    bias_term: false
    weight_filler {
      type: "uniform"
      min: -0.01
      max: 0.01
    }
    axis: 2
  }
}
layer {
  name: "global1_gate_input_21"
  type: "Eltwise"
  bottom: "W_hc_h_20"
  bottom: "W_xc_x_21"
  top: "gate_input_21"
  eltwise_param {
    operation: SUM
  }
}
layer {
  name: "global1_unit_21"
  type: "LSTMUnit"
  bottom: "c_20"
  bottom: "gate_input_21"
  bottom: "cont_21"
  top: "c_21"
  top: "h_21"
}
layer {
  name: "global1_h_conted_21"
  type: "Eltwise"
  bottom: "h_21"
  bottom: "cont_22"
  top: "h_conted_21"
  eltwise_param {
    operation: SUM
    coeff_blob: true
  }
}
layer {
  name: "global1_transform_22"
  type: "InnerProduct"
  bottom: "h_conted_21"
  top: "W_hc_h_21"
  param {
    name: "W_hc"
  }
  inner_product_param {
    num_output: 400
    bias_term: false
    weight_filler {
      type: "uniform"
      min: -0.01
      max: 0.01
    }
    axis: 2
  }
}
layer {
  name: "global1_gate_input_22"
  type: "Eltwise"
  bottom: "W_hc_h_21"
  bottom: "W_xc_x_22"
  top: "gate_input_22"
  eltwise_param {
    operation: SUM
  }
}
layer {
  name: "global1_unit_22"
  type: "LSTMUnit"
  bottom: "c_21"
  bottom: "gate_input_22"
  bottom: "cont_22"
  top: "c_22"
  top: "h_22"
}
layer {
  name: "global1_h_conted_22"
  type: "Eltwise"
  bottom: "h_22"
  bottom: "cont_23"
  top: "h_conted_22"
  eltwise_param {
    operation: SUM
    coeff_blob: true
  }
}
layer {
  name: "global1_transform_23"
  type: "InnerProduct"
  bottom: "h_conted_22"
  top: "W_hc_h_22"
  param {
    name: "W_hc"
  }
  inner_product_param {
    num_output: 400
    bias_term: false
    weight_filler {
      type: "uniform"
      min: -0.01
      max: 0.01
    }
    axis: 2
  }
}
layer {
  name: "global1_gate_input_23"
  type: "Eltwise"
  bottom: "W_hc_h_22"
  bottom: "W_xc_x_23"
  top: "gate_input_23"
  eltwise_param {
    operation: SUM
  }
}
layer {
  name: "global1_unit_23"
  type: "LSTMUnit"
  bottom: "c_22"
  bottom: "gate_input_23"
  bottom: "cont_23"
  top: "c_23"
  top: "h_23"
}
layer {
  name: "global1_h_conted_23"
  type: "Eltwise"
  bottom: "h_23"
  bottom: "cont_24"
  top: "h_conted_23"
  eltwise_param {
    operation: SUM
    coeff_blob: true
  }
}
layer {
  name: "global1_transform_24"
  type: "InnerProduct"
  bottom: "h_conted_23"
  top: "W_hc_h_23"
  param {
    name: "W_hc"
  }
  inner_product_param {
    num_output: 400
    bias_term: false
    weight_filler {
      type: "uniform"
      min: -0.01
      max: 0.01
    }
    axis: 2
  }
}
layer {
  name: "global1_gate_input_24"
  type: "Eltwise"
  bottom: "W_hc_h_23"
  bottom: "W_xc_x_24"
  top: "gate_input_24"
  eltwise_param {
    operation: SUM
  }
}
layer {
  name: "global1_unit_24"
  type: "LSTMUnit"
  bottom: "c_23"
  bottom: "gate_input_24"
  bottom: "cont_24"
  top: "c_24"
  top: "h_24"
}
layer {
  name: "global1_h_conted_24"
  type: "Eltwise"
  bottom: "h_24"
  bottom: "cont_25"
  top: "h_conted_24"
  eltwise_param {
    operation: SUM
    coeff_blob: true
  }
}
layer {
  name: "global1_transform_25"
  type: "InnerProduct"
  bottom: "h_conted_24"
  top: "W_hc_h_24"
  param {
    name: "W_hc"
  }
  inner_product_param {
    num_output: 400
    bias_term: false
    weight_filler {
      type: "uniform"
      min: -0.01
      max: 0.01
    }
    axis: 2
  }
}
layer {
  name: "global1_gate_input_25"
  type: "Eltwise"
  bottom: "W_hc_h_24"
  bottom: "W_xc_x_25"
  top: "gate_input_25"
  eltwise_param {
    operation: SUM
  }
}
layer {
  name: "global1_unit_25"
  type: "LSTMUnit"
  bottom: "c_24"
  bottom: "gate_input_25"
  bottom: "cont_25"
  top: "c_25"
  top: "h_25"
}
layer {
  name: "global1_h_conted_25"
  type: "Eltwise"
  bottom: "h_25"
  bottom: "cont_26"
  top: "h_conted_25"
  eltwise_param {
    operation: SUM
    coeff_blob: true
  }
}
layer {
  name: "global1_transform_26"
  type: "InnerProduct"
  bottom: "h_conted_25"
  top: "W_hc_h_25"
  param {
    name: "W_hc"
  }
  inner_product_param {
    num_output: 400
    bias_term: false
    weight_filler {
      type: "uniform"
      min: -0.01
      max: 0.01
    }
    axis: 2
  }
}
layer {
  name: "global1_gate_input_26"
  type: "Eltwise"
  bottom: "W_hc_h_25"
  bottom: "W_xc_x_26"
  top: "gate_input_26"
  eltwise_param {
    operation: SUM
  }
}
layer {
  name: "global1_unit_26"
  type: "LSTMUnit"
  bottom: "c_25"
  bottom: "gate_input_26"
  bottom: "cont_26"
  top: "c_26"
  top: "h_26"
}
layer {
  name: "global1_h_conted_26"
  type: "Eltwise"
  bottom: "h_26"
  bottom: "cont_27"
  top: "h_conted_26"
  eltwise_param {
    operation: SUM
    coeff_blob: true
  }
}
layer {
  name: "global1_transform_27"
  type: "InnerProduct"
  bottom: "h_conted_26"
  top: "W_hc_h_26"
  param {
    name: "W_hc"
  }
  inner_product_param {
    num_output: 400
    bias_term: false
    weight_filler {
      type: "uniform"
      min: -0.01
      max: 0.01
    }
    axis: 2
  }
}
layer {
  name: "global1_gate_input_27"
  type: "Eltwise"
  bottom: "W_hc_h_26"
  bottom: "W_xc_x_27"
  top: "gate_input_27"
  eltwise_param {
    operation: SUM
  }
}
layer {
  name: "global1_unit_27"
  type: "LSTMUnit"
  bottom: "c_26"
  bottom: "gate_input_27"
  bottom: "cont_27"
  top: "c_27"
  top: "h_27"
}
layer {
  name: "global1_h_conted_27"
  type: "Eltwise"
  bottom: "h_27"
  bottom: "cont_28"
  top: "h_conted_27"
  eltwise_param {
    operation: SUM
    coeff_blob: true
  }
}
layer {
  name: "global1_transform_28"
  type: "InnerProduct"
  bottom: "h_conted_27"
  top: "W_hc_h_27"
  param {
    name: "W_hc"
  }
  inner_product_param {
    num_output: 400
    bias_term: false
    weight_filler {
      type: "uniform"
      min: -0.01
      max: 0.01
    }
    axis: 2
  }
}
layer {
  name: "global1_gate_input_28"
  type: "Eltwise"
  bottom: "W_hc_h_27"
  bottom: "W_xc_x_28"
  top: "gate_input_28"
  eltwise_param {
    operation: SUM
  }
}
layer {
  name: "global1_unit_28"
  type: "LSTMUnit"
  bottom: "c_27"
  bottom: "gate_input_28"
  bottom: "cont_28"
  top: "c_28"
  top: "h_28"
}
layer {
  name: "global1_h_conted_28"
  type: "Eltwise"
  bottom: "h_28"
  bottom: "cont_29"
  top: "h_conted_28"
  eltwise_param {
    operation: SUM
    coeff_blob: true
  }
}
layer {
  name: "global1_transform_29"
  type: "InnerProduct"
  bottom: "h_conted_28"
  top: "W_hc_h_28"
  param {
    name: "W_hc"
  }
  inner_product_param {
    num_output: 400
    bias_term: false
    weight_filler {
      type: "uniform"
      min: -0.01
      max: 0.01
    }
    axis: 2
  }
}
layer {
  name: "global1_gate_input_29"
  type: "Eltwise"
  bottom: "W_hc_h_28"
  bottom: "W_xc_x_29"
  top: "gate_input_29"
  eltwise_param {
    operation: SUM
  }
}
layer {
  name: "global1_unit_29"
  type: "LSTMUnit"
  bottom: "c_28"
  bottom: "gate_input_29"
  bottom: "cont_29"
  top: "c_29"
  top: "h_29"
}
layer {
  name: "global1_h_conted_29"
  type: "Eltwise"
  bottom: "h_29"
  bottom: "cont_30"
  top: "h_conted_29"
  eltwise_param {
    operation: SUM
    coeff_blob: true
  }
}
layer {
  name: "global1_transform_30"
  type: "InnerProduct"
  bottom: "h_conted_29"
  top: "W_hc_h_29"
  param {
    name: "W_hc"
  }
  inner_product_param {
    num_output: 400
    bias_term: false
    weight_filler {
      type: "uniform"
      min: -0.01
      max: 0.01
    }
    axis: 2
  }
}
layer {
  name: "global1_gate_input_30"
  type: "Eltwise"
  bottom: "W_hc_h_29"
  bottom: "W_xc_x_30"
  top: "gate_input_30"
  eltwise_param {
    operation: SUM
  }
}
layer {
  name: "global1_unit_30"
  type: "LSTMUnit"
  bottom: "c_29"
  bottom: "gate_input_30"
  bottom: "cont_30"
  top: "c_30"
  top: "h_30"
}
layer {
  name: "global1_h_conted_30"
  type: "Eltwise"
  bottom: "h_30"
  bottom: "cont_31"
  top: "h_conted_30"
  eltwise_param {
    operation: SUM
    coeff_blob: true
  }
}
layer {
  name: "global1_transform_31"
  type: "InnerProduct"
  bottom: "h_conted_30"
  top: "W_hc_h_30"
  param {
    name: "W_hc"
  }
  inner_product_param {
    num_output: 400
    bias_term: false
    weight_filler {
      type: "uniform"
      min: -0.01
      max: 0.01
    }
    axis: 2
  }
}
layer {
  name: "global1_gate_input_31"
  type: "Eltwise"
  bottom: "W_hc_h_30"
  bottom: "W_xc_x_31"
  top: "gate_input_31"
  eltwise_param {
    operation: SUM
  }
}
layer {
  name: "global1_unit_31"
  type: "LSTMUnit"
  bottom: "c_30"
  bottom: "gate_input_31"
  bottom: "cont_31"
  top: "c_31"
  top: "h_31"
}
layer {
  name: "global1_h_conted_31"
  type: "Eltwise"
  bottom: "h_31"
  bottom: "cont_32"
  top: "h_conted_31"
  eltwise_param {
    operation: SUM
    coeff_blob: true
  }
}
layer {
  name: "global1_transform_32"
  type: "InnerProduct"
  bottom: "h_conted_31"
  top: "W_hc_h_31"
  param {
    name: "W_hc"
  }
  inner_product_param {
    num_output: 400
    bias_term: false
    weight_filler {
      type: "uniform"
      min: -0.01
      max: 0.01
    }
    axis: 2
  }
}
layer {
  name: "global1_gate_input_32"
  type: "Eltwise"
  bottom: "W_hc_h_31"
  bottom: "W_xc_x_32"
  top: "gate_input_32"
  eltwise_param {
    operation: SUM
  }
}
layer {
  name: "global1_unit_32"
  type: "LSTMUnit"
  bottom: "c_31"
  bottom: "gate_input_32"
  bottom: "cont_32"
  top: "c_32"
  top: "h_32"
}
layer {
  name: "global1_h_conted_32"
  type: "Eltwise"
  bottom: "h_32"
  bottom: "cont_33"
  top: "h_conted_32"
  eltwise_param {
    operation: SUM
    coeff_blob: true
  }
}
layer {
  name: "global1_transform_33"
  type: "InnerProduct"
  bottom: "h_conted_32"
  top: "W_hc_h_32"
  param {
    name: "W_hc"
  }
  inner_product_param {
    num_output: 400
    bias_term: false
    weight_filler {
      type: "uniform"
      min: -0.01
      max: 0.01
    }
    axis: 2
  }
}
layer {
  name: "global1_gate_input_33"
  type: "Eltwise"
  bottom: "W_hc_h_32"
  bottom: "W_xc_x_33"
  top: "gate_input_33"
  eltwise_param {
    operation: SUM
  }
}
layer {
  name: "global1_unit_33"
  type: "LSTMUnit"
  bottom: "c_32"
  bottom: "gate_input_33"
  bottom: "cont_33"
  top: "c_33"
  top: "h_33"
}
layer {
  name: "global1_h_conted_33"
  type: "Eltwise"
  bottom: "h_33"
  bottom: "cont_34"
  top: "h_conted_33"
  eltwise_param {
    operation: SUM
    coeff_blob: true
  }
}
layer {
  name: "global1_transform_34"
  type: "InnerProduct"
  bottom: "h_conted_33"
  top: "W_hc_h_33"
  param {
    name: "W_hc"
  }
  inner_product_param {
    num_output: 400
    bias_term: false
    weight_filler {
      type: "uniform"
      min: -0.01
      max: 0.01
    }
    axis: 2
  }
}
layer {
  name: "global1_gate_input_34"
  type: "Eltwise"
  bottom: "W_hc_h_33"
  bottom: "W_xc_x_34"
  top: "gate_input_34"
  eltwise_param {
    operation: SUM
  }
}
layer {
  name: "global1_unit_34"
  type: "LSTMUnit"
  bottom: "c_33"
  bottom: "gate_input_34"
  bottom: "cont_34"
  top: "c_34"
  top: "h_34"
}
layer {
  name: "global1_h_conted_34"
  type: "Eltwise"
  bottom: "h_34"
  bottom: "cont_35"
  top: "h_conted_34"
  eltwise_param {
    operation: SUM
    coeff_blob: true
  }
}
layer {
  name: "global1_transform_35"
  type: "InnerProduct"
  bottom: "h_conted_34"
  top: "W_hc_h_34"
  param {
    name: "W_hc"
  }
  inner_product_param {
    num_output: 400
    bias_term: false
    w
I1130 21:15:22.816664  3907 net.cpp:341] Input 0 -> x
I1130 21:15:22.816673  3907 net.cpp:341] Input 1 -> cont
I1130 21:15:22.816678  3907 net.cpp:341] Input 2 -> c_0
I1130 21:15:22.816680  3907 net.cpp:341] Input 3 -> h_0
I1130 21:15:22.816700  3907 layer_factory.hpp:74] Creating layer global1_cont_slice
…
I1130 21:15:22.861307  3907 net.cpp:205] This network produces output c_T
I1130 21:15:22.861311  3907 net.cpp:205] This network produces output h
I1130 21:15:22.861524  3907 net.cpp:446] Collecting Learning Rate and Weight Decay.
I1130 21:15:22.861551  3907 net.cpp:218] Network initialization done.
I1130 21:15:22.861557  3907 net.cpp:219] Memory required for data: 25674192
I1130 21:15:22.861876  3907 recurrent_layer.cpp:135] Adding parameter 0: W_xc
I1130 21:15:22.861881  3907 recurrent_layer.cpp:135] Adding parameter 1: b_c
I1130 21:15:22.861883  3907 recurrent_layer.cpp:135] Adding parameter 2: W_hc
I1130 21:15:22.862092  3907 net.cpp:120] Top shape: 54 54 100 (291600)
I1130 21:15:22.862099  3907 layer_factory.hpp:74] Creating layer global1_reshape
I1130 21:15:22.862104  3907 net.cpp:84] Creating Layer global1_reshape
I1130 21:15:22.862108  3907 net.cpp:381] global1_reshape <- global1
I1130 21:15:22.862112  3907 net.cpp:339] global1_reshape -> global1_reshape
I1130 21:15:22.862123  3907 net.cpp:113] Setting up global1_reshape
I1130 21:15:22.862128  3907 net.cpp:120] Top shape: 1 100 54 54 (291600)
I1130 21:15:22.862129  3907 layer_factory.hpp:74] Creating layer global1_trans
I1130 21:15:22.862133  3907 net.cpp:84] Creating Layer global1_trans
I1130 21:15:22.862136  3907 net.cpp:381] global1_trans <- global1_reshape
I1130 21:15:22.862140  3907 net.cpp:339] global1_trans -> global1_trans
I1130 21:15:22.862144  3907 net.cpp:113] Setting up global1_trans
I1130 21:15:22.862149  3907 net.cpp:120] Top shape: 1 100 54 54 (291600)
I1130 21:15:22.862151  3907 layer_factory.hpp:74] Creating layer global2_reshape
I1130 21:15:22.862154  3907 net.cpp:84] Creating Layer global2_reshape
I1130 21:15:22.862157  3907 net.cpp:381] global2_reshape <- global2
I1130 21:15:22.862161  3907 net.cpp:339] global2_reshape -> global2_reshape
I1130 21:15:22.862165  3907 net.cpp:113] Setting up global2_reshape
I1130 21:15:22.862169  3907 net.cpp:120] Top shape: 1 100 54 54 (291600)
I1130 21:15:22.862171  3907 layer_factory.hpp:74] Creating layer global2_trans
I1130 21:15:22.862174  3907 net.cpp:84] Creating Layer global2_trans
I1130 21:15:22.862177  3907 net.cpp:381] global2_trans <- global2_reshape
I1130 21:15:22.862180  3907 net.cpp:339] global2_trans -> global2_trans
I1130 21:15:22.862185  3907 net.cpp:113] Setting up global2_trans
I1130 21:15:22.862187  3907 net.cpp:120] Top shape: 1 100 54 54 (291600)
I1130 21:15:22.862190  3907 layer_factory.hpp:74] Creating layer local_global
I1130 21:15:22.862193  3907 net.cpp:84] Creating Layer local_global
I1130 21:15:22.862196  3907 net.cpp:381] local_global <- conv8_1
I1130 21:15:22.862200  3907 net.cpp:381] local_global <- global1_trans
I1130 21:15:22.862203  3907 net.cpp:381] local_global <- global2_trans
I1130 21:15:22.862206  3907 net.cpp:339] local_global -> local_global
I1130 21:15:22.862210  3907 net.cpp:113] Setting up local_global
I1130 21:15:22.862215  3907 net.cpp:120] Top shape: 1 712 54 54 (2076192)
I1130 21:15:22.862217  3907 layer_factory.hpp:74] Creating layer local_global_conv
I1130 21:15:22.862222  3907 net.cpp:84] Creating Layer local_global_conv
I1130 21:15:22.862226  3907 net.cpp:381] local_global_conv <- local_global
I1130 21:15:22.862228  3907 net.cpp:339] local_global_conv -> local_global_conv
I1130 21:15:22.862233  3907 net.cpp:113] Setting up local_global_conv
I1130 21:15:22.863905  3907 net.cpp:120] Top shape: 1 38 54 54 (110808)
I1130 21:15:22.863911  3907 layer_factory.hpp:74] Creating layer local_global_conv_local_global_conv_0_split
I1130 21:15:22.863915  3907 net.cpp:84] Creating Layer local_global_conv_local_global_conv_0_split
I1130 21:15:22.863919  3907 net.cpp:381] local_global_conv_local_global_conv_0_split <- local_global_conv
I1130 21:15:22.863922  3907 net.cpp:339] local_global_conv_local_global_conv_0_split -> local_global_conv_local_global_conv_0_split_0
I1130 21:15:22.863927  3907 net.cpp:339] local_global_conv_local_global_conv_0_split -> local_global_conv_local_global_conv_0_split_1
I1130 21:15:22.863931  3907 net.cpp:113] Setting up local_global_conv_local_global_conv_0_split
I1130 21:15:22.863935  3907 net.cpp:120] Top shape: 1 38 54 54 (110808)
I1130 21:15:22.863939  3907 net.cpp:120] Top shape: 1 38 54 54 (110808)
I1130 21:15:22.863941  3907 layer_factory.hpp:74] Creating layer loss
I1130 21:15:22.863945  3907 net.cpp:84] Creating Layer loss
I1130 21:15:22.863951  3907 net.cpp:381] loss <- local_global_conv_local_global_conv_0_split_0
I1130 21:15:22.863955  3907 net.cpp:381] loss <- label_shrink_label_shrink_0_split_0
I1130 21:15:22.863958  3907 net.cpp:339] loss -> (automatic)
I1130 21:15:22.863962  3907 net.cpp:113] Setting up loss
I1130 21:15:22.863968  3907 layer_factory.hpp:74] Creating layer loss
I1130 21:15:22.864054  3907 net.cpp:120] Top shape: (1)
I1130 21:15:22.864058  3907 net.cpp:122]     with loss weight 1
I1130 21:15:22.864071  3907 layer_factory.hpp:74] Creating layer accuracy
I1130 21:15:22.864078  3907 net.cpp:84] Creating Layer accuracy
I1130 21:15:22.864079  3907 net.cpp:381] accuracy <- local_global_conv_local_global_conv_0_split_1
I1130 21:15:22.864087  3907 net.cpp:381] accuracy <- label_shrink_label_shrink_0_split_1
I1130 21:15:22.864091  3907 net.cpp:339] accuracy -> accuracy
I1130 21:15:22.864099  3907 net.cpp:113] Setting up accuracy
I1130 21:15:22.864109  3907 net.cpp:120] Top shape: 1 1 1 4 (4)
I1130 21:15:22.864112  3907 net.cpp:169] accuracy does not need backward computation.
I1130 21:15:22.864114  3907 net.cpp:167] loss needs backward computation.
I1130 21:15:22.864117  3907 net.cpp:167] local_global_conv_local_global_conv_0_split needs backward computation.
I1130 21:15:22.864120  3907 net.cpp:167] local_global_conv needs backward computation.
I1130 21:15:22.864122  3907 net.cpp:167] local_global needs backward computation.
…
